./build/bin/mx-opt --mlir-print-ir-after-all ./test/Mx/forwardtest.mlir 2> ./test/IR_Dump/forwardtest.txt

// -----// IR Dump After {anonymous}::MxToTosaLowerPass () //----- //
module {
  func.func @test_forward(%arg0: tensor<1x1x28x28xf32>, %arg1: tensor<20x1x5x5xf32>, %arg2: tensor<20xf32>, %arg3: tensor<50x20x5x5xf32>, %arg4: tensor<50xf32>, %arg5: tensor<500x800xf32>, %arg6: tensor<10x500xf32>) -> tensor<1x10xf32> attributes {llvm.emit_c_interface} {
    %0 = "tosa.const"() <{value = dense<[0, 2, 3, 1]> : tensor<4xi32>}> : () -> tensor<4xi32>
    %1 = tosa.transpose %arg0, %0 : (tensor<1x1x28x28xf32>, tensor<4xi32>) -> tensor<1x28x28x1xf32>
    %2 = tosa.transpose %arg1, %0 : (tensor<20x1x5x5xf32>, tensor<4xi32>) -> tensor<20x5x5x1xf32>
    %3 = tosa.conv2d %1, %2, %arg2 {dilation = array<i64: 1, 1>, pad = array<i64: 0, 0, 0, 0>, stride = array<i64: 1, 1>} : (tensor<1x28x28x1xf32>, tensor<20x5x5x1xf32>, tensor<20xf32>) -> tensor<1x24x24x20xf32>
    %4 = "tosa.const"() <{value = dense<[0, 3, 1, 2]> : tensor<4xi32>}> : () -> tensor<4xi32>
    %5 = tosa.transpose %3, %4 : (tensor<1x24x24x20xf32>, tensor<4xi32>) -> tensor<1x20x24x24xf32>
    %6 = tosa.cast %5 : (tensor<1x20x24x24xf32>) -> tensor<1x20x24x24xf32>
    %7 = tosa.tanh %6 : (tensor<1x20x24x24xf32>) -> tensor<1x20x24x24xf32>
    %8 = "tosa.const"() <{value = dense<[0, 2, 3, 1]> : tensor<4xi32>}> : () -> tensor<4xi32>
    %9 = tosa.transpose %7, %8 : (tensor<1x20x24x24xf32>, tensor<4xi32>) -> tensor<1x24x24x20xf32>
    %10 = tosa.max_pool2d %9 {kernel = array<i64: 2, 2>, pad = array<i64: 0, 0, 0, 0>, stride = array<i64: 2, 2>} : (tensor<1x24x24x20xf32>) -> tensor<1x12x12x20xf32>
    %11 = "tosa.const"() <{value = dense<[0, 3, 1, 2]> : tensor<4xi32>}> : () -> tensor<4xi32>
    %12 = tosa.transpose %10, %11 : (tensor<1x12x12x20xf32>, tensor<4xi32>) -> tensor<1x20x12x12xf32>
    %cast = tensor.cast %12 : tensor<1x20x12x12xf32> to tensor<1x20x12x12xf32>
    %13 = "tosa.const"() <{value = dense<[0, 2, 3, 1]> : tensor<4xi32>}> : () -> tensor<4xi32>
    %14 = tosa.transpose %cast, %13 : (tensor<1x20x12x12xf32>, tensor<4xi32>) -> tensor<1x12x12x20xf32>
    %15 = tosa.transpose %arg3, %13 : (tensor<50x20x5x5xf32>, tensor<4xi32>) -> tensor<50x5x5x20xf32>
    %16 = tosa.conv2d %14, %15, %arg4 {dilation = array<i64: 1, 1>, pad = array<i64: 0, 0, 0, 0>, stride = array<i64: 1, 1>} : (tensor<1x12x12x20xf32>, tensor<50x5x5x20xf32>, tensor<50xf32>) -> tensor<1x8x8x50xf32>
    %17 = "tosa.const"() <{value = dense<[0, 3, 1, 2]> : tensor<4xi32>}> : () -> tensor<4xi32>
    %18 = tosa.transpose %16, %17 : (tensor<1x8x8x50xf32>, tensor<4xi32>) -> tensor<1x50x8x8xf32>
    %19 = tosa.cast %18 : (tensor<1x50x8x8xf32>) -> tensor<1x50x8x8xf32>
    %20 = tosa.tanh %19 : (tensor<1x50x8x8xf32>) -> tensor<1x50x8x8xf32>
    %21 = "tosa.const"() <{value = dense<[0, 2, 3, 1]> : tensor<4xi32>}> : () -> tensor<4xi32>
    %22 = tosa.transpose %20, %21 : (tensor<1x50x8x8xf32>, tensor<4xi32>) -> tensor<1x8x8x50xf32>
    %23 = tosa.max_pool2d %22 {kernel = array<i64: 2, 2>, pad = array<i64: 0, 0, 0, 0>, stride = array<i64: 2, 2>} : (tensor<1x8x8x50xf32>) -> tensor<1x4x4x50xf32>
    %24 = "tosa.const"() <{value = dense<[0, 3, 1, 2]> : tensor<4xi32>}> : () -> tensor<4xi32>
    %25 = tosa.transpose %23, %24 : (tensor<1x4x4x50xf32>, tensor<4xi32>) -> tensor<1x50x4x4xf32>
    %cast_0 = tensor.cast %25 : tensor<1x50x4x4xf32> to tensor<1x50x4x4xf32>
    %26 = tosa.reshape %cast_0 {new_shape = array<i64: 1, 800>} : (tensor<1x50x4x4xf32>) -> tensor<1x800xf32>
    %27 = "tosa.const"() <{value = dense<[1, 0]> : tensor<2xi32>}> : () -> tensor<2xi32>
    %28 = tosa.transpose %arg5, %27 : (tensor<500x800xf32>, tensor<2xi32>) -> tensor<800x500xf32>
    %29 = tosa.reshape %26 {new_shape = array<i64: 1, 1, 800>} : (tensor<1x800xf32>) -> tensor<1x1x800xf32>
    %30 = tosa.reshape %28 {new_shape = array<i64: 1, 800, 500>} : (tensor<800x500xf32>) -> tensor<1x800x500xf32>
    %31 = tosa.matmul %29, %30 : (tensor<1x1x800xf32>, tensor<1x800x500xf32>) -> tensor<1x1x500xf32>
    %32 = tosa.reshape %31 {new_shape = array<i64: 1, 500>} : (tensor<1x1x500xf32>) -> tensor<1x500xf32>
    %cast_1 = tensor.cast %32 : tensor<1x500xf32> to tensor<1x500xf32>
    %33 = tosa.tanh %cast_1 : (tensor<1x500xf32>) -> tensor<1x500xf32>
    %34 = "tosa.const"() <{value = dense<[1, 0]> : tensor<2xi32>}> : () -> tensor<2xi32>
    %35 = tosa.transpose %arg6, %34 : (tensor<10x500xf32>, tensor<2xi32>) -> tensor<500x10xf32>
    %36 = tosa.reshape %33 {new_shape = array<i64: 1, 1, 500>} : (tensor<1x500xf32>) -> tensor<1x1x500xf32>
    %37 = tosa.reshape %35 {new_shape = array<i64: 1, 500, 10>} : (tensor<500x10xf32>) -> tensor<1x500x10xf32>
    %38 = tosa.matmul %36, %37 : (tensor<1x1x500xf32>, tensor<1x500x10xf32>) -> tensor<1x1x10xf32>
    %39 = tosa.reshape %38 {new_shape = array<i64: 1, 10>} : (tensor<1x1x10xf32>) -> tensor<1x10xf32>
    %cast_2 = tensor.cast %39 : tensor<1x10xf32> to tensor<1x10xf32>
    %40 = tosa.tanh %cast_2 : (tensor<1x10xf32>) -> tensor<1x10xf32>
    return %40 : tensor<1x10xf32>
  }
}


// -----// IR Dump After TosaToTensor (tosa-to-tensor) //----- //
module {
  func.func @test_forward(%arg0: tensor<1x1x28x28xf32>, %arg1: tensor<20x1x5x5xf32>, %arg2: tensor<20xf32>, %arg3: tensor<50x20x5x5xf32>, %arg4: tensor<50xf32>, %arg5: tensor<500x800xf32>, %arg6: tensor<10x500xf32>) -> tensor<1x10xf32> attributes {llvm.emit_c_interface} {
    %0 = "tosa.const"() <{value = dense<[0, 2, 3, 1]> : tensor<4xi32>}> : () -> tensor<4xi32>
    %1 = tosa.transpose %arg0, %0 : (tensor<1x1x28x28xf32>, tensor<4xi32>) -> tensor<1x28x28x1xf32>
    %2 = tosa.transpose %arg1, %0 : (tensor<20x1x5x5xf32>, tensor<4xi32>) -> tensor<20x5x5x1xf32>
    %3 = tosa.conv2d %1, %2, %arg2 {dilation = array<i64: 1, 1>, pad = array<i64: 0, 0, 0, 0>, stride = array<i64: 1, 1>} : (tensor<1x28x28x1xf32>, tensor<20x5x5x1xf32>, tensor<20xf32>) -> tensor<1x24x24x20xf32>
    %4 = "tosa.const"() <{value = dense<[0, 3, 1, 2]> : tensor<4xi32>}> : () -> tensor<4xi32>
    %5 = tosa.transpose %3, %4 : (tensor<1x24x24x20xf32>, tensor<4xi32>) -> tensor<1x20x24x24xf32>
    %6 = tosa.tanh %5 : (tensor<1x20x24x24xf32>) -> tensor<1x20x24x24xf32>
    %7 = "tosa.const"() <{value = dense<[0, 2, 3, 1]> : tensor<4xi32>}> : () -> tensor<4xi32>
    %8 = tosa.transpose %6, %7 : (tensor<1x20x24x24xf32>, tensor<4xi32>) -> tensor<1x24x24x20xf32>
    %9 = tosa.max_pool2d %8 {kernel = array<i64: 2, 2>, pad = array<i64: 0, 0, 0, 0>, stride = array<i64: 2, 2>} : (tensor<1x24x24x20xf32>) -> tensor<1x12x12x20xf32>
    %10 = "tosa.const"() <{value = dense<[0, 3, 1, 2]> : tensor<4xi32>}> : () -> tensor<4xi32>
    %11 = tosa.transpose %9, %10 : (tensor<1x12x12x20xf32>, tensor<4xi32>) -> tensor<1x20x12x12xf32>
    %cast = tensor.cast %11 : tensor<1x20x12x12xf32> to tensor<1x20x12x12xf32>
    %12 = "tosa.const"() <{value = dense<[0, 2, 3, 1]> : tensor<4xi32>}> : () -> tensor<4xi32>
    %13 = tosa.transpose %cast, %12 : (tensor<1x20x12x12xf32>, tensor<4xi32>) -> tensor<1x12x12x20xf32>
    %14 = tosa.transpose %arg3, %12 : (tensor<50x20x5x5xf32>, tensor<4xi32>) -> tensor<50x5x5x20xf32>
    %15 = tosa.conv2d %13, %14, %arg4 {dilation = array<i64: 1, 1>, pad = array<i64: 0, 0, 0, 0>, stride = array<i64: 1, 1>} : (tensor<1x12x12x20xf32>, tensor<50x5x5x20xf32>, tensor<50xf32>) -> tensor<1x8x8x50xf32>
    %16 = "tosa.const"() <{value = dense<[0, 3, 1, 2]> : tensor<4xi32>}> : () -> tensor<4xi32>
    %17 = tosa.transpose %15, %16 : (tensor<1x8x8x50xf32>, tensor<4xi32>) -> tensor<1x50x8x8xf32>
    %18 = tosa.tanh %17 : (tensor<1x50x8x8xf32>) -> tensor<1x50x8x8xf32>
    %19 = "tosa.const"() <{value = dense<[0, 2, 3, 1]> : tensor<4xi32>}> : () -> tensor<4xi32>
    %20 = tosa.transpose %18, %19 : (tensor<1x50x8x8xf32>, tensor<4xi32>) -> tensor<1x8x8x50xf32>
    %21 = tosa.max_pool2d %20 {kernel = array<i64: 2, 2>, pad = array<i64: 0, 0, 0, 0>, stride = array<i64: 2, 2>} : (tensor<1x8x8x50xf32>) -> tensor<1x4x4x50xf32>
    %22 = "tosa.const"() <{value = dense<[0, 3, 1, 2]> : tensor<4xi32>}> : () -> tensor<4xi32>
    %23 = tosa.transpose %21, %22 : (tensor<1x4x4x50xf32>, tensor<4xi32>) -> tensor<1x50x4x4xf32>
    %cast_0 = tensor.cast %23 : tensor<1x50x4x4xf32> to tensor<1x50x4x4xf32>
    %collapsed = tensor.collapse_shape %cast_0 [[0], [1, 2, 3]] : tensor<1x50x4x4xf32> into tensor<1x800xf32>
    %24 = "tosa.const"() <{value = dense<[1, 0]> : tensor<2xi32>}> : () -> tensor<2xi32>
    %25 = tosa.transpose %arg5, %24 : (tensor<500x800xf32>, tensor<2xi32>) -> tensor<800x500xf32>
    %collapsed_1 = tensor.collapse_shape %cast_0 [[0], [1, 2, 3]] : tensor<1x50x4x4xf32> into tensor<1x800xf32>
    %expanded = tensor.expand_shape %collapsed_1 [[0, 1], [2]] output_shape [1, 1, 800] : tensor<1x800xf32> into tensor<1x1x800xf32>
    %expanded_2 = tensor.expand_shape %25 [[0, 1], [2]] output_shape [1, 800, 500] : tensor<800x500xf32> into tensor<1x800x500xf32>
    %26 = tosa.matmul %expanded, %expanded_2 : (tensor<1x1x800xf32>, tensor<1x800x500xf32>) -> tensor<1x1x500xf32>
    %collapsed_3 = tensor.collapse_shape %26 [[0, 1], [2]] : tensor<1x1x500xf32> into tensor<1x500xf32>
    %cast_4 = tensor.cast %collapsed_3 : tensor<1x500xf32> to tensor<1x500xf32>
    %27 = tosa.tanh %cast_4 : (tensor<1x500xf32>) -> tensor<1x500xf32>
    %28 = "tosa.const"() <{value = dense<[1, 0]> : tensor<2xi32>}> : () -> tensor<2xi32>
    %29 = tosa.transpose %arg6, %28 : (tensor<10x500xf32>, tensor<2xi32>) -> tensor<500x10xf32>
    %expanded_5 = tensor.expand_shape %27 [[0, 1], [2]] output_shape [1, 1, 500] : tensor<1x500xf32> into tensor<1x1x500xf32>
    %expanded_6 = tensor.expand_shape %29 [[0, 1], [2]] output_shape [1, 500, 10] : tensor<500x10xf32> into tensor<1x500x10xf32>
    %30 = tosa.matmul %expanded_5, %expanded_6 : (tensor<1x1x500xf32>, tensor<1x500x10xf32>) -> tensor<1x1x10xf32>
    %collapsed_7 = tensor.collapse_shape %30 [[0, 1], [2]] : tensor<1x1x10xf32> into tensor<1x10xf32>
    %cast_8 = tensor.cast %collapsed_7 : tensor<1x10xf32> to tensor<1x10xf32>
    %31 = tosa.tanh %cast_8 : (tensor<1x10xf32>) -> tensor<1x10xf32>
    return %31 : tensor<1x10xf32>
  }
}


// -----// IR Dump After TosaToLinalgNamed (tosa-to-linalg-named) //----- //
func.func @test_forward(%arg0: tensor<1x1x28x28xf32>, %arg1: tensor<20x1x5x5xf32>, %arg2: tensor<20xf32>, %arg3: tensor<50x20x5x5xf32>, %arg4: tensor<50xf32>, %arg5: tensor<500x800xf32>, %arg6: tensor<10x500xf32>) -> tensor<1x10xf32> attributes {llvm.emit_c_interface} {
  %0 = "tosa.const"() <{value = dense<[0, 2, 3, 1]> : tensor<4xi32>}> : () -> tensor<4xi32>
  %1 = tensor.empty() : tensor<1x28x28x1xf32>
  %transposed = linalg.transpose ins(%arg0 : tensor<1x1x28x28xf32>) outs(%1 : tensor<1x28x28x1xf32>) permutation = [0, 2, 3, 1] 
  %2 = tensor.empty() : tensor<20x5x5x1xf32>
  %transposed_0 = linalg.transpose ins(%arg1 : tensor<20x1x5x5xf32>) outs(%2 : tensor<20x5x5x1xf32>) permutation = [0, 2, 3, 1] 
  %3 = tensor.empty() : tensor<1x24x24x20xf32>
  %4 = linalg.generic {indexing_maps = [affine_map<(d0, d1, d2, d3) -> (d3)>, affine_map<(d0, d1, d2, d3) -> (d0, d1, d2, d3)>], iterator_types = ["parallel", "parallel", "parallel", "parallel"]} ins(%arg2 : tensor<20xf32>) outs(%3 : tensor<1x24x24x20xf32>) {
  ^bb0(%in: f32, %out: f32):
    linalg.yield %in : f32
  } -> tensor<1x24x24x20xf32>
  %5 = linalg.conv_2d_nhwc_fhwc {dilations = dense<1> : tensor<2xi64>, strides = dense<1> : tensor<2xi64>} ins(%transposed, %transposed_0 : tensor<1x28x28x1xf32>, tensor<20x5x5x1xf32>) outs(%4 : tensor<1x24x24x20xf32>) -> tensor<1x24x24x20xf32>
  %6 = "tosa.const"() <{value = dense<[0, 3, 1, 2]> : tensor<4xi32>}> : () -> tensor<4xi32>
  %7 = tensor.empty() : tensor<1x20x24x24xf32>
  %transposed_1 = linalg.transpose ins(%5 : tensor<1x24x24x20xf32>) outs(%7 : tensor<1x20x24x24xf32>) permutation = [0, 3, 1, 2] 
  %8 = tosa.tanh %transposed_1 : (tensor<1x20x24x24xf32>) -> tensor<1x20x24x24xf32>
  %9 = "tosa.const"() <{value = dense<[0, 2, 3, 1]> : tensor<4xi32>}> : () -> tensor<4xi32>
  %10 = tensor.empty() : tensor<1x24x24x20xf32>
  %transposed_2 = linalg.transpose ins(%8 : tensor<1x20x24x24xf32>) outs(%10 : tensor<1x24x24x20xf32>) permutation = [0, 2, 3, 1] 
  %cst = arith.constant -3.40282347E+38 : f32
  %11 = tensor.empty() : tensor<1x12x12x20xf32>
  %12 = linalg.fill ins(%cst : f32) outs(%11 : tensor<1x12x12x20xf32>) -> tensor<1x12x12x20xf32>
  %13 = tensor.empty() : tensor<2x2xf32>
  %14 = linalg.pooling_nhwc_max {dilations = dense<1> : vector<2xi64>, strides = dense<2> : vector<2xi64>} ins(%transposed_2, %13 : tensor<1x24x24x20xf32>, tensor<2x2xf32>) outs(%12 : tensor<1x12x12x20xf32>) -> tensor<1x12x12x20xf32>
  %15 = "tosa.const"() <{value = dense<[0, 3, 1, 2]> : tensor<4xi32>}> : () -> tensor<4xi32>
  %16 = tensor.empty() : tensor<1x20x12x12xf32>
  %transposed_3 = linalg.transpose ins(%14 : tensor<1x12x12x20xf32>) outs(%16 : tensor<1x20x12x12xf32>) permutation = [0, 3, 1, 2] 
  %cast = tensor.cast %transposed_3 : tensor<1x20x12x12xf32> to tensor<1x20x12x12xf32>
  %17 = "tosa.const"() <{value = dense<[0, 2, 3, 1]> : tensor<4xi32>}> : () -> tensor<4xi32>
  %18 = tensor.empty() : tensor<1x12x12x20xf32>
  %transposed_4 = linalg.transpose ins(%cast : tensor<1x20x12x12xf32>) outs(%18 : tensor<1x12x12x20xf32>) permutation = [0, 2, 3, 1] 
  %19 = tensor.empty() : tensor<50x5x5x20xf32>
  %transposed_5 = linalg.transpose ins(%arg3 : tensor<50x20x5x5xf32>) outs(%19 : tensor<50x5x5x20xf32>) permutation = [0, 2, 3, 1] 
  %20 = tensor.empty() : tensor<1x8x8x50xf32>
  %21 = linalg.generic {indexing_maps = [affine_map<(d0, d1, d2, d3) -> (d3)>, affine_map<(d0, d1, d2, d3) -> (d0, d1, d2, d3)>], iterator_types = ["parallel", "parallel", "parallel", "parallel"]} ins(%arg4 : tensor<50xf32>) outs(%20 : tensor<1x8x8x50xf32>) {
  ^bb0(%in: f32, %out: f32):
    linalg.yield %in : f32
  } -> tensor<1x8x8x50xf32>
  %22 = linalg.conv_2d_nhwc_fhwc {dilations = dense<1> : tensor<2xi64>, strides = dense<1> : tensor<2xi64>} ins(%transposed_4, %transposed_5 : tensor<1x12x12x20xf32>, tensor<50x5x5x20xf32>) outs(%21 : tensor<1x8x8x50xf32>) -> tensor<1x8x8x50xf32>
  %23 = "tosa.const"() <{value = dense<[0, 3, 1, 2]> : tensor<4xi32>}> : () -> tensor<4xi32>
  %24 = tensor.empty() : tensor<1x50x8x8xf32>
  %transposed_6 = linalg.transpose ins(%22 : tensor<1x8x8x50xf32>) outs(%24 : tensor<1x50x8x8xf32>) permutation = [0, 3, 1, 2] 
  %25 = tosa.tanh %transposed_6 : (tensor<1x50x8x8xf32>) -> tensor<1x50x8x8xf32>
  %26 = "tosa.const"() <{value = dense<[0, 2, 3, 1]> : tensor<4xi32>}> : () -> tensor<4xi32>
  %27 = tensor.empty() : tensor<1x8x8x50xf32>
  %transposed_7 = linalg.transpose ins(%25 : tensor<1x50x8x8xf32>) outs(%27 : tensor<1x8x8x50xf32>) permutation = [0, 2, 3, 1] 
  %cst_8 = arith.constant -3.40282347E+38 : f32
  %28 = tensor.empty() : tensor<1x4x4x50xf32>
  %29 = linalg.fill ins(%cst_8 : f32) outs(%28 : tensor<1x4x4x50xf32>) -> tensor<1x4x4x50xf32>
  %30 = tensor.empty() : tensor<2x2xf32>
  %31 = linalg.pooling_nhwc_max {dilations = dense<1> : vector<2xi64>, strides = dense<2> : vector<2xi64>} ins(%transposed_7, %30 : tensor<1x8x8x50xf32>, tensor<2x2xf32>) outs(%29 : tensor<1x4x4x50xf32>) -> tensor<1x4x4x50xf32>
  %32 = "tosa.const"() <{value = dense<[0, 3, 1, 2]> : tensor<4xi32>}> : () -> tensor<4xi32>
  %33 = tensor.empty() : tensor<1x50x4x4xf32>
  %transposed_9 = linalg.transpose ins(%31 : tensor<1x4x4x50xf32>) outs(%33 : tensor<1x50x4x4xf32>) permutation = [0, 3, 1, 2] 
  %cast_10 = tensor.cast %transposed_9 : tensor<1x50x4x4xf32> to tensor<1x50x4x4xf32>
  %collapsed = tensor.collapse_shape %cast_10 [[0], [1, 2, 3]] : tensor<1x50x4x4xf32> into tensor<1x800xf32>
  %34 = "tosa.const"() <{value = dense<[1, 0]> : tensor<2xi32>}> : () -> tensor<2xi32>
  %35 = tensor.empty() : tensor<800x500xf32>
  %transposed_11 = linalg.transpose ins(%arg5 : tensor<500x800xf32>) outs(%35 : tensor<800x500xf32>) permutation = [1, 0] 
  %collapsed_12 = tensor.collapse_shape %cast_10 [[0], [1, 2, 3]] : tensor<1x50x4x4xf32> into tensor<1x800xf32>
  %expanded = tensor.expand_shape %collapsed_12 [[0, 1], [2]] output_shape [1, 1, 800] : tensor<1x800xf32> into tensor<1x1x800xf32>
  %expanded_13 = tensor.expand_shape %transposed_11 [[0, 1], [2]] output_shape [1, 800, 500] : tensor<800x500xf32> into tensor<1x800x500xf32>
  %cst_14 = arith.constant 0.000000e+00 : f32
  %36 = tensor.empty() : tensor<1x1x500xf32>
  %37 = linalg.fill ins(%cst_14 : f32) outs(%36 : tensor<1x1x500xf32>) -> tensor<1x1x500xf32>
  %38 = linalg.batch_matmul ins(%expanded, %expanded_13 : tensor<1x1x800xf32>, tensor<1x800x500xf32>) outs(%37 : tensor<1x1x500xf32>) -> tensor<1x1x500xf32>
  %collapsed_15 = tensor.collapse_shape %38 [[0, 1], [2]] : tensor<1x1x500xf32> into tensor<1x500xf32>
  %cast_16 = tensor.cast %collapsed_15 : tensor<1x500xf32> to tensor<1x500xf32>
  %39 = tosa.tanh %cast_16 : (tensor<1x500xf32>) -> tensor<1x500xf32>
  %40 = "tosa.const"() <{value = dense<[1, 0]> : tensor<2xi32>}> : () -> tensor<2xi32>
  %41 = tensor.empty() : tensor<500x10xf32>
  %transposed_17 = linalg.transpose ins(%arg6 : tensor<10x500xf32>) outs(%41 : tensor<500x10xf32>) permutation = [1, 0] 
  %expanded_18 = tensor.expand_shape %39 [[0, 1], [2]] output_shape [1, 1, 500] : tensor<1x500xf32> into tensor<1x1x500xf32>
  %expanded_19 = tensor.expand_shape %transposed_17 [[0, 1], [2]] output_shape [1, 500, 10] : tensor<500x10xf32> into tensor<1x500x10xf32>
  %cst_20 = arith.constant 0.000000e+00 : f32
  %42 = tensor.empty() : tensor<1x1x10xf32>
  %43 = linalg.fill ins(%cst_20 : f32) outs(%42 : tensor<1x1x10xf32>) -> tensor<1x1x10xf32>
  %44 = linalg.batch_matmul ins(%expanded_18, %expanded_19 : tensor<1x1x500xf32>, tensor<1x500x10xf32>) outs(%43 : tensor<1x1x10xf32>) -> tensor<1x1x10xf32>
  %collapsed_21 = tensor.collapse_shape %44 [[0, 1], [2]] : tensor<1x1x10xf32> into tensor<1x10xf32>
  %cast_22 = tensor.cast %collapsed_21 : tensor<1x10xf32> to tensor<1x10xf32>
  %45 = tosa.tanh %cast_22 : (tensor<1x10xf32>) -> tensor<1x10xf32>
  return %45 : tensor<1x10xf32>
}

// -----// IR Dump After TosaToLinalg (tosa-to-linalg) //----- //
func.func @test_forward(%arg0: tensor<1x1x28x28xf32>, %arg1: tensor<20x1x5x5xf32>, %arg2: tensor<20xf32>, %arg3: tensor<50x20x5x5xf32>, %arg4: tensor<50xf32>, %arg5: tensor<500x800xf32>, %arg6: tensor<10x500xf32>) -> tensor<1x10xf32> attributes {llvm.emit_c_interface} {
  %0 = "tosa.const"() <{value = dense<[0, 2, 3, 1]> : tensor<4xi32>}> : () -> tensor<4xi32>
  %1 = tensor.empty() : tensor<1x28x28x1xf32>
  %transposed = linalg.transpose ins(%arg0 : tensor<1x1x28x28xf32>) outs(%1 : tensor<1x28x28x1xf32>) permutation = [0, 2, 3, 1] 
  %2 = tensor.empty() : tensor<20x5x5x1xf32>
  %transposed_0 = linalg.transpose ins(%arg1 : tensor<20x1x5x5xf32>) outs(%2 : tensor<20x5x5x1xf32>) permutation = [0, 2, 3, 1] 
  %3 = tensor.empty() : tensor<1x24x24x20xf32>
  %4 = linalg.generic {indexing_maps = [affine_map<(d0, d1, d2, d3) -> (d3)>, affine_map<(d0, d1, d2, d3) -> (d0, d1, d2, d3)>], iterator_types = ["parallel", "parallel", "parallel", "parallel"]} ins(%arg2 : tensor<20xf32>) outs(%3 : tensor<1x24x24x20xf32>) {
  ^bb0(%in: f32, %out: f32):
    linalg.yield %in : f32
  } -> tensor<1x24x24x20xf32>
  %5 = linalg.conv_2d_nhwc_fhwc {dilations = dense<1> : tensor<2xi64>, strides = dense<1> : tensor<2xi64>} ins(%transposed, %transposed_0 : tensor<1x28x28x1xf32>, tensor<20x5x5x1xf32>) outs(%4 : tensor<1x24x24x20xf32>) -> tensor<1x24x24x20xf32>
  %6 = "tosa.const"() <{value = dense<[0, 3, 1, 2]> : tensor<4xi32>}> : () -> tensor<4xi32>
  %7 = tensor.empty() : tensor<1x20x24x24xf32>
  %transposed_1 = linalg.transpose ins(%5 : tensor<1x24x24x20xf32>) outs(%7 : tensor<1x20x24x24xf32>) permutation = [0, 3, 1, 2] 
  %8 = tensor.empty() : tensor<1x20x24x24xf32>
  %9 = linalg.generic {indexing_maps = [affine_map<(d0, d1, d2, d3) -> (0, d1, d2, d3)>, affine_map<(d0, d1, d2, d3) -> (d0, d1, d2, d3)>], iterator_types = ["parallel", "parallel", "parallel", "parallel"]} ins(%transposed_1 : tensor<1x20x24x24xf32>) outs(%8 : tensor<1x20x24x24xf32>) {
  ^bb0(%in: f32, %out: f32):
    %50 = math.tanh %in : f32
    linalg.yield %50 : f32
  } -> tensor<1x20x24x24xf32>
  %10 = "tosa.const"() <{value = dense<[0, 2, 3, 1]> : tensor<4xi32>}> : () -> tensor<4xi32>
  %11 = tensor.empty() : tensor<1x24x24x20xf32>
  %transposed_2 = linalg.transpose ins(%9 : tensor<1x20x24x24xf32>) outs(%11 : tensor<1x24x24x20xf32>) permutation = [0, 2, 3, 1] 
  %cst = arith.constant -3.40282347E+38 : f32
  %12 = tensor.empty() : tensor<1x12x12x20xf32>
  %13 = linalg.fill ins(%cst : f32) outs(%12 : tensor<1x12x12x20xf32>) -> tensor<1x12x12x20xf32>
  %14 = tensor.empty() : tensor<2x2xf32>
  %15 = linalg.pooling_nhwc_max {dilations = dense<1> : vector<2xi64>, strides = dense<2> : vector<2xi64>} ins(%transposed_2, %14 : tensor<1x24x24x20xf32>, tensor<2x2xf32>) outs(%13 : tensor<1x12x12x20xf32>) -> tensor<1x12x12x20xf32>
  %16 = "tosa.const"() <{value = dense<[0, 3, 1, 2]> : tensor<4xi32>}> : () -> tensor<4xi32>
  %17 = tensor.empty() : tensor<1x20x12x12xf32>
  %transposed_3 = linalg.transpose ins(%15 : tensor<1x12x12x20xf32>) outs(%17 : tensor<1x20x12x12xf32>) permutation = [0, 3, 1, 2] 
  %cast = tensor.cast %transposed_3 : tensor<1x20x12x12xf32> to tensor<1x20x12x12xf32>
  %18 = "tosa.const"() <{value = dense<[0, 2, 3, 1]> : tensor<4xi32>}> : () -> tensor<4xi32>
  %19 = tensor.empty() : tensor<1x12x12x20xf32>
  %transposed_4 = linalg.transpose ins(%cast : tensor<1x20x12x12xf32>) outs(%19 : tensor<1x12x12x20xf32>) permutation = [0, 2, 3, 1] 
  %20 = tensor.empty() : tensor<50x5x5x20xf32>
  %transposed_5 = linalg.transpose ins(%arg3 : tensor<50x20x5x5xf32>) outs(%20 : tensor<50x5x5x20xf32>) permutation = [0, 2, 3, 1] 
  %21 = tensor.empty() : tensor<1x8x8x50xf32>
  %22 = linalg.generic {indexing_maps = [affine_map<(d0, d1, d2, d3) -> (d3)>, affine_map<(d0, d1, d2, d3) -> (d0, d1, d2, d3)>], iterator_types = ["parallel", "parallel", "parallel", "parallel"]} ins(%arg4 : tensor<50xf32>) outs(%21 : tensor<1x8x8x50xf32>) {
  ^bb0(%in: f32, %out: f32):
    linalg.yield %in : f32
  } -> tensor<1x8x8x50xf32>
  %23 = linalg.conv_2d_nhwc_fhwc {dilations = dense<1> : tensor<2xi64>, strides = dense<1> : tensor<2xi64>} ins(%transposed_4, %transposed_5 : tensor<1x12x12x20xf32>, tensor<50x5x5x20xf32>) outs(%22 : tensor<1x8x8x50xf32>) -> tensor<1x8x8x50xf32>
  %24 = "tosa.const"() <{value = dense<[0, 3, 1, 2]> : tensor<4xi32>}> : () -> tensor<4xi32>
  %25 = tensor.empty() : tensor<1x50x8x8xf32>
  %transposed_6 = linalg.transpose ins(%23 : tensor<1x8x8x50xf32>) outs(%25 : tensor<1x50x8x8xf32>) permutation = [0, 3, 1, 2] 
  %26 = tensor.empty() : tensor<1x50x8x8xf32>
  %27 = linalg.generic {indexing_maps = [affine_map<(d0, d1, d2, d3) -> (0, d1, d2, d3)>, affine_map<(d0, d1, d2, d3) -> (d0, d1, d2, d3)>], iterator_types = ["parallel", "parallel", "parallel", "parallel"]} ins(%transposed_6 : tensor<1x50x8x8xf32>) outs(%26 : tensor<1x50x8x8xf32>) {
  ^bb0(%in: f32, %out: f32):
    %50 = math.tanh %in : f32
    linalg.yield %50 : f32
  } -> tensor<1x50x8x8xf32>
  %28 = "tosa.const"() <{value = dense<[0, 2, 3, 1]> : tensor<4xi32>}> : () -> tensor<4xi32>
  %29 = tensor.empty() : tensor<1x8x8x50xf32>
  %transposed_7 = linalg.transpose ins(%27 : tensor<1x50x8x8xf32>) outs(%29 : tensor<1x8x8x50xf32>) permutation = [0, 2, 3, 1] 
  %cst_8 = arith.constant -3.40282347E+38 : f32
  %30 = tensor.empty() : tensor<1x4x4x50xf32>
  %31 = linalg.fill ins(%cst_8 : f32) outs(%30 : tensor<1x4x4x50xf32>) -> tensor<1x4x4x50xf32>
  %32 = tensor.empty() : tensor<2x2xf32>
  %33 = linalg.pooling_nhwc_max {dilations = dense<1> : vector<2xi64>, strides = dense<2> : vector<2xi64>} ins(%transposed_7, %32 : tensor<1x8x8x50xf32>, tensor<2x2xf32>) outs(%31 : tensor<1x4x4x50xf32>) -> tensor<1x4x4x50xf32>
  %34 = "tosa.const"() <{value = dense<[0, 3, 1, 2]> : tensor<4xi32>}> : () -> tensor<4xi32>
  %35 = tensor.empty() : tensor<1x50x4x4xf32>
  %transposed_9 = linalg.transpose ins(%33 : tensor<1x4x4x50xf32>) outs(%35 : tensor<1x50x4x4xf32>) permutation = [0, 3, 1, 2] 
  %cast_10 = tensor.cast %transposed_9 : tensor<1x50x4x4xf32> to tensor<1x50x4x4xf32>
  %collapsed = tensor.collapse_shape %cast_10 [[0], [1, 2, 3]] : tensor<1x50x4x4xf32> into tensor<1x800xf32>
  %36 = "tosa.const"() <{value = dense<[1, 0]> : tensor<2xi32>}> : () -> tensor<2xi32>
  %37 = tensor.empty() : tensor<800x500xf32>
  %transposed_11 = linalg.transpose ins(%arg5 : tensor<500x800xf32>) outs(%37 : tensor<800x500xf32>) permutation = [1, 0] 
  %collapsed_12 = tensor.collapse_shape %cast_10 [[0], [1, 2, 3]] : tensor<1x50x4x4xf32> into tensor<1x800xf32>
  %expanded = tensor.expand_shape %collapsed_12 [[0, 1], [2]] output_shape [1, 1, 800] : tensor<1x800xf32> into tensor<1x1x800xf32>
  %expanded_13 = tensor.expand_shape %transposed_11 [[0, 1], [2]] output_shape [1, 800, 500] : tensor<800x500xf32> into tensor<1x800x500xf32>
  %cst_14 = arith.constant 0.000000e+00 : f32
  %38 = tensor.empty() : tensor<1x1x500xf32>
  %39 = linalg.fill ins(%cst_14 : f32) outs(%38 : tensor<1x1x500xf32>) -> tensor<1x1x500xf32>
  %40 = linalg.batch_matmul ins(%expanded, %expanded_13 : tensor<1x1x800xf32>, tensor<1x800x500xf32>) outs(%39 : tensor<1x1x500xf32>) -> tensor<1x1x500xf32>
  %collapsed_15 = tensor.collapse_shape %40 [[0, 1], [2]] : tensor<1x1x500xf32> into tensor<1x500xf32>
  %cast_16 = tensor.cast %collapsed_15 : tensor<1x500xf32> to tensor<1x500xf32>
  %41 = tensor.empty() : tensor<1x500xf32>
  %42 = linalg.generic {indexing_maps = [affine_map<(d0, d1) -> (0, d1)>, affine_map<(d0, d1) -> (d0, d1)>], iterator_types = ["parallel", "parallel"]} ins(%cast_16 : tensor<1x500xf32>) outs(%41 : tensor<1x500xf32>) {
  ^bb0(%in: f32, %out: f32):
    %50 = math.tanh %in : f32
    linalg.yield %50 : f32
  } -> tensor<1x500xf32>
  %43 = "tosa.const"() <{value = dense<[1, 0]> : tensor<2xi32>}> : () -> tensor<2xi32>
  %44 = tensor.empty() : tensor<500x10xf32>
  %transposed_17 = linalg.transpose ins(%arg6 : tensor<10x500xf32>) outs(%44 : tensor<500x10xf32>) permutation = [1, 0] 
  %expanded_18 = tensor.expand_shape %42 [[0, 1], [2]] output_shape [1, 1, 500] : tensor<1x500xf32> into tensor<1x1x500xf32>
  %expanded_19 = tensor.expand_shape %transposed_17 [[0, 1], [2]] output_shape [1, 500, 10] : tensor<500x10xf32> into tensor<1x500x10xf32>
  %cst_20 = arith.constant 0.000000e+00 : f32
  %45 = tensor.empty() : tensor<1x1x10xf32>
  %46 = linalg.fill ins(%cst_20 : f32) outs(%45 : tensor<1x1x10xf32>) -> tensor<1x1x10xf32>
  %47 = linalg.batch_matmul ins(%expanded_18, %expanded_19 : tensor<1x1x500xf32>, tensor<1x500x10xf32>) outs(%46 : tensor<1x1x10xf32>) -> tensor<1x1x10xf32>
  %collapsed_21 = tensor.collapse_shape %47 [[0, 1], [2]] : tensor<1x1x10xf32> into tensor<1x10xf32>
  %cast_22 = tensor.cast %collapsed_21 : tensor<1x10xf32> to tensor<1x10xf32>
  %48 = tensor.empty() : tensor<1x10xf32>
  %49 = linalg.generic {indexing_maps = [affine_map<(d0, d1) -> (0, d1)>, affine_map<(d0, d1) -> (d0, d1)>], iterator_types = ["parallel", "parallel"]} ins(%cast_22 : tensor<1x10xf32>) outs(%48 : tensor<1x10xf32>) {
  ^bb0(%in: f32, %out: f32):
    %50 = math.tanh %in : f32
    linalg.yield %50 : f32
  } -> tensor<1x10xf32>
  return %49 : tensor<1x10xf32>
}

// -----// IR Dump After OneShotBufferize (one-shot-bufferize) //----- //
#map = affine_map<(d0, d1, d2, d3) -> (d3)>
#map1 = affine_map<(d0, d1, d2, d3) -> (d0, d1, d2, d3)>
#map2 = affine_map<(d0, d1, d2, d3) -> (0, d1, d2, d3)>
#map3 = affine_map<(d0, d1) -> (0, d1)>
#map4 = affine_map<(d0, d1) -> (d0, d1)>
module {
  func.func @test_forward(%arg0: tensor<1x1x28x28xf32>, %arg1: tensor<20x1x5x5xf32>, %arg2: tensor<20xf32>, %arg3: tensor<50x20x5x5xf32>, %arg4: tensor<50xf32>, %arg5: tensor<500x800xf32>, %arg6: tensor<10x500xf32>) -> tensor<1x10xf32> attributes {llvm.emit_c_interface} {
    %0 = bufferization.to_memref %arg6 : memref<10x500xf32, strided<[?, ?], offset: ?>>
    %1 = bufferization.to_memref %arg5 : memref<500x800xf32, strided<[?, ?], offset: ?>>
    %2 = bufferization.to_memref %arg4 : memref<50xf32, strided<[?], offset: ?>>
    %3 = bufferization.to_memref %arg3 : memref<50x20x5x5xf32, strided<[?, ?, ?, ?], offset: ?>>
    %4 = bufferization.to_memref %arg2 : memref<20xf32, strided<[?], offset: ?>>
    %5 = bufferization.to_memref %arg1 : memref<20x1x5x5xf32, strided<[?, ?, ?, ?], offset: ?>>
    %6 = bufferization.to_memref %arg0 : memref<1x1x28x28xf32, strided<[?, ?, ?, ?], offset: ?>>
    %7 = "tosa.const"() <{value = dense<[0, 2, 3, 1]> : tensor<4xi32>}> : () -> tensor<4xi32>
    %alloc = memref.alloc() {alignment = 64 : i64} : memref<1x28x28x1xf32>
    linalg.transpose ins(%6 : memref<1x1x28x28xf32, strided<[?, ?, ?, ?], offset: ?>>) outs(%alloc : memref<1x28x28x1xf32>) permutation = [0, 2, 3, 1] 
    %alloc_0 = memref.alloc() {alignment = 64 : i64} : memref<20x5x5x1xf32>
    linalg.transpose ins(%5 : memref<20x1x5x5xf32, strided<[?, ?, ?, ?], offset: ?>>) outs(%alloc_0 : memref<20x5x5x1xf32>) permutation = [0, 2, 3, 1] 
    %alloc_1 = memref.alloc() {alignment = 64 : i64} : memref<1x24x24x20xf32>
    linalg.generic {indexing_maps = [#map, #map1], iterator_types = ["parallel", "parallel", "parallel", "parallel"]} ins(%4 : memref<20xf32, strided<[?], offset: ?>>) outs(%alloc_1 : memref<1x24x24x20xf32>) {
    ^bb0(%in: f32, %out: f32):
      linalg.yield %in : f32
    }
    linalg.conv_2d_nhwc_fhwc {dilations = dense<1> : tensor<2xi64>, strides = dense<1> : tensor<2xi64>} ins(%alloc, %alloc_0 : memref<1x28x28x1xf32>, memref<20x5x5x1xf32>) outs(%alloc_1 : memref<1x24x24x20xf32>)
    %8 = "tosa.const"() <{value = dense<[0, 3, 1, 2]> : tensor<4xi32>}> : () -> tensor<4xi32>
    %alloc_2 = memref.alloc() {alignment = 64 : i64} : memref<1x20x24x24xf32>
    linalg.transpose ins(%alloc_1 : memref<1x24x24x20xf32>) outs(%alloc_2 : memref<1x20x24x24xf32>) permutation = [0, 3, 1, 2] 
    %alloc_3 = memref.alloc() {alignment = 64 : i64} : memref<1x20x24x24xf32>
    linalg.generic {indexing_maps = [#map2, #map1], iterator_types = ["parallel", "parallel", "parallel", "parallel"]} ins(%alloc_2 : memref<1x20x24x24xf32>) outs(%alloc_3 : memref<1x20x24x24xf32>) {
    ^bb0(%in: f32, %out: f32):
      %18 = math.tanh %in : f32
      linalg.yield %18 : f32
    }
    %9 = "tosa.const"() <{value = dense<[0, 2, 3, 1]> : tensor<4xi32>}> : () -> tensor<4xi32>
    %alloc_4 = memref.alloc() {alignment = 64 : i64} : memref<1x24x24x20xf32>
    linalg.transpose ins(%alloc_3 : memref<1x20x24x24xf32>) outs(%alloc_4 : memref<1x24x24x20xf32>) permutation = [0, 2, 3, 1] 
    %cst = arith.constant -3.40282347E+38 : f32
    %alloc_5 = memref.alloc() {alignment = 64 : i64} : memref<1x12x12x20xf32>
    linalg.fill ins(%cst : f32) outs(%alloc_5 : memref<1x12x12x20xf32>)
    %alloc_6 = memref.alloc() {alignment = 64 : i64} : memref<2x2xf32>
    linalg.pooling_nhwc_max {dilations = dense<1> : vector<2xi64>, strides = dense<2> : vector<2xi64>} ins(%alloc_4, %alloc_6 : memref<1x24x24x20xf32>, memref<2x2xf32>) outs(%alloc_5 : memref<1x12x12x20xf32>)
    %10 = "tosa.const"() <{value = dense<[0, 3, 1, 2]> : tensor<4xi32>}> : () -> tensor<4xi32>
    %alloc_7 = memref.alloc() {alignment = 64 : i64} : memref<1x20x12x12xf32>
    linalg.transpose ins(%alloc_5 : memref<1x12x12x20xf32>) outs(%alloc_7 : memref<1x20x12x12xf32>) permutation = [0, 3, 1, 2] 
    %11 = "tosa.const"() <{value = dense<[0, 2, 3, 1]> : tensor<4xi32>}> : () -> tensor<4xi32>
    %alloc_8 = memref.alloc() {alignment = 64 : i64} : memref<1x12x12x20xf32>
    linalg.transpose ins(%alloc_7 : memref<1x20x12x12xf32>) outs(%alloc_8 : memref<1x12x12x20xf32>) permutation = [0, 2, 3, 1] 
    %alloc_9 = memref.alloc() {alignment = 64 : i64} : memref<50x5x5x20xf32>
    linalg.transpose ins(%3 : memref<50x20x5x5xf32, strided<[?, ?, ?, ?], offset: ?>>) outs(%alloc_9 : memref<50x5x5x20xf32>) permutation = [0, 2, 3, 1] 
    %alloc_10 = memref.alloc() {alignment = 64 : i64} : memref<1x8x8x50xf32>
    linalg.generic {indexing_maps = [#map, #map1], iterator_types = ["parallel", "parallel", "parallel", "parallel"]} ins(%2 : memref<50xf32, strided<[?], offset: ?>>) outs(%alloc_10 : memref<1x8x8x50xf32>) {
    ^bb0(%in: f32, %out: f32):
      linalg.yield %in : f32
    }
    linalg.conv_2d_nhwc_fhwc {dilations = dense<1> : tensor<2xi64>, strides = dense<1> : tensor<2xi64>} ins(%alloc_8, %alloc_9 : memref<1x12x12x20xf32>, memref<50x5x5x20xf32>) outs(%alloc_10 : memref<1x8x8x50xf32>)
    %12 = "tosa.const"() <{value = dense<[0, 3, 1, 2]> : tensor<4xi32>}> : () -> tensor<4xi32>
    %alloc_11 = memref.alloc() {alignment = 64 : i64} : memref<1x50x8x8xf32>
    linalg.transpose ins(%alloc_10 : memref<1x8x8x50xf32>) outs(%alloc_11 : memref<1x50x8x8xf32>) permutation = [0, 3, 1, 2] 
    %alloc_12 = memref.alloc() {alignment = 64 : i64} : memref<1x50x8x8xf32>
    linalg.generic {indexing_maps = [#map2, #map1], iterator_types = ["parallel", "parallel", "parallel", "parallel"]} ins(%alloc_11 : memref<1x50x8x8xf32>) outs(%alloc_12 : memref<1x50x8x8xf32>) {
    ^bb0(%in: f32, %out: f32):
      %18 = math.tanh %in : f32
      linalg.yield %18 : f32
    }
    %13 = "tosa.const"() <{value = dense<[0, 2, 3, 1]> : tensor<4xi32>}> : () -> tensor<4xi32>
    %alloc_13 = memref.alloc() {alignment = 64 : i64} : memref<1x8x8x50xf32>
    linalg.transpose ins(%alloc_12 : memref<1x50x8x8xf32>) outs(%alloc_13 : memref<1x8x8x50xf32>) permutation = [0, 2, 3, 1] 
    %cst_14 = arith.constant -3.40282347E+38 : f32
    %alloc_15 = memref.alloc() {alignment = 64 : i64} : memref<1x4x4x50xf32>
    linalg.fill ins(%cst_14 : f32) outs(%alloc_15 : memref<1x4x4x50xf32>)
    %alloc_16 = memref.alloc() {alignment = 64 : i64} : memref<2x2xf32>
    linalg.pooling_nhwc_max {dilations = dense<1> : vector<2xi64>, strides = dense<2> : vector<2xi64>} ins(%alloc_13, %alloc_16 : memref<1x8x8x50xf32>, memref<2x2xf32>) outs(%alloc_15 : memref<1x4x4x50xf32>)
    %14 = "tosa.const"() <{value = dense<[0, 3, 1, 2]> : tensor<4xi32>}> : () -> tensor<4xi32>
    %alloc_17 = memref.alloc() {alignment = 64 : i64} : memref<1x50x4x4xf32>
    linalg.transpose ins(%alloc_15 : memref<1x4x4x50xf32>) outs(%alloc_17 : memref<1x50x4x4xf32>) permutation = [0, 3, 1, 2] 
    %collapse_shape = memref.collapse_shape %alloc_17 [[0], [1, 2, 3]] : memref<1x50x4x4xf32> into memref<1x800xf32>
    %15 = "tosa.const"() <{value = dense<[1, 0]> : tensor<2xi32>}> : () -> tensor<2xi32>
    %alloc_18 = memref.alloc() {alignment = 64 : i64} : memref<800x500xf32>
    linalg.transpose ins(%1 : memref<500x800xf32, strided<[?, ?], offset: ?>>) outs(%alloc_18 : memref<800x500xf32>) permutation = [1, 0] 
    %collapse_shape_19 = memref.collapse_shape %alloc_17 [[0], [1, 2, 3]] : memref<1x50x4x4xf32> into memref<1x800xf32>
    %expand_shape = memref.expand_shape %collapse_shape_19 [[0, 1], [2]] output_shape [1, 1, 800] : memref<1x800xf32> into memref<1x1x800xf32>
    %expand_shape_20 = memref.expand_shape %alloc_18 [[0, 1], [2]] output_shape [1, 800, 500] : memref<800x500xf32> into memref<1x800x500xf32>
    %cst_21 = arith.constant 0.000000e+00 : f32
    %alloc_22 = memref.alloc() {alignment = 64 : i64} : memref<1x1x500xf32>
    linalg.fill ins(%cst_21 : f32) outs(%alloc_22 : memref<1x1x500xf32>)
    linalg.batch_matmul ins(%expand_shape, %expand_shape_20 : memref<1x1x800xf32>, memref<1x800x500xf32>) outs(%alloc_22 : memref<1x1x500xf32>)
    %collapse_shape_23 = memref.collapse_shape %alloc_22 [[0, 1], [2]] : memref<1x1x500xf32> into memref<1x500xf32>
    %alloc_24 = memref.alloc() {alignment = 64 : i64} : memref<1x500xf32>
    linalg.generic {indexing_maps = [#map3, #map4], iterator_types = ["parallel", "parallel"]} ins(%collapse_shape_23 : memref<1x500xf32>) outs(%alloc_24 : memref<1x500xf32>) {
    ^bb0(%in: f32, %out: f32):
      %18 = math.tanh %in : f32
      linalg.yield %18 : f32
    }
    %16 = "tosa.const"() <{value = dense<[1, 0]> : tensor<2xi32>}> : () -> tensor<2xi32>
    %alloc_25 = memref.alloc() {alignment = 64 : i64} : memref<500x10xf32>
    linalg.transpose ins(%0 : memref<10x500xf32, strided<[?, ?], offset: ?>>) outs(%alloc_25 : memref<500x10xf32>) permutation = [1, 0] 
    %expand_shape_26 = memref.expand_shape %alloc_24 [[0, 1], [2]] output_shape [1, 1, 500] : memref<1x500xf32> into memref<1x1x500xf32>
    %expand_shape_27 = memref.expand_shape %alloc_25 [[0, 1], [2]] output_shape [1, 500, 10] : memref<500x10xf32> into memref<1x500x10xf32>
    %cst_28 = arith.constant 0.000000e+00 : f32
    %alloc_29 = memref.alloc() {alignment = 64 : i64} : memref<1x1x10xf32>
    linalg.fill ins(%cst_28 : f32) outs(%alloc_29 : memref<1x1x10xf32>)
    linalg.batch_matmul ins(%expand_shape_26, %expand_shape_27 : memref<1x1x500xf32>, memref<1x500x10xf32>) outs(%alloc_29 : memref<1x1x10xf32>)
    %collapse_shape_30 = memref.collapse_shape %alloc_29 [[0, 1], [2]] : memref<1x1x10xf32> into memref<1x10xf32>
    %alloc_31 = memref.alloc() {alignment = 64 : i64} : memref<1x10xf32>
    linalg.generic {indexing_maps = [#map3, #map4], iterator_types = ["parallel", "parallel"]} ins(%collapse_shape_30 : memref<1x10xf32>) outs(%alloc_31 : memref<1x10xf32>) {
    ^bb0(%in: f32, %out: f32):
      %18 = math.tanh %in : f32
      linalg.yield %18 : f32
    }
    %17 = bufferization.to_tensor %alloc_31 : memref<1x10xf32>
    return %17 : tensor<1x10xf32>
  }
}


// -----// IR Dump After FuncBufferize (func-bufferize) //----- //
#map = affine_map<(d0, d1, d2, d3) -> (d3)>
#map1 = affine_map<(d0, d1, d2, d3) -> (d0, d1, d2, d3)>
#map2 = affine_map<(d0, d1, d2, d3) -> (0, d1, d2, d3)>
#map3 = affine_map<(d0, d1) -> (0, d1)>
#map4 = affine_map<(d0, d1) -> (d0, d1)>
module {
  func.func @test_forward(%arg0: memref<1x1x28x28xf32>, %arg1: memref<20x1x5x5xf32>, %arg2: memref<20xf32>, %arg3: memref<50x20x5x5xf32>, %arg4: memref<50xf32>, %arg5: memref<500x800xf32>, %arg6: memref<10x500xf32>) -> memref<1x10xf32> attributes {llvm.emit_c_interface} {
    %0 = bufferization.to_tensor %arg6 : memref<10x500xf32>
    %1 = bufferization.to_tensor %arg5 : memref<500x800xf32>
    %2 = bufferization.to_tensor %arg4 : memref<50xf32>
    %3 = bufferization.to_tensor %arg3 : memref<50x20x5x5xf32>
    %4 = bufferization.to_tensor %arg2 : memref<20xf32>
    %5 = bufferization.to_tensor %arg1 : memref<20x1x5x5xf32>
    %6 = bufferization.to_tensor %arg0 : memref<1x1x28x28xf32>
    %7 = bufferization.to_memref %0 : memref<10x500xf32, strided<[?, ?], offset: ?>>
    %8 = bufferization.to_memref %1 : memref<500x800xf32, strided<[?, ?], offset: ?>>
    %9 = bufferization.to_memref %2 : memref<50xf32, strided<[?], offset: ?>>
    %10 = bufferization.to_memref %3 : memref<50x20x5x5xf32, strided<[?, ?, ?, ?], offset: ?>>
    %11 = bufferization.to_memref %4 : memref<20xf32, strided<[?], offset: ?>>
    %12 = bufferization.to_memref %5 : memref<20x1x5x5xf32, strided<[?, ?, ?, ?], offset: ?>>
    %13 = bufferization.to_memref %6 : memref<1x1x28x28xf32, strided<[?, ?, ?, ?], offset: ?>>
    %14 = "tosa.const"() <{value = dense<[0, 2, 3, 1]> : tensor<4xi32>}> : () -> tensor<4xi32>
    %alloc = memref.alloc() {alignment = 64 : i64} : memref<1x28x28x1xf32>
    linalg.transpose ins(%13 : memref<1x1x28x28xf32, strided<[?, ?, ?, ?], offset: ?>>) outs(%alloc : memref<1x28x28x1xf32>) permutation = [0, 2, 3, 1] 
    %alloc_0 = memref.alloc() {alignment = 64 : i64} : memref<20x5x5x1xf32>
    linalg.transpose ins(%12 : memref<20x1x5x5xf32, strided<[?, ?, ?, ?], offset: ?>>) outs(%alloc_0 : memref<20x5x5x1xf32>) permutation = [0, 2, 3, 1] 
    %alloc_1 = memref.alloc() {alignment = 64 : i64} : memref<1x24x24x20xf32>
    linalg.generic {indexing_maps = [#map, #map1], iterator_types = ["parallel", "parallel", "parallel", "parallel"]} ins(%11 : memref<20xf32, strided<[?], offset: ?>>) outs(%alloc_1 : memref<1x24x24x20xf32>) {
    ^bb0(%in: f32, %out: f32):
      linalg.yield %in : f32
    }
    linalg.conv_2d_nhwc_fhwc {dilations = dense<1> : tensor<2xi64>, strides = dense<1> : tensor<2xi64>} ins(%alloc, %alloc_0 : memref<1x28x28x1xf32>, memref<20x5x5x1xf32>) outs(%alloc_1 : memref<1x24x24x20xf32>)
    %15 = "tosa.const"() <{value = dense<[0, 3, 1, 2]> : tensor<4xi32>}> : () -> tensor<4xi32>
    %alloc_2 = memref.alloc() {alignment = 64 : i64} : memref<1x20x24x24xf32>
    linalg.transpose ins(%alloc_1 : memref<1x24x24x20xf32>) outs(%alloc_2 : memref<1x20x24x24xf32>) permutation = [0, 3, 1, 2] 
    %alloc_3 = memref.alloc() {alignment = 64 : i64} : memref<1x20x24x24xf32>
    linalg.generic {indexing_maps = [#map2, #map1], iterator_types = ["parallel", "parallel", "parallel", "parallel"]} ins(%alloc_2 : memref<1x20x24x24xf32>) outs(%alloc_3 : memref<1x20x24x24xf32>) {
    ^bb0(%in: f32, %out: f32):
      %26 = math.tanh %in : f32
      linalg.yield %26 : f32
    }
    %16 = "tosa.const"() <{value = dense<[0, 2, 3, 1]> : tensor<4xi32>}> : () -> tensor<4xi32>
    %alloc_4 = memref.alloc() {alignment = 64 : i64} : memref<1x24x24x20xf32>
    linalg.transpose ins(%alloc_3 : memref<1x20x24x24xf32>) outs(%alloc_4 : memref<1x24x24x20xf32>) permutation = [0, 2, 3, 1] 
    %cst = arith.constant -3.40282347E+38 : f32
    %alloc_5 = memref.alloc() {alignment = 64 : i64} : memref<1x12x12x20xf32>
    linalg.fill ins(%cst : f32) outs(%alloc_5 : memref<1x12x12x20xf32>)
    %alloc_6 = memref.alloc() {alignment = 64 : i64} : memref<2x2xf32>
    linalg.pooling_nhwc_max {dilations = dense<1> : vector<2xi64>, strides = dense<2> : vector<2xi64>} ins(%alloc_4, %alloc_6 : memref<1x24x24x20xf32>, memref<2x2xf32>) outs(%alloc_5 : memref<1x12x12x20xf32>)
    %17 = "tosa.const"() <{value = dense<[0, 3, 1, 2]> : tensor<4xi32>}> : () -> tensor<4xi32>
    %alloc_7 = memref.alloc() {alignment = 64 : i64} : memref<1x20x12x12xf32>
    linalg.transpose ins(%alloc_5 : memref<1x12x12x20xf32>) outs(%alloc_7 : memref<1x20x12x12xf32>) permutation = [0, 3, 1, 2] 
    %18 = "tosa.const"() <{value = dense<[0, 2, 3, 1]> : tensor<4xi32>}> : () -> tensor<4xi32>
    %alloc_8 = memref.alloc() {alignment = 64 : i64} : memref<1x12x12x20xf32>
    linalg.transpose ins(%alloc_7 : memref<1x20x12x12xf32>) outs(%alloc_8 : memref<1x12x12x20xf32>) permutation = [0, 2, 3, 1] 
    %alloc_9 = memref.alloc() {alignment = 64 : i64} : memref<50x5x5x20xf32>
    linalg.transpose ins(%10 : memref<50x20x5x5xf32, strided<[?, ?, ?, ?], offset: ?>>) outs(%alloc_9 : memref<50x5x5x20xf32>) permutation = [0, 2, 3, 1] 
    %alloc_10 = memref.alloc() {alignment = 64 : i64} : memref<1x8x8x50xf32>
    linalg.generic {indexing_maps = [#map, #map1], iterator_types = ["parallel", "parallel", "parallel", "parallel"]} ins(%9 : memref<50xf32, strided<[?], offset: ?>>) outs(%alloc_10 : memref<1x8x8x50xf32>) {
    ^bb0(%in: f32, %out: f32):
      linalg.yield %in : f32
    }
    linalg.conv_2d_nhwc_fhwc {dilations = dense<1> : tensor<2xi64>, strides = dense<1> : tensor<2xi64>} ins(%alloc_8, %alloc_9 : memref<1x12x12x20xf32>, memref<50x5x5x20xf32>) outs(%alloc_10 : memref<1x8x8x50xf32>)
    %19 = "tosa.const"() <{value = dense<[0, 3, 1, 2]> : tensor<4xi32>}> : () -> tensor<4xi32>
    %alloc_11 = memref.alloc() {alignment = 64 : i64} : memref<1x50x8x8xf32>
    linalg.transpose ins(%alloc_10 : memref<1x8x8x50xf32>) outs(%alloc_11 : memref<1x50x8x8xf32>) permutation = [0, 3, 1, 2] 
    %alloc_12 = memref.alloc() {alignment = 64 : i64} : memref<1x50x8x8xf32>
    linalg.generic {indexing_maps = [#map2, #map1], iterator_types = ["parallel", "parallel", "parallel", "parallel"]} ins(%alloc_11 : memref<1x50x8x8xf32>) outs(%alloc_12 : memref<1x50x8x8xf32>) {
    ^bb0(%in: f32, %out: f32):
      %26 = math.tanh %in : f32
      linalg.yield %26 : f32
    }
    %20 = "tosa.const"() <{value = dense<[0, 2, 3, 1]> : tensor<4xi32>}> : () -> tensor<4xi32>
    %alloc_13 = memref.alloc() {alignment = 64 : i64} : memref<1x8x8x50xf32>
    linalg.transpose ins(%alloc_12 : memref<1x50x8x8xf32>) outs(%alloc_13 : memref<1x8x8x50xf32>) permutation = [0, 2, 3, 1] 
    %cst_14 = arith.constant -3.40282347E+38 : f32
    %alloc_15 = memref.alloc() {alignment = 64 : i64} : memref<1x4x4x50xf32>
    linalg.fill ins(%cst_14 : f32) outs(%alloc_15 : memref<1x4x4x50xf32>)
    %alloc_16 = memref.alloc() {alignment = 64 : i64} : memref<2x2xf32>
    linalg.pooling_nhwc_max {dilations = dense<1> : vector<2xi64>, strides = dense<2> : vector<2xi64>} ins(%alloc_13, %alloc_16 : memref<1x8x8x50xf32>, memref<2x2xf32>) outs(%alloc_15 : memref<1x4x4x50xf32>)
    %21 = "tosa.const"() <{value = dense<[0, 3, 1, 2]> : tensor<4xi32>}> : () -> tensor<4xi32>
    %alloc_17 = memref.alloc() {alignment = 64 : i64} : memref<1x50x4x4xf32>
    linalg.transpose ins(%alloc_15 : memref<1x4x4x50xf32>) outs(%alloc_17 : memref<1x50x4x4xf32>) permutation = [0, 3, 1, 2] 
    %collapse_shape = memref.collapse_shape %alloc_17 [[0], [1, 2, 3]] : memref<1x50x4x4xf32> into memref<1x800xf32>
    %22 = "tosa.const"() <{value = dense<[1, 0]> : tensor<2xi32>}> : () -> tensor<2xi32>
    %alloc_18 = memref.alloc() {alignment = 64 : i64} : memref<800x500xf32>
    linalg.transpose ins(%8 : memref<500x800xf32, strided<[?, ?], offset: ?>>) outs(%alloc_18 : memref<800x500xf32>) permutation = [1, 0] 
    %collapse_shape_19 = memref.collapse_shape %alloc_17 [[0], [1, 2, 3]] : memref<1x50x4x4xf32> into memref<1x800xf32>
    %expand_shape = memref.expand_shape %collapse_shape_19 [[0, 1], [2]] output_shape [1, 1, 800] : memref<1x800xf32> into memref<1x1x800xf32>
    %expand_shape_20 = memref.expand_shape %alloc_18 [[0, 1], [2]] output_shape [1, 800, 500] : memref<800x500xf32> into memref<1x800x500xf32>
    %cst_21 = arith.constant 0.000000e+00 : f32
    %alloc_22 = memref.alloc() {alignment = 64 : i64} : memref<1x1x500xf32>
    linalg.fill ins(%cst_21 : f32) outs(%alloc_22 : memref<1x1x500xf32>)
    linalg.batch_matmul ins(%expand_shape, %expand_shape_20 : memref<1x1x800xf32>, memref<1x800x500xf32>) outs(%alloc_22 : memref<1x1x500xf32>)
    %collapse_shape_23 = memref.collapse_shape %alloc_22 [[0, 1], [2]] : memref<1x1x500xf32> into memref<1x500xf32>
    %alloc_24 = memref.alloc() {alignment = 64 : i64} : memref<1x500xf32>
    linalg.generic {indexing_maps = [#map3, #map4], iterator_types = ["parallel", "parallel"]} ins(%collapse_shape_23 : memref<1x500xf32>) outs(%alloc_24 : memref<1x500xf32>) {
    ^bb0(%in: f32, %out: f32):
      %26 = math.tanh %in : f32
      linalg.yield %26 : f32
    }
    %23 = "tosa.const"() <{value = dense<[1, 0]> : tensor<2xi32>}> : () -> tensor<2xi32>
    %alloc_25 = memref.alloc() {alignment = 64 : i64} : memref<500x10xf32>
    linalg.transpose ins(%7 : memref<10x500xf32, strided<[?, ?], offset: ?>>) outs(%alloc_25 : memref<500x10xf32>) permutation = [1, 0] 
    %expand_shape_26 = memref.expand_shape %alloc_24 [[0, 1], [2]] output_shape [1, 1, 500] : memref<1x500xf32> into memref<1x1x500xf32>
    %expand_shape_27 = memref.expand_shape %alloc_25 [[0, 1], [2]] output_shape [1, 500, 10] : memref<500x10xf32> into memref<1x500x10xf32>
    %cst_28 = arith.constant 0.000000e+00 : f32
    %alloc_29 = memref.alloc() {alignment = 64 : i64} : memref<1x1x10xf32>
    linalg.fill ins(%cst_28 : f32) outs(%alloc_29 : memref<1x1x10xf32>)
    linalg.batch_matmul ins(%expand_shape_26, %expand_shape_27 : memref<1x1x500xf32>, memref<1x500x10xf32>) outs(%alloc_29 : memref<1x1x10xf32>)
    %collapse_shape_30 = memref.collapse_shape %alloc_29 [[0, 1], [2]] : memref<1x1x10xf32> into memref<1x10xf32>
    %alloc_31 = memref.alloc() {alignment = 64 : i64} : memref<1x10xf32>
    linalg.generic {indexing_maps = [#map3, #map4], iterator_types = ["parallel", "parallel"]} ins(%collapse_shape_30 : memref<1x10xf32>) outs(%alloc_31 : memref<1x10xf32>) {
    ^bb0(%in: f32, %out: f32):
      %26 = math.tanh %in : f32
      linalg.yield %26 : f32
    }
    %24 = bufferization.to_tensor %alloc_31 : memref<1x10xf32>
    %25 = bufferization.to_memref %24 : memref<1x10xf32>
    return %25 : memref<1x10xf32>
  }
}


// -----// IR Dump After ConvertLinalgToAffineLoopsPass (convert-linalg-to-affine-loops) //----- //
func.func @test_forward(%arg0: memref<1x1x28x28xf32>, %arg1: memref<20x1x5x5xf32>, %arg2: memref<20xf32>, %arg3: memref<50x20x5x5xf32>, %arg4: memref<50xf32>, %arg5: memref<500x800xf32>, %arg6: memref<10x500xf32>) -> memref<1x10xf32> attributes {llvm.emit_c_interface} {
  %c0 = arith.constant 0 : index
  %cst = arith.constant 0.000000e+00 : f32
  %cst_0 = arith.constant -3.40282347E+38 : f32
  %0 = bufferization.to_tensor %arg6 : memref<10x500xf32>
  %1 = bufferization.to_tensor %arg5 : memref<500x800xf32>
  %2 = bufferization.to_tensor %arg4 : memref<50xf32>
  %3 = bufferization.to_tensor %arg3 : memref<50x20x5x5xf32>
  %4 = bufferization.to_tensor %arg2 : memref<20xf32>
  %5 = bufferization.to_tensor %arg1 : memref<20x1x5x5xf32>
  %6 = bufferization.to_tensor %arg0 : memref<1x1x28x28xf32>
  %7 = bufferization.to_memref %0 : memref<10x500xf32, strided<[?, ?], offset: ?>>
  %8 = bufferization.to_memref %1 : memref<500x800xf32, strided<[?, ?], offset: ?>>
  %9 = bufferization.to_memref %2 : memref<50xf32, strided<[?], offset: ?>>
  %10 = bufferization.to_memref %3 : memref<50x20x5x5xf32, strided<[?, ?, ?, ?], offset: ?>>
  %11 = bufferization.to_memref %4 : memref<20xf32, strided<[?], offset: ?>>
  %12 = bufferization.to_memref %5 : memref<20x1x5x5xf32, strided<[?, ?, ?, ?], offset: ?>>
  %13 = bufferization.to_memref %6 : memref<1x1x28x28xf32, strided<[?, ?, ?, ?], offset: ?>>
  %alloc = memref.alloc() {alignment = 64 : i64} : memref<1x28x28x1xf32>
  affine.for %arg7 = 0 to 1 {
    affine.for %arg8 = 0 to 28 {
      affine.for %arg9 = 0 to 28 {
        affine.for %arg10 = 0 to 1 {
          %14 = affine.load %13[%arg7, %arg10, %arg8, %arg9] : memref<1x1x28x28xf32, strided<[?, ?, ?, ?], offset: ?>>
          affine.store %14, %alloc[%arg7, %arg8, %arg9, %arg10] : memref<1x28x28x1xf32>
        }
      }
    }
  }
  %alloc_1 = memref.alloc() {alignment = 64 : i64} : memref<20x5x5x1xf32>
  affine.for %arg7 = 0 to 20 {
    affine.for %arg8 = 0 to 5 {
      affine.for %arg9 = 0 to 5 {
        affine.for %arg10 = 0 to 1 {
          %14 = affine.load %12[%arg7, %arg10, %arg8, %arg9] : memref<20x1x5x5xf32, strided<[?, ?, ?, ?], offset: ?>>
          affine.store %14, %alloc_1[%arg7, %arg8, %arg9, %arg10] : memref<20x5x5x1xf32>
        }
      }
    }
  }
  %alloc_2 = memref.alloc() {alignment = 64 : i64} : memref<1x24x24x20xf32>
  affine.for %arg7 = 0 to 1 {
    affine.for %arg8 = 0 to 24 {
      affine.for %arg9 = 0 to 24 {
        affine.for %arg10 = 0 to 20 {
          %14 = affine.load %11[%arg10] : memref<20xf32, strided<[?], offset: ?>>
          affine.store %14, %alloc_2[%arg7, %arg8, %arg9, %arg10] : memref<1x24x24x20xf32>
        }
      }
    }
  }
  affine.for %arg7 = 0 to 1 {
    affine.for %arg8 = 0 to 24 {
      affine.for %arg9 = 0 to 24 {
        affine.for %arg10 = 0 to 20 {
          affine.for %arg11 = 0 to 5 {
            affine.for %arg12 = 0 to 5 {
              affine.for %arg13 = 0 to 1 {
                %14 = affine.apply affine_map<(d0, d1) -> (d0 + d1)>(%arg8, %arg11)
                %15 = affine.apply affine_map<(d0, d1) -> (d0 + d1)>(%arg9, %arg12)
                %16 = affine.load %alloc[%arg7, %14, %15, %arg13] : memref<1x28x28x1xf32>
                %17 = affine.load %alloc_1[%arg10, %arg11, %arg12, %arg13] : memref<20x5x5x1xf32>
                %18 = affine.load %alloc_2[%arg7, %arg8, %arg9, %arg10] : memref<1x24x24x20xf32>
                %19 = arith.mulf %16, %17 : f32
                %20 = arith.addf %18, %19 : f32
                affine.store %20, %alloc_2[%arg7, %arg8, %arg9, %arg10] : memref<1x24x24x20xf32>
              }
            }
          }
        }
      }
    }
  }
  %alloc_3 = memref.alloc() {alignment = 64 : i64} : memref<1x20x24x24xf32>
  affine.for %arg7 = 0 to 1 {
    affine.for %arg8 = 0 to 20 {
      affine.for %arg9 = 0 to 24 {
        affine.for %arg10 = 0 to 24 {
          %14 = affine.load %alloc_2[%arg7, %arg9, %arg10, %arg8] : memref<1x24x24x20xf32>
          affine.store %14, %alloc_3[%arg7, %arg8, %arg9, %arg10] : memref<1x20x24x24xf32>
        }
      }
    }
  }
  %alloc_4 = memref.alloc() {alignment = 64 : i64} : memref<1x20x24x24xf32>
  affine.for %arg7 = 0 to 1 {
    affine.for %arg8 = 0 to 20 {
      affine.for %arg9 = 0 to 24 {
        affine.for %arg10 = 0 to 24 {
          %14 = affine.load %alloc_3[%c0, %arg8, %arg9, %arg10] : memref<1x20x24x24xf32>
          %15 = math.tanh %14 : f32
          affine.store %15, %alloc_4[%arg7, %arg8, %arg9, %arg10] : memref<1x20x24x24xf32>
        }
      }
    }
  }
  %alloc_5 = memref.alloc() {alignment = 64 : i64} : memref<1x24x24x20xf32>
  affine.for %arg7 = 0 to 1 {
    affine.for %arg8 = 0 to 24 {
      affine.for %arg9 = 0 to 24 {
        affine.for %arg10 = 0 to 20 {
          %14 = affine.load %alloc_4[%arg7, %arg10, %arg8, %arg9] : memref<1x20x24x24xf32>
          affine.store %14, %alloc_5[%arg7, %arg8, %arg9, %arg10] : memref<1x24x24x20xf32>
        }
      }
    }
  }
  %alloc_6 = memref.alloc() {alignment = 64 : i64} : memref<1x12x12x20xf32>
  affine.for %arg7 = 0 to 1 {
    affine.for %arg8 = 0 to 12 {
      affine.for %arg9 = 0 to 12 {
        affine.for %arg10 = 0 to 20 {
          affine.store %cst_0, %alloc_6[%arg7, %arg8, %arg9, %arg10] : memref<1x12x12x20xf32>
        }
      }
    }
  }
  affine.for %arg7 = 0 to 1 {
    affine.for %arg8 = 0 to 12 {
      affine.for %arg9 = 0 to 12 {
        affine.for %arg10 = 0 to 20 {
          affine.for %arg11 = 0 to 2 {
            affine.for %arg12 = 0 to 2 {
              %14 = affine.apply affine_map<(d0, d1) -> (d0 * 2 + d1)>(%arg8, %arg11)
              %15 = affine.apply affine_map<(d0, d1) -> (d0 * 2 + d1)>(%arg9, %arg12)
              %16 = affine.load %alloc_5[%arg7, %14, %15, %arg10] : memref<1x24x24x20xf32>
              %17 = affine.load %alloc_6[%arg7, %arg8, %arg9, %arg10] : memref<1x12x12x20xf32>
              %18 = arith.maximumf %17, %16 : f32
              affine.store %18, %alloc_6[%arg7, %arg8, %arg9, %arg10] : memref<1x12x12x20xf32>
            }
          }
        }
      }
    }
  }
  %alloc_7 = memref.alloc() {alignment = 64 : i64} : memref<1x20x12x12xf32>
  affine.for %arg7 = 0 to 1 {
    affine.for %arg8 = 0 to 20 {
      affine.for %arg9 = 0 to 12 {
        affine.for %arg10 = 0 to 12 {
          %14 = affine.load %alloc_6[%arg7, %arg9, %arg10, %arg8] : memref<1x12x12x20xf32>
          affine.store %14, %alloc_7[%arg7, %arg8, %arg9, %arg10] : memref<1x20x12x12xf32>
        }
      }
    }
  }
  %alloc_8 = memref.alloc() {alignment = 64 : i64} : memref<1x12x12x20xf32>
  affine.for %arg7 = 0 to 1 {
    affine.for %arg8 = 0 to 12 {
      affine.for %arg9 = 0 to 12 {
        affine.for %arg10 = 0 to 20 {
          %14 = affine.load %alloc_7[%arg7, %arg10, %arg8, %arg9] : memref<1x20x12x12xf32>
          affine.store %14, %alloc_8[%arg7, %arg8, %arg9, %arg10] : memref<1x12x12x20xf32>
        }
      }
    }
  }
  %alloc_9 = memref.alloc() {alignment = 64 : i64} : memref<50x5x5x20xf32>
  affine.for %arg7 = 0 to 50 {
    affine.for %arg8 = 0 to 5 {
      affine.for %arg9 = 0 to 5 {
        affine.for %arg10 = 0 to 20 {
          %14 = affine.load %10[%arg7, %arg10, %arg8, %arg9] : memref<50x20x5x5xf32, strided<[?, ?, ?, ?], offset: ?>>
          affine.store %14, %alloc_9[%arg7, %arg8, %arg9, %arg10] : memref<50x5x5x20xf32>
        }
      }
    }
  }
  %alloc_10 = memref.alloc() {alignment = 64 : i64} : memref<1x8x8x50xf32>
  affine.for %arg7 = 0 to 1 {
    affine.for %arg8 = 0 to 8 {
      affine.for %arg9 = 0 to 8 {
        affine.for %arg10 = 0 to 50 {
          %14 = affine.load %9[%arg10] : memref<50xf32, strided<[?], offset: ?>>
          affine.store %14, %alloc_10[%arg7, %arg8, %arg9, %arg10] : memref<1x8x8x50xf32>
        }
      }
    }
  }
  affine.for %arg7 = 0 to 1 {
    affine.for %arg8 = 0 to 8 {
      affine.for %arg9 = 0 to 8 {
        affine.for %arg10 = 0 to 50 {
          affine.for %arg11 = 0 to 5 {
            affine.for %arg12 = 0 to 5 {
              affine.for %arg13 = 0 to 20 {
                %14 = affine.apply affine_map<(d0, d1) -> (d0 + d1)>(%arg8, %arg11)
                %15 = affine.apply affine_map<(d0, d1) -> (d0 + d1)>(%arg9, %arg12)
                %16 = affine.load %alloc_8[%arg7, %14, %15, %arg13] : memref<1x12x12x20xf32>
                %17 = affine.load %alloc_9[%arg10, %arg11, %arg12, %arg13] : memref<50x5x5x20xf32>
                %18 = affine.load %alloc_10[%arg7, %arg8, %arg9, %arg10] : memref<1x8x8x50xf32>
                %19 = arith.mulf %16, %17 : f32
                %20 = arith.addf %18, %19 : f32
                affine.store %20, %alloc_10[%arg7, %arg8, %arg9, %arg10] : memref<1x8x8x50xf32>
              }
            }
          }
        }
      }
    }
  }
  %alloc_11 = memref.alloc() {alignment = 64 : i64} : memref<1x50x8x8xf32>
  affine.for %arg7 = 0 to 1 {
    affine.for %arg8 = 0 to 50 {
      affine.for %arg9 = 0 to 8 {
        affine.for %arg10 = 0 to 8 {
          %14 = affine.load %alloc_10[%arg7, %arg9, %arg10, %arg8] : memref<1x8x8x50xf32>
          affine.store %14, %alloc_11[%arg7, %arg8, %arg9, %arg10] : memref<1x50x8x8xf32>
        }
      }
    }
  }
  %alloc_12 = memref.alloc() {alignment = 64 : i64} : memref<1x50x8x8xf32>
  affine.for %arg7 = 0 to 1 {
    affine.for %arg8 = 0 to 50 {
      affine.for %arg9 = 0 to 8 {
        affine.for %arg10 = 0 to 8 {
          %14 = affine.load %alloc_11[%c0, %arg8, %arg9, %arg10] : memref<1x50x8x8xf32>
          %15 = math.tanh %14 : f32
          affine.store %15, %alloc_12[%arg7, %arg8, %arg9, %arg10] : memref<1x50x8x8xf32>
        }
      }
    }
  }
  %alloc_13 = memref.alloc() {alignment = 64 : i64} : memref<1x8x8x50xf32>
  affine.for %arg7 = 0 to 1 {
    affine.for %arg8 = 0 to 8 {
      affine.for %arg9 = 0 to 8 {
        affine.for %arg10 = 0 to 50 {
          %14 = affine.load %alloc_12[%arg7, %arg10, %arg8, %arg9] : memref<1x50x8x8xf32>
          affine.store %14, %alloc_13[%arg7, %arg8, %arg9, %arg10] : memref<1x8x8x50xf32>
        }
      }
    }
  }
  %alloc_14 = memref.alloc() {alignment = 64 : i64} : memref<1x4x4x50xf32>
  affine.for %arg7 = 0 to 1 {
    affine.for %arg8 = 0 to 4 {
      affine.for %arg9 = 0 to 4 {
        affine.for %arg10 = 0 to 50 {
          affine.store %cst_0, %alloc_14[%arg7, %arg8, %arg9, %arg10] : memref<1x4x4x50xf32>
        }
      }
    }
  }
  affine.for %arg7 = 0 to 1 {
    affine.for %arg8 = 0 to 4 {
      affine.for %arg9 = 0 to 4 {
        affine.for %arg10 = 0 to 50 {
          affine.for %arg11 = 0 to 2 {
            affine.for %arg12 = 0 to 2 {
              %14 = affine.apply affine_map<(d0, d1) -> (d0 * 2 + d1)>(%arg8, %arg11)
              %15 = affine.apply affine_map<(d0, d1) -> (d0 * 2 + d1)>(%arg9, %arg12)
              %16 = affine.load %alloc_13[%arg7, %14, %15, %arg10] : memref<1x8x8x50xf32>
              %17 = affine.load %alloc_14[%arg7, %arg8, %arg9, %arg10] : memref<1x4x4x50xf32>
              %18 = arith.maximumf %17, %16 : f32
              affine.store %18, %alloc_14[%arg7, %arg8, %arg9, %arg10] : memref<1x4x4x50xf32>
            }
          }
        }
      }
    }
  }
  %alloc_15 = memref.alloc() {alignment = 64 : i64} : memref<1x50x4x4xf32>
  affine.for %arg7 = 0 to 1 {
    affine.for %arg8 = 0 to 50 {
      affine.for %arg9 = 0 to 4 {
        affine.for %arg10 = 0 to 4 {
          %14 = affine.load %alloc_14[%arg7, %arg9, %arg10, %arg8] : memref<1x4x4x50xf32>
          affine.store %14, %alloc_15[%arg7, %arg8, %arg9, %arg10] : memref<1x50x4x4xf32>
        }
      }
    }
  }
  %alloc_16 = memref.alloc() {alignment = 64 : i64} : memref<800x500xf32>
  affine.for %arg7 = 0 to 800 {
    affine.for %arg8 = 0 to 500 {
      %14 = affine.load %8[%arg8, %arg7] : memref<500x800xf32, strided<[?, ?], offset: ?>>
      affine.store %14, %alloc_16[%arg7, %arg8] : memref<800x500xf32>
    }
  }
  %collapse_shape = memref.collapse_shape %alloc_15 [[0], [1, 2, 3]] : memref<1x50x4x4xf32> into memref<1x800xf32>
  %expand_shape = memref.expand_shape %collapse_shape [[0, 1], [2]] output_shape [1, 1, 800] : memref<1x800xf32> into memref<1x1x800xf32>
  %expand_shape_17 = memref.expand_shape %alloc_16 [[0, 1], [2]] output_shape [1, 800, 500] : memref<800x500xf32> into memref<1x800x500xf32>
  %alloc_18 = memref.alloc() {alignment = 64 : i64} : memref<1x1x500xf32>
  affine.for %arg7 = 0 to 1 {
    affine.for %arg8 = 0 to 1 {
      affine.for %arg9 = 0 to 500 {
        affine.store %cst, %alloc_18[%arg7, %arg8, %arg9] : memref<1x1x500xf32>
      }
    }
  }
  affine.for %arg7 = 0 to 1 {
    affine.for %arg8 = 0 to 1 {
      affine.for %arg9 = 0 to 500 {
        affine.for %arg10 = 0 to 800 {
          %14 = affine.load %expand_shape[%arg7, %arg8, %arg10] : memref<1x1x800xf32>
          %15 = affine.load %expand_shape_17[%arg7, %arg10, %arg9] : memref<1x800x500xf32>
          %16 = affine.load %alloc_18[%arg7, %arg8, %arg9] : memref<1x1x500xf32>
          %17 = arith.mulf %14, %15 : f32
          %18 = arith.addf %16, %17 : f32
          affine.store %18, %alloc_18[%arg7, %arg8, %arg9] : memref<1x1x500xf32>
        }
      }
    }
  }
  %collapse_shape_19 = memref.collapse_shape %alloc_18 [[0, 1], [2]] : memref<1x1x500xf32> into memref<1x500xf32>
  %alloc_20 = memref.alloc() {alignment = 64 : i64} : memref<1x500xf32>
  affine.for %arg7 = 0 to 1 {
    affine.for %arg8 = 0 to 500 {
      %14 = affine.load %collapse_shape_19[%c0, %arg8] : memref<1x500xf32>
      %15 = math.tanh %14 : f32
      affine.store %15, %alloc_20[%arg7, %arg8] : memref<1x500xf32>
    }
  }
  %alloc_21 = memref.alloc() {alignment = 64 : i64} : memref<500x10xf32>
  affine.for %arg7 = 0 to 500 {
    affine.for %arg8 = 0 to 10 {
      %14 = affine.load %7[%arg8, %arg7] : memref<10x500xf32, strided<[?, ?], offset: ?>>
      affine.store %14, %alloc_21[%arg7, %arg8] : memref<500x10xf32>
    }
  }
  %expand_shape_22 = memref.expand_shape %alloc_20 [[0, 1], [2]] output_shape [1, 1, 500] : memref<1x500xf32> into memref<1x1x500xf32>
  %expand_shape_23 = memref.expand_shape %alloc_21 [[0, 1], [2]] output_shape [1, 500, 10] : memref<500x10xf32> into memref<1x500x10xf32>
  %alloc_24 = memref.alloc() {alignment = 64 : i64} : memref<1x1x10xf32>
  affine.for %arg7 = 0 to 1 {
    affine.for %arg8 = 0 to 1 {
      affine.for %arg9 = 0 to 10 {
        affine.store %cst, %alloc_24[%arg7, %arg8, %arg9] : memref<1x1x10xf32>
      }
    }
  }
  affine.for %arg7 = 0 to 1 {
    affine.for %arg8 = 0 to 1 {
      affine.for %arg9 = 0 to 10 {
        affine.for %arg10 = 0 to 500 {
          %14 = affine.load %expand_shape_22[%arg7, %arg8, %arg10] : memref<1x1x500xf32>
          %15 = affine.load %expand_shape_23[%arg7, %arg10, %arg9] : memref<1x500x10xf32>
          %16 = affine.load %alloc_24[%arg7, %arg8, %arg9] : memref<1x1x10xf32>
          %17 = arith.mulf %14, %15 : f32
          %18 = arith.addf %16, %17 : f32
          affine.store %18, %alloc_24[%arg7, %arg8, %arg9] : memref<1x1x10xf32>
        }
      }
    }
  }
  %collapse_shape_25 = memref.collapse_shape %alloc_24 [[0, 1], [2]] : memref<1x1x10xf32> into memref<1x10xf32>
  %alloc_26 = memref.alloc() {alignment = 64 : i64} : memref<1x10xf32>
  affine.for %arg7 = 0 to 1 {
    affine.for %arg8 = 0 to 10 {
      %14 = affine.load %collapse_shape_25[%c0, %arg8] : memref<1x10xf32>
      %15 = math.tanh %14 : f32
      affine.store %15, %alloc_26[%arg7, %arg8] : memref<1x10xf32>
    }
  }
  return %alloc_26 : memref<1x10xf32>
}

// -----// IR Dump After ConvertAffineToStandard (lower-affine) //----- //
func.func @test_forward(%arg0: memref<1x1x28x28xf32>, %arg1: memref<20x1x5x5xf32>, %arg2: memref<20xf32>, %arg3: memref<50x20x5x5xf32>, %arg4: memref<50xf32>, %arg5: memref<500x800xf32>, %arg6: memref<10x500xf32>) -> memref<1x10xf32> attributes {llvm.emit_c_interface} {
  %c0 = arith.constant 0 : index
  %cst = arith.constant 0.000000e+00 : f32
  %cst_0 = arith.constant -3.40282347E+38 : f32
  %0 = bufferization.to_tensor %arg6 : memref<10x500xf32>
  %1 = bufferization.to_tensor %arg5 : memref<500x800xf32>
  %2 = bufferization.to_tensor %arg4 : memref<50xf32>
  %3 = bufferization.to_tensor %arg3 : memref<50x20x5x5xf32>
  %4 = bufferization.to_tensor %arg2 : memref<20xf32>
  %5 = bufferization.to_tensor %arg1 : memref<20x1x5x5xf32>
  %6 = bufferization.to_tensor %arg0 : memref<1x1x28x28xf32>
  %7 = bufferization.to_memref %0 : memref<10x500xf32, strided<[?, ?], offset: ?>>
  %8 = bufferization.to_memref %1 : memref<500x800xf32, strided<[?, ?], offset: ?>>
  %9 = bufferization.to_memref %2 : memref<50xf32, strided<[?], offset: ?>>
  %10 = bufferization.to_memref %3 : memref<50x20x5x5xf32, strided<[?, ?, ?, ?], offset: ?>>
  %11 = bufferization.to_memref %4 : memref<20xf32, strided<[?], offset: ?>>
  %12 = bufferization.to_memref %5 : memref<20x1x5x5xf32, strided<[?, ?, ?, ?], offset: ?>>
  %13 = bufferization.to_memref %6 : memref<1x1x28x28xf32, strided<[?, ?, ?, ?], offset: ?>>
  %alloc = memref.alloc() {alignment = 64 : i64} : memref<1x28x28x1xf32>
  %c0_1 = arith.constant 0 : index
  %c1 = arith.constant 1 : index
  %c1_2 = arith.constant 1 : index
  scf.for %arg7 = %c0_1 to %c1 step %c1_2 {
    %c0_106 = arith.constant 0 : index
    %c28 = arith.constant 28 : index
    %c1_107 = arith.constant 1 : index
    scf.for %arg8 = %c0_106 to %c28 step %c1_107 {
      %c0_108 = arith.constant 0 : index
      %c28_109 = arith.constant 28 : index
      %c1_110 = arith.constant 1 : index
      scf.for %arg9 = %c0_108 to %c28_109 step %c1_110 {
        %c0_111 = arith.constant 0 : index
        %c1_112 = arith.constant 1 : index
        %c1_113 = arith.constant 1 : index
        scf.for %arg10 = %c0_111 to %c1_112 step %c1_113 {
          %14 = memref.load %13[%arg7, %arg10, %arg8, %arg9] : memref<1x1x28x28xf32, strided<[?, ?, ?, ?], offset: ?>>
          memref.store %14, %alloc[%arg7, %arg8, %arg9, %arg10] : memref<1x28x28x1xf32>
        }
      }
    }
  }
  %alloc_3 = memref.alloc() {alignment = 64 : i64} : memref<20x5x5x1xf32>
  %c0_4 = arith.constant 0 : index
  %c20 = arith.constant 20 : index
  %c1_5 = arith.constant 1 : index
  scf.for %arg7 = %c0_4 to %c20 step %c1_5 {
    %c0_106 = arith.constant 0 : index
    %c5 = arith.constant 5 : index
    %c1_107 = arith.constant 1 : index
    scf.for %arg8 = %c0_106 to %c5 step %c1_107 {
      %c0_108 = arith.constant 0 : index
      %c5_109 = arith.constant 5 : index
      %c1_110 = arith.constant 1 : index
      scf.for %arg9 = %c0_108 to %c5_109 step %c1_110 {
        %c0_111 = arith.constant 0 : index
        %c1_112 = arith.constant 1 : index
        %c1_113 = arith.constant 1 : index
        scf.for %arg10 = %c0_111 to %c1_112 step %c1_113 {
          %14 = memref.load %12[%arg7, %arg10, %arg8, %arg9] : memref<20x1x5x5xf32, strided<[?, ?, ?, ?], offset: ?>>
          memref.store %14, %alloc_3[%arg7, %arg8, %arg9, %arg10] : memref<20x5x5x1xf32>
        }
      }
    }
  }
  %alloc_6 = memref.alloc() {alignment = 64 : i64} : memref<1x24x24x20xf32>
  %c0_7 = arith.constant 0 : index
  %c1_8 = arith.constant 1 : index
  %c1_9 = arith.constant 1 : index
  scf.for %arg7 = %c0_7 to %c1_8 step %c1_9 {
    %c0_106 = arith.constant 0 : index
    %c24 = arith.constant 24 : index
    %c1_107 = arith.constant 1 : index
    scf.for %arg8 = %c0_106 to %c24 step %c1_107 {
      %c0_108 = arith.constant 0 : index
      %c24_109 = arith.constant 24 : index
      %c1_110 = arith.constant 1 : index
      scf.for %arg9 = %c0_108 to %c24_109 step %c1_110 {
        %c0_111 = arith.constant 0 : index
        %c20_112 = arith.constant 20 : index
        %c1_113 = arith.constant 1 : index
        scf.for %arg10 = %c0_111 to %c20_112 step %c1_113 {
          %14 = memref.load %11[%arg10] : memref<20xf32, strided<[?], offset: ?>>
          memref.store %14, %alloc_6[%arg7, %arg8, %arg9, %arg10] : memref<1x24x24x20xf32>
        }
      }
    }
  }
  %c0_10 = arith.constant 0 : index
  %c1_11 = arith.constant 1 : index
  %c1_12 = arith.constant 1 : index
  scf.for %arg7 = %c0_10 to %c1_11 step %c1_12 {
    %c0_106 = arith.constant 0 : index
    %c24 = arith.constant 24 : index
    %c1_107 = arith.constant 1 : index
    scf.for %arg8 = %c0_106 to %c24 step %c1_107 {
      %c0_108 = arith.constant 0 : index
      %c24_109 = arith.constant 24 : index
      %c1_110 = arith.constant 1 : index
      scf.for %arg9 = %c0_108 to %c24_109 step %c1_110 {
        %c0_111 = arith.constant 0 : index
        %c20_112 = arith.constant 20 : index
        %c1_113 = arith.constant 1 : index
        scf.for %arg10 = %c0_111 to %c20_112 step %c1_113 {
          %c0_114 = arith.constant 0 : index
          %c5 = arith.constant 5 : index
          %c1_115 = arith.constant 1 : index
          scf.for %arg11 = %c0_114 to %c5 step %c1_115 {
            %c0_116 = arith.constant 0 : index
            %c5_117 = arith.constant 5 : index
            %c1_118 = arith.constant 1 : index
            scf.for %arg12 = %c0_116 to %c5_117 step %c1_118 {
              %c0_119 = arith.constant 0 : index
              %c1_120 = arith.constant 1 : index
              %c1_121 = arith.constant 1 : index
              scf.for %arg13 = %c0_119 to %c1_120 step %c1_121 {
                %14 = arith.addi %arg8, %arg11 : index
                %15 = arith.addi %arg9, %arg12 : index
                %16 = memref.load %alloc[%arg7, %14, %15, %arg13] : memref<1x28x28x1xf32>
                %17 = memref.load %alloc_3[%arg10, %arg11, %arg12, %arg13] : memref<20x5x5x1xf32>
                %18 = memref.load %alloc_6[%arg7, %arg8, %arg9, %arg10] : memref<1x24x24x20xf32>
                %19 = arith.mulf %16, %17 : f32
                %20 = arith.addf %18, %19 : f32
                memref.store %20, %alloc_6[%arg7, %arg8, %arg9, %arg10] : memref<1x24x24x20xf32>
              }
            }
          }
        }
      }
    }
  }
  %alloc_13 = memref.alloc() {alignment = 64 : i64} : memref<1x20x24x24xf32>
  %c0_14 = arith.constant 0 : index
  %c1_15 = arith.constant 1 : index
  %c1_16 = arith.constant 1 : index
  scf.for %arg7 = %c0_14 to %c1_15 step %c1_16 {
    %c0_106 = arith.constant 0 : index
    %c20_107 = arith.constant 20 : index
    %c1_108 = arith.constant 1 : index
    scf.for %arg8 = %c0_106 to %c20_107 step %c1_108 {
      %c0_109 = arith.constant 0 : index
      %c24 = arith.constant 24 : index
      %c1_110 = arith.constant 1 : index
      scf.for %arg9 = %c0_109 to %c24 step %c1_110 {
        %c0_111 = arith.constant 0 : index
        %c24_112 = arith.constant 24 : index
        %c1_113 = arith.constant 1 : index
        scf.for %arg10 = %c0_111 to %c24_112 step %c1_113 {
          %14 = memref.load %alloc_6[%arg7, %arg9, %arg10, %arg8] : memref<1x24x24x20xf32>
          memref.store %14, %alloc_13[%arg7, %arg8, %arg9, %arg10] : memref<1x20x24x24xf32>
        }
      }
    }
  }
  %alloc_17 = memref.alloc() {alignment = 64 : i64} : memref<1x20x24x24xf32>
  %c0_18 = arith.constant 0 : index
  %c1_19 = arith.constant 1 : index
  %c1_20 = arith.constant 1 : index
  scf.for %arg7 = %c0_18 to %c1_19 step %c1_20 {
    %c0_106 = arith.constant 0 : index
    %c20_107 = arith.constant 20 : index
    %c1_108 = arith.constant 1 : index
    scf.for %arg8 = %c0_106 to %c20_107 step %c1_108 {
      %c0_109 = arith.constant 0 : index
      %c24 = arith.constant 24 : index
      %c1_110 = arith.constant 1 : index
      scf.for %arg9 = %c0_109 to %c24 step %c1_110 {
        %c0_111 = arith.constant 0 : index
        %c24_112 = arith.constant 24 : index
        %c1_113 = arith.constant 1 : index
        scf.for %arg10 = %c0_111 to %c24_112 step %c1_113 {
          %14 = memref.load %alloc_13[%c0, %arg8, %arg9, %arg10] : memref<1x20x24x24xf32>
          %15 = math.tanh %14 : f32
          memref.store %15, %alloc_17[%arg7, %arg8, %arg9, %arg10] : memref<1x20x24x24xf32>
        }
      }
    }
  }
  %alloc_21 = memref.alloc() {alignment = 64 : i64} : memref<1x24x24x20xf32>
  %c0_22 = arith.constant 0 : index
  %c1_23 = arith.constant 1 : index
  %c1_24 = arith.constant 1 : index
  scf.for %arg7 = %c0_22 to %c1_23 step %c1_24 {
    %c0_106 = arith.constant 0 : index
    %c24 = arith.constant 24 : index
    %c1_107 = arith.constant 1 : index
    scf.for %arg8 = %c0_106 to %c24 step %c1_107 {
      %c0_108 = arith.constant 0 : index
      %c24_109 = arith.constant 24 : index
      %c1_110 = arith.constant 1 : index
      scf.for %arg9 = %c0_108 to %c24_109 step %c1_110 {
        %c0_111 = arith.constant 0 : index
        %c20_112 = arith.constant 20 : index
        %c1_113 = arith.constant 1 : index
        scf.for %arg10 = %c0_111 to %c20_112 step %c1_113 {
          %14 = memref.load %alloc_17[%arg7, %arg10, %arg8, %arg9] : memref<1x20x24x24xf32>
          memref.store %14, %alloc_21[%arg7, %arg8, %arg9, %arg10] : memref<1x24x24x20xf32>
        }
      }
    }
  }
  %alloc_25 = memref.alloc() {alignment = 64 : i64} : memref<1x12x12x20xf32>
  %c0_26 = arith.constant 0 : index
  %c1_27 = arith.constant 1 : index
  %c1_28 = arith.constant 1 : index
  scf.for %arg7 = %c0_26 to %c1_27 step %c1_28 {
    %c0_106 = arith.constant 0 : index
    %c12 = arith.constant 12 : index
    %c1_107 = arith.constant 1 : index
    scf.for %arg8 = %c0_106 to %c12 step %c1_107 {
      %c0_108 = arith.constant 0 : index
      %c12_109 = arith.constant 12 : index
      %c1_110 = arith.constant 1 : index
      scf.for %arg9 = %c0_108 to %c12_109 step %c1_110 {
        %c0_111 = arith.constant 0 : index
        %c20_112 = arith.constant 20 : index
        %c1_113 = arith.constant 1 : index
        scf.for %arg10 = %c0_111 to %c20_112 step %c1_113 {
          memref.store %cst_0, %alloc_25[%arg7, %arg8, %arg9, %arg10] : memref<1x12x12x20xf32>
        }
      }
    }
  }
  %c0_29 = arith.constant 0 : index
  %c1_30 = arith.constant 1 : index
  %c1_31 = arith.constant 1 : index
  scf.for %arg7 = %c0_29 to %c1_30 step %c1_31 {
    %c0_106 = arith.constant 0 : index
    %c12 = arith.constant 12 : index
    %c1_107 = arith.constant 1 : index
    scf.for %arg8 = %c0_106 to %c12 step %c1_107 {
      %c0_108 = arith.constant 0 : index
      %c12_109 = arith.constant 12 : index
      %c1_110 = arith.constant 1 : index
      scf.for %arg9 = %c0_108 to %c12_109 step %c1_110 {
        %c0_111 = arith.constant 0 : index
        %c20_112 = arith.constant 20 : index
        %c1_113 = arith.constant 1 : index
        scf.for %arg10 = %c0_111 to %c20_112 step %c1_113 {
          %c0_114 = arith.constant 0 : index
          %c2 = arith.constant 2 : index
          %c1_115 = arith.constant 1 : index
          scf.for %arg11 = %c0_114 to %c2 step %c1_115 {
            %c0_116 = arith.constant 0 : index
            %c2_117 = arith.constant 2 : index
            %c1_118 = arith.constant 1 : index
            scf.for %arg12 = %c0_116 to %c2_117 step %c1_118 {
              %c2_119 = arith.constant 2 : index
              %14 = arith.muli %arg8, %c2_119 : index
              %15 = arith.addi %14, %arg11 : index
              %c2_120 = arith.constant 2 : index
              %16 = arith.muli %arg9, %c2_120 : index
              %17 = arith.addi %16, %arg12 : index
              %18 = memref.load %alloc_21[%arg7, %15, %17, %arg10] : memref<1x24x24x20xf32>
              %19 = memref.load %alloc_25[%arg7, %arg8, %arg9, %arg10] : memref<1x12x12x20xf32>
              %20 = arith.maximumf %19, %18 : f32
              memref.store %20, %alloc_25[%arg7, %arg8, %arg9, %arg10] : memref<1x12x12x20xf32>
            }
          }
        }
      }
    }
  }
  %alloc_32 = memref.alloc() {alignment = 64 : i64} : memref<1x20x12x12xf32>
  %c0_33 = arith.constant 0 : index
  %c1_34 = arith.constant 1 : index
  %c1_35 = arith.constant 1 : index
  scf.for %arg7 = %c0_33 to %c1_34 step %c1_35 {
    %c0_106 = arith.constant 0 : index
    %c20_107 = arith.constant 20 : index
    %c1_108 = arith.constant 1 : index
    scf.for %arg8 = %c0_106 to %c20_107 step %c1_108 {
      %c0_109 = arith.constant 0 : index
      %c12 = arith.constant 12 : index
      %c1_110 = arith.constant 1 : index
      scf.for %arg9 = %c0_109 to %c12 step %c1_110 {
        %c0_111 = arith.constant 0 : index
        %c12_112 = arith.constant 12 : index
        %c1_113 = arith.constant 1 : index
        scf.for %arg10 = %c0_111 to %c12_112 step %c1_113 {
          %14 = memref.load %alloc_25[%arg7, %arg9, %arg10, %arg8] : memref<1x12x12x20xf32>
          memref.store %14, %alloc_32[%arg7, %arg8, %arg9, %arg10] : memref<1x20x12x12xf32>
        }
      }
    }
  }
  %alloc_36 = memref.alloc() {alignment = 64 : i64} : memref<1x12x12x20xf32>
  %c0_37 = arith.constant 0 : index
  %c1_38 = arith.constant 1 : index
  %c1_39 = arith.constant 1 : index
  scf.for %arg7 = %c0_37 to %c1_38 step %c1_39 {
    %c0_106 = arith.constant 0 : index
    %c12 = arith.constant 12 : index
    %c1_107 = arith.constant 1 : index
    scf.for %arg8 = %c0_106 to %c12 step %c1_107 {
      %c0_108 = arith.constant 0 : index
      %c12_109 = arith.constant 12 : index
      %c1_110 = arith.constant 1 : index
      scf.for %arg9 = %c0_108 to %c12_109 step %c1_110 {
        %c0_111 = arith.constant 0 : index
        %c20_112 = arith.constant 20 : index
        %c1_113 = arith.constant 1 : index
        scf.for %arg10 = %c0_111 to %c20_112 step %c1_113 {
          %14 = memref.load %alloc_32[%arg7, %arg10, %arg8, %arg9] : memref<1x20x12x12xf32>
          memref.store %14, %alloc_36[%arg7, %arg8, %arg9, %arg10] : memref<1x12x12x20xf32>
        }
      }
    }
  }
  %alloc_40 = memref.alloc() {alignment = 64 : i64} : memref<50x5x5x20xf32>
  %c0_41 = arith.constant 0 : index
  %c50 = arith.constant 50 : index
  %c1_42 = arith.constant 1 : index
  scf.for %arg7 = %c0_41 to %c50 step %c1_42 {
    %c0_106 = arith.constant 0 : index
    %c5 = arith.constant 5 : index
    %c1_107 = arith.constant 1 : index
    scf.for %arg8 = %c0_106 to %c5 step %c1_107 {
      %c0_108 = arith.constant 0 : index
      %c5_109 = arith.constant 5 : index
      %c1_110 = arith.constant 1 : index
      scf.for %arg9 = %c0_108 to %c5_109 step %c1_110 {
        %c0_111 = arith.constant 0 : index
        %c20_112 = arith.constant 20 : index
        %c1_113 = arith.constant 1 : index
        scf.for %arg10 = %c0_111 to %c20_112 step %c1_113 {
          %14 = memref.load %10[%arg7, %arg10, %arg8, %arg9] : memref<50x20x5x5xf32, strided<[?, ?, ?, ?], offset: ?>>
          memref.store %14, %alloc_40[%arg7, %arg8, %arg9, %arg10] : memref<50x5x5x20xf32>
        }
      }
    }
  }
  %alloc_43 = memref.alloc() {alignment = 64 : i64} : memref<1x8x8x50xf32>
  %c0_44 = arith.constant 0 : index
  %c1_45 = arith.constant 1 : index
  %c1_46 = arith.constant 1 : index
  scf.for %arg7 = %c0_44 to %c1_45 step %c1_46 {
    %c0_106 = arith.constant 0 : index
    %c8 = arith.constant 8 : index
    %c1_107 = arith.constant 1 : index
    scf.for %arg8 = %c0_106 to %c8 step %c1_107 {
      %c0_108 = arith.constant 0 : index
      %c8_109 = arith.constant 8 : index
      %c1_110 = arith.constant 1 : index
      scf.for %arg9 = %c0_108 to %c8_109 step %c1_110 {
        %c0_111 = arith.constant 0 : index
        %c50_112 = arith.constant 50 : index
        %c1_113 = arith.constant 1 : index
        scf.for %arg10 = %c0_111 to %c50_112 step %c1_113 {
          %14 = memref.load %9[%arg10] : memref<50xf32, strided<[?], offset: ?>>
          memref.store %14, %alloc_43[%arg7, %arg8, %arg9, %arg10] : memref<1x8x8x50xf32>
        }
      }
    }
  }
  %c0_47 = arith.constant 0 : index
  %c1_48 = arith.constant 1 : index
  %c1_49 = arith.constant 1 : index
  scf.for %arg7 = %c0_47 to %c1_48 step %c1_49 {
    %c0_106 = arith.constant 0 : index
    %c8 = arith.constant 8 : index
    %c1_107 = arith.constant 1 : index
    scf.for %arg8 = %c0_106 to %c8 step %c1_107 {
      %c0_108 = arith.constant 0 : index
      %c8_109 = arith.constant 8 : index
      %c1_110 = arith.constant 1 : index
      scf.for %arg9 = %c0_108 to %c8_109 step %c1_110 {
        %c0_111 = arith.constant 0 : index
        %c50_112 = arith.constant 50 : index
        %c1_113 = arith.constant 1 : index
        scf.for %arg10 = %c0_111 to %c50_112 step %c1_113 {
          %c0_114 = arith.constant 0 : index
          %c5 = arith.constant 5 : index
          %c1_115 = arith.constant 1 : index
          scf.for %arg11 = %c0_114 to %c5 step %c1_115 {
            %c0_116 = arith.constant 0 : index
            %c5_117 = arith.constant 5 : index
            %c1_118 = arith.constant 1 : index
            scf.for %arg12 = %c0_116 to %c5_117 step %c1_118 {
              %c0_119 = arith.constant 0 : index
              %c20_120 = arith.constant 20 : index
              %c1_121 = arith.constant 1 : index
              scf.for %arg13 = %c0_119 to %c20_120 step %c1_121 {
                %14 = arith.addi %arg8, %arg11 : index
                %15 = arith.addi %arg9, %arg12 : index
                %16 = memref.load %alloc_36[%arg7, %14, %15, %arg13] : memref<1x12x12x20xf32>
                %17 = memref.load %alloc_40[%arg10, %arg11, %arg12, %arg13] : memref<50x5x5x20xf32>
                %18 = memref.load %alloc_43[%arg7, %arg8, %arg9, %arg10] : memref<1x8x8x50xf32>
                %19 = arith.mulf %16, %17 : f32
                %20 = arith.addf %18, %19 : f32
                memref.store %20, %alloc_43[%arg7, %arg8, %arg9, %arg10] : memref<1x8x8x50xf32>
              }
            }
          }
        }
      }
    }
  }
  %alloc_50 = memref.alloc() {alignment = 64 : i64} : memref<1x50x8x8xf32>
  %c0_51 = arith.constant 0 : index
  %c1_52 = arith.constant 1 : index
  %c1_53 = arith.constant 1 : index
  scf.for %arg7 = %c0_51 to %c1_52 step %c1_53 {
    %c0_106 = arith.constant 0 : index
    %c50_107 = arith.constant 50 : index
    %c1_108 = arith.constant 1 : index
    scf.for %arg8 = %c0_106 to %c50_107 step %c1_108 {
      %c0_109 = arith.constant 0 : index
      %c8 = arith.constant 8 : index
      %c1_110 = arith.constant 1 : index
      scf.for %arg9 = %c0_109 to %c8 step %c1_110 {
        %c0_111 = arith.constant 0 : index
        %c8_112 = arith.constant 8 : index
        %c1_113 = arith.constant 1 : index
        scf.for %arg10 = %c0_111 to %c8_112 step %c1_113 {
          %14 = memref.load %alloc_43[%arg7, %arg9, %arg10, %arg8] : memref<1x8x8x50xf32>
          memref.store %14, %alloc_50[%arg7, %arg8, %arg9, %arg10] : memref<1x50x8x8xf32>
        }
      }
    }
  }
  %alloc_54 = memref.alloc() {alignment = 64 : i64} : memref<1x50x8x8xf32>
  %c0_55 = arith.constant 0 : index
  %c1_56 = arith.constant 1 : index
  %c1_57 = arith.constant 1 : index
  scf.for %arg7 = %c0_55 to %c1_56 step %c1_57 {
    %c0_106 = arith.constant 0 : index
    %c50_107 = arith.constant 50 : index
    %c1_108 = arith.constant 1 : index
    scf.for %arg8 = %c0_106 to %c50_107 step %c1_108 {
      %c0_109 = arith.constant 0 : index
      %c8 = arith.constant 8 : index
      %c1_110 = arith.constant 1 : index
      scf.for %arg9 = %c0_109 to %c8 step %c1_110 {
        %c0_111 = arith.constant 0 : index
        %c8_112 = arith.constant 8 : index
        %c1_113 = arith.constant 1 : index
        scf.for %arg10 = %c0_111 to %c8_112 step %c1_113 {
          %14 = memref.load %alloc_50[%c0, %arg8, %arg9, %arg10] : memref<1x50x8x8xf32>
          %15 = math.tanh %14 : f32
          memref.store %15, %alloc_54[%arg7, %arg8, %arg9, %arg10] : memref<1x50x8x8xf32>
        }
      }
    }
  }
  %alloc_58 = memref.alloc() {alignment = 64 : i64} : memref<1x8x8x50xf32>
  %c0_59 = arith.constant 0 : index
  %c1_60 = arith.constant 1 : index
  %c1_61 = arith.constant 1 : index
  scf.for %arg7 = %c0_59 to %c1_60 step %c1_61 {
    %c0_106 = arith.constant 0 : index
    %c8 = arith.constant 8 : index
    %c1_107 = arith.constant 1 : index
    scf.for %arg8 = %c0_106 to %c8 step %c1_107 {
      %c0_108 = arith.constant 0 : index
      %c8_109 = arith.constant 8 : index
      %c1_110 = arith.constant 1 : index
      scf.for %arg9 = %c0_108 to %c8_109 step %c1_110 {
        %c0_111 = arith.constant 0 : index
        %c50_112 = arith.constant 50 : index
        %c1_113 = arith.constant 1 : index
        scf.for %arg10 = %c0_111 to %c50_112 step %c1_113 {
          %14 = memref.load %alloc_54[%arg7, %arg10, %arg8, %arg9] : memref<1x50x8x8xf32>
          memref.store %14, %alloc_58[%arg7, %arg8, %arg9, %arg10] : memref<1x8x8x50xf32>
        }
      }
    }
  }
  %alloc_62 = memref.alloc() {alignment = 64 : i64} : memref<1x4x4x50xf32>
  %c0_63 = arith.constant 0 : index
  %c1_64 = arith.constant 1 : index
  %c1_65 = arith.constant 1 : index
  scf.for %arg7 = %c0_63 to %c1_64 step %c1_65 {
    %c0_106 = arith.constant 0 : index
    %c4 = arith.constant 4 : index
    %c1_107 = arith.constant 1 : index
    scf.for %arg8 = %c0_106 to %c4 step %c1_107 {
      %c0_108 = arith.constant 0 : index
      %c4_109 = arith.constant 4 : index
      %c1_110 = arith.constant 1 : index
      scf.for %arg9 = %c0_108 to %c4_109 step %c1_110 {
        %c0_111 = arith.constant 0 : index
        %c50_112 = arith.constant 50 : index
        %c1_113 = arith.constant 1 : index
        scf.for %arg10 = %c0_111 to %c50_112 step %c1_113 {
          memref.store %cst_0, %alloc_62[%arg7, %arg8, %arg9, %arg10] : memref<1x4x4x50xf32>
        }
      }
    }
  }
  %c0_66 = arith.constant 0 : index
  %c1_67 = arith.constant 1 : index
  %c1_68 = arith.constant 1 : index
  scf.for %arg7 = %c0_66 to %c1_67 step %c1_68 {
    %c0_106 = arith.constant 0 : index
    %c4 = arith.constant 4 : index
    %c1_107 = arith.constant 1 : index
    scf.for %arg8 = %c0_106 to %c4 step %c1_107 {
      %c0_108 = arith.constant 0 : index
      %c4_109 = arith.constant 4 : index
      %c1_110 = arith.constant 1 : index
      scf.for %arg9 = %c0_108 to %c4_109 step %c1_110 {
        %c0_111 = arith.constant 0 : index
        %c50_112 = arith.constant 50 : index
        %c1_113 = arith.constant 1 : index
        scf.for %arg10 = %c0_111 to %c50_112 step %c1_113 {
          %c0_114 = arith.constant 0 : index
          %c2 = arith.constant 2 : index
          %c1_115 = arith.constant 1 : index
          scf.for %arg11 = %c0_114 to %c2 step %c1_115 {
            %c0_116 = arith.constant 0 : index
            %c2_117 = arith.constant 2 : index
            %c1_118 = arith.constant 1 : index
            scf.for %arg12 = %c0_116 to %c2_117 step %c1_118 {
              %c2_119 = arith.constant 2 : index
              %14 = arith.muli %arg8, %c2_119 : index
              %15 = arith.addi %14, %arg11 : index
              %c2_120 = arith.constant 2 : index
              %16 = arith.muli %arg9, %c2_120 : index
              %17 = arith.addi %16, %arg12 : index
              %18 = memref.load %alloc_58[%arg7, %15, %17, %arg10] : memref<1x8x8x50xf32>
              %19 = memref.load %alloc_62[%arg7, %arg8, %arg9, %arg10] : memref<1x4x4x50xf32>
              %20 = arith.maximumf %19, %18 : f32
              memref.store %20, %alloc_62[%arg7, %arg8, %arg9, %arg10] : memref<1x4x4x50xf32>
            }
          }
        }
      }
    }
  }
  %alloc_69 = memref.alloc() {alignment = 64 : i64} : memref<1x50x4x4xf32>
  %c0_70 = arith.constant 0 : index
  %c1_71 = arith.constant 1 : index
  %c1_72 = arith.constant 1 : index
  scf.for %arg7 = %c0_70 to %c1_71 step %c1_72 {
    %c0_106 = arith.constant 0 : index
    %c50_107 = arith.constant 50 : index
    %c1_108 = arith.constant 1 : index
    scf.for %arg8 = %c0_106 to %c50_107 step %c1_108 {
      %c0_109 = arith.constant 0 : index
      %c4 = arith.constant 4 : index
      %c1_110 = arith.constant 1 : index
      scf.for %arg9 = %c0_109 to %c4 step %c1_110 {
        %c0_111 = arith.constant 0 : index
        %c4_112 = arith.constant 4 : index
        %c1_113 = arith.constant 1 : index
        scf.for %arg10 = %c0_111 to %c4_112 step %c1_113 {
          %14 = memref.load %alloc_62[%arg7, %arg9, %arg10, %arg8] : memref<1x4x4x50xf32>
          memref.store %14, %alloc_69[%arg7, %arg8, %arg9, %arg10] : memref<1x50x4x4xf32>
        }
      }
    }
  }
  %alloc_73 = memref.alloc() {alignment = 64 : i64} : memref<800x500xf32>
  %c0_74 = arith.constant 0 : index
  %c800 = arith.constant 800 : index
  %c1_75 = arith.constant 1 : index
  scf.for %arg7 = %c0_74 to %c800 step %c1_75 {
    %c0_106 = arith.constant 0 : index
    %c500_107 = arith.constant 500 : index
    %c1_108 = arith.constant 1 : index
    scf.for %arg8 = %c0_106 to %c500_107 step %c1_108 {
      %14 = memref.load %8[%arg8, %arg7] : memref<500x800xf32, strided<[?, ?], offset: ?>>
      memref.store %14, %alloc_73[%arg7, %arg8] : memref<800x500xf32>
    }
  }
  %collapse_shape = memref.collapse_shape %alloc_69 [[0], [1, 2, 3]] : memref<1x50x4x4xf32> into memref<1x800xf32>
  %expand_shape = memref.expand_shape %collapse_shape [[0, 1], [2]] output_shape [1, 1, 800] : memref<1x800xf32> into memref<1x1x800xf32>
  %expand_shape_76 = memref.expand_shape %alloc_73 [[0, 1], [2]] output_shape [1, 800, 500] : memref<800x500xf32> into memref<1x800x500xf32>
  %alloc_77 = memref.alloc() {alignment = 64 : i64} : memref<1x1x500xf32>
  %c0_78 = arith.constant 0 : index
  %c1_79 = arith.constant 1 : index
  %c1_80 = arith.constant 1 : index
  scf.for %arg7 = %c0_78 to %c1_79 step %c1_80 {
    %c0_106 = arith.constant 0 : index
    %c1_107 = arith.constant 1 : index
    %c1_108 = arith.constant 1 : index
    scf.for %arg8 = %c0_106 to %c1_107 step %c1_108 {
      %c0_109 = arith.constant 0 : index
      %c500_110 = arith.constant 500 : index
      %c1_111 = arith.constant 1 : index
      scf.for %arg9 = %c0_109 to %c500_110 step %c1_111 {
        memref.store %cst, %alloc_77[%arg7, %arg8, %arg9] : memref<1x1x500xf32>
      }
    }
  }
  %c0_81 = arith.constant 0 : index
  %c1_82 = arith.constant 1 : index
  %c1_83 = arith.constant 1 : index
  scf.for %arg7 = %c0_81 to %c1_82 step %c1_83 {
    %c0_106 = arith.constant 0 : index
    %c1_107 = arith.constant 1 : index
    %c1_108 = arith.constant 1 : index
    scf.for %arg8 = %c0_106 to %c1_107 step %c1_108 {
      %c0_109 = arith.constant 0 : index
      %c500_110 = arith.constant 500 : index
      %c1_111 = arith.constant 1 : index
      scf.for %arg9 = %c0_109 to %c500_110 step %c1_111 {
        %c0_112 = arith.constant 0 : index
        %c800_113 = arith.constant 800 : index
        %c1_114 = arith.constant 1 : index
        scf.for %arg10 = %c0_112 to %c800_113 step %c1_114 {
          %14 = memref.load %expand_shape[%arg7, %arg8, %arg10] : memref<1x1x800xf32>
          %15 = memref.load %expand_shape_76[%arg7, %arg10, %arg9] : memref<1x800x500xf32>
          %16 = memref.load %alloc_77[%arg7, %arg8, %arg9] : memref<1x1x500xf32>
          %17 = arith.mulf %14, %15 : f32
          %18 = arith.addf %16, %17 : f32
          memref.store %18, %alloc_77[%arg7, %arg8, %arg9] : memref<1x1x500xf32>
        }
      }
    }
  }
  %collapse_shape_84 = memref.collapse_shape %alloc_77 [[0, 1], [2]] : memref<1x1x500xf32> into memref<1x500xf32>
  %alloc_85 = memref.alloc() {alignment = 64 : i64} : memref<1x500xf32>
  %c0_86 = arith.constant 0 : index
  %c1_87 = arith.constant 1 : index
  %c1_88 = arith.constant 1 : index
  scf.for %arg7 = %c0_86 to %c1_87 step %c1_88 {
    %c0_106 = arith.constant 0 : index
    %c500_107 = arith.constant 500 : index
    %c1_108 = arith.constant 1 : index
    scf.for %arg8 = %c0_106 to %c500_107 step %c1_108 {
      %14 = memref.load %collapse_shape_84[%c0, %arg8] : memref<1x500xf32>
      %15 = math.tanh %14 : f32
      memref.store %15, %alloc_85[%arg7, %arg8] : memref<1x500xf32>
    }
  }
  %alloc_89 = memref.alloc() {alignment = 64 : i64} : memref<500x10xf32>
  %c0_90 = arith.constant 0 : index
  %c500 = arith.constant 500 : index
  %c1_91 = arith.constant 1 : index
  scf.for %arg7 = %c0_90 to %c500 step %c1_91 {
    %c0_106 = arith.constant 0 : index
    %c10 = arith.constant 10 : index
    %c1_107 = arith.constant 1 : index
    scf.for %arg8 = %c0_106 to %c10 step %c1_107 {
      %14 = memref.load %7[%arg8, %arg7] : memref<10x500xf32, strided<[?, ?], offset: ?>>
      memref.store %14, %alloc_89[%arg7, %arg8] : memref<500x10xf32>
    }
  }
  %expand_shape_92 = memref.expand_shape %alloc_85 [[0, 1], [2]] output_shape [1, 1, 500] : memref<1x500xf32> into memref<1x1x500xf32>
  %expand_shape_93 = memref.expand_shape %alloc_89 [[0, 1], [2]] output_shape [1, 500, 10] : memref<500x10xf32> into memref<1x500x10xf32>
  %alloc_94 = memref.alloc() {alignment = 64 : i64} : memref<1x1x10xf32>
  %c0_95 = arith.constant 0 : index
  %c1_96 = arith.constant 1 : index
  %c1_97 = arith.constant 1 : index
  scf.for %arg7 = %c0_95 to %c1_96 step %c1_97 {
    %c0_106 = arith.constant 0 : index
    %c1_107 = arith.constant 1 : index
    %c1_108 = arith.constant 1 : index
    scf.for %arg8 = %c0_106 to %c1_107 step %c1_108 {
      %c0_109 = arith.constant 0 : index
      %c10 = arith.constant 10 : index
      %c1_110 = arith.constant 1 : index
      scf.for %arg9 = %c0_109 to %c10 step %c1_110 {
        memref.store %cst, %alloc_94[%arg7, %arg8, %arg9] : memref<1x1x10xf32>
      }
    }
  }
  %c0_98 = arith.constant 0 : index
  %c1_99 = arith.constant 1 : index
  %c1_100 = arith.constant 1 : index
  scf.for %arg7 = %c0_98 to %c1_99 step %c1_100 {
    %c0_106 = arith.constant 0 : index
    %c1_107 = arith.constant 1 : index
    %c1_108 = arith.constant 1 : index
    scf.for %arg8 = %c0_106 to %c1_107 step %c1_108 {
      %c0_109 = arith.constant 0 : index
      %c10 = arith.constant 10 : index
      %c1_110 = arith.constant 1 : index
      scf.for %arg9 = %c0_109 to %c10 step %c1_110 {
        %c0_111 = arith.constant 0 : index
        %c500_112 = arith.constant 500 : index
        %c1_113 = arith.constant 1 : index
        scf.for %arg10 = %c0_111 to %c500_112 step %c1_113 {
          %14 = memref.load %expand_shape_92[%arg7, %arg8, %arg10] : memref<1x1x500xf32>
          %15 = memref.load %expand_shape_93[%arg7, %arg10, %arg9] : memref<1x500x10xf32>
          %16 = memref.load %alloc_94[%arg7, %arg8, %arg9] : memref<1x1x10xf32>
          %17 = arith.mulf %14, %15 : f32
          %18 = arith.addf %16, %17 : f32
          memref.store %18, %alloc_94[%arg7, %arg8, %arg9] : memref<1x1x10xf32>
        }
      }
    }
  }
  %collapse_shape_101 = memref.collapse_shape %alloc_94 [[0, 1], [2]] : memref<1x1x10xf32> into memref<1x10xf32>
  %alloc_102 = memref.alloc() {alignment = 64 : i64} : memref<1x10xf32>
  %c0_103 = arith.constant 0 : index
  %c1_104 = arith.constant 1 : index
  %c1_105 = arith.constant 1 : index
  scf.for %arg7 = %c0_103 to %c1_104 step %c1_105 {
    %c0_106 = arith.constant 0 : index
    %c10 = arith.constant 10 : index
    %c1_107 = arith.constant 1 : index
    scf.for %arg8 = %c0_106 to %c10 step %c1_107 {
      %14 = memref.load %collapse_shape_101[%c0, %arg8] : memref<1x10xf32>
      %15 = math.tanh %14 : f32
      memref.store %15, %alloc_102[%arg7, %arg8] : memref<1x10xf32>
    }
  }
  return %alloc_102 : memref<1x10xf32>
}

// -----// IR Dump After SCFToControlFlow (convert-scf-to-cf) //----- //
module {
  func.func @test_forward(%arg0: memref<1x1x28x28xf32>, %arg1: memref<20x1x5x5xf32>, %arg2: memref<20xf32>, %arg3: memref<50x20x5x5xf32>, %arg4: memref<50xf32>, %arg5: memref<500x800xf32>, %arg6: memref<10x500xf32>) -> memref<1x10xf32> attributes {llvm.emit_c_interface} {
    %c0 = arith.constant 0 : index
    %cst = arith.constant 0.000000e+00 : f32
    %cst_0 = arith.constant -3.40282347E+38 : f32
    %0 = bufferization.to_tensor %arg6 : memref<10x500xf32>
    %1 = bufferization.to_tensor %arg5 : memref<500x800xf32>
    %2 = bufferization.to_tensor %arg4 : memref<50xf32>
    %3 = bufferization.to_tensor %arg3 : memref<50x20x5x5xf32>
    %4 = bufferization.to_tensor %arg2 : memref<20xf32>
    %5 = bufferization.to_tensor %arg1 : memref<20x1x5x5xf32>
    %6 = bufferization.to_tensor %arg0 : memref<1x1x28x28xf32>
    %7 = bufferization.to_memref %0 : memref<10x500xf32, strided<[?, ?], offset: ?>>
    %8 = bufferization.to_memref %1 : memref<500x800xf32, strided<[?, ?], offset: ?>>
    %9 = bufferization.to_memref %2 : memref<50xf32, strided<[?], offset: ?>>
    %10 = bufferization.to_memref %3 : memref<50x20x5x5xf32, strided<[?, ?, ?, ?], offset: ?>>
    %11 = bufferization.to_memref %4 : memref<20xf32, strided<[?], offset: ?>>
    %12 = bufferization.to_memref %5 : memref<20x1x5x5xf32, strided<[?, ?, ?, ?], offset: ?>>
    %13 = bufferization.to_memref %6 : memref<1x1x28x28xf32, strided<[?, ?, ?, ?], offset: ?>>
    %alloc = memref.alloc() {alignment = 64 : i64} : memref<1x28x28x1xf32>
    %c0_1 = arith.constant 0 : index
    %c1 = arith.constant 1 : index
    %c1_2 = arith.constant 1 : index
    cf.br ^bb1(%c0_1 : index)
  ^bb1(%14: index):  // 2 preds: ^bb0, ^bb11
    %15 = arith.cmpi slt, %14, %c1 : index
    cf.cond_br %15, ^bb2, ^bb12
  ^bb2:  // pred: ^bb1
    %c0_3 = arith.constant 0 : index
    %c28 = arith.constant 28 : index
    %c1_4 = arith.constant 1 : index
    cf.br ^bb3(%c0_3 : index)
  ^bb3(%16: index):  // 2 preds: ^bb2, ^bb10
    %17 = arith.cmpi slt, %16, %c28 : index
    cf.cond_br %17, ^bb4, ^bb11
  ^bb4:  // pred: ^bb3
    %c0_5 = arith.constant 0 : index
    %c28_6 = arith.constant 28 : index
    %c1_7 = arith.constant 1 : index
    cf.br ^bb5(%c0_5 : index)
  ^bb5(%18: index):  // 2 preds: ^bb4, ^bb9
    %19 = arith.cmpi slt, %18, %c28_6 : index
    cf.cond_br %19, ^bb6, ^bb10
  ^bb6:  // pred: ^bb5
    %c0_8 = arith.constant 0 : index
    %c1_9 = arith.constant 1 : index
    %c1_10 = arith.constant 1 : index
    cf.br ^bb7(%c0_8 : index)
  ^bb7(%20: index):  // 2 preds: ^bb6, ^bb8
    %21 = arith.cmpi slt, %20, %c1_9 : index
    cf.cond_br %21, ^bb8, ^bb9
  ^bb8:  // pred: ^bb7
    %22 = memref.load %13[%14, %20, %16, %18] : memref<1x1x28x28xf32, strided<[?, ?, ?, ?], offset: ?>>
    memref.store %22, %alloc[%14, %16, %18, %20] : memref<1x28x28x1xf32>
    %23 = arith.addi %20, %c1_10 : index
    cf.br ^bb7(%23 : index)
  ^bb9:  // pred: ^bb7
    %24 = arith.addi %18, %c1_7 : index
    cf.br ^bb5(%24 : index)
  ^bb10:  // pred: ^bb5
    %25 = arith.addi %16, %c1_4 : index
    cf.br ^bb3(%25 : index)
  ^bb11:  // pred: ^bb3
    %26 = arith.addi %14, %c1_2 : index
    cf.br ^bb1(%26 : index)
  ^bb12:  // pred: ^bb1
    %alloc_11 = memref.alloc() {alignment = 64 : i64} : memref<20x5x5x1xf32>
    %c0_12 = arith.constant 0 : index
    %c20 = arith.constant 20 : index
    %c1_13 = arith.constant 1 : index
    cf.br ^bb13(%c0_12 : index)
  ^bb13(%27: index):  // 2 preds: ^bb12, ^bb23
    %28 = arith.cmpi slt, %27, %c20 : index
    cf.cond_br %28, ^bb14, ^bb24
  ^bb14:  // pred: ^bb13
    %c0_14 = arith.constant 0 : index
    %c5 = arith.constant 5 : index
    %c1_15 = arith.constant 1 : index
    cf.br ^bb15(%c0_14 : index)
  ^bb15(%29: index):  // 2 preds: ^bb14, ^bb22
    %30 = arith.cmpi slt, %29, %c5 : index
    cf.cond_br %30, ^bb16, ^bb23
  ^bb16:  // pred: ^bb15
    %c0_16 = arith.constant 0 : index
    %c5_17 = arith.constant 5 : index
    %c1_18 = arith.constant 1 : index
    cf.br ^bb17(%c0_16 : index)
  ^bb17(%31: index):  // 2 preds: ^bb16, ^bb21
    %32 = arith.cmpi slt, %31, %c5_17 : index
    cf.cond_br %32, ^bb18, ^bb22
  ^bb18:  // pred: ^bb17
    %c0_19 = arith.constant 0 : index
    %c1_20 = arith.constant 1 : index
    %c1_21 = arith.constant 1 : index
    cf.br ^bb19(%c0_19 : index)
  ^bb19(%33: index):  // 2 preds: ^bb18, ^bb20
    %34 = arith.cmpi slt, %33, %c1_20 : index
    cf.cond_br %34, ^bb20, ^bb21
  ^bb20:  // pred: ^bb19
    %35 = memref.load %12[%27, %33, %29, %31] : memref<20x1x5x5xf32, strided<[?, ?, ?, ?], offset: ?>>
    memref.store %35, %alloc_11[%27, %29, %31, %33] : memref<20x5x5x1xf32>
    %36 = arith.addi %33, %c1_21 : index
    cf.br ^bb19(%36 : index)
  ^bb21:  // pred: ^bb19
    %37 = arith.addi %31, %c1_18 : index
    cf.br ^bb17(%37 : index)
  ^bb22:  // pred: ^bb17
    %38 = arith.addi %29, %c1_15 : index
    cf.br ^bb15(%38 : index)
  ^bb23:  // pred: ^bb15
    %39 = arith.addi %27, %c1_13 : index
    cf.br ^bb13(%39 : index)
  ^bb24:  // pred: ^bb13
    %alloc_22 = memref.alloc() {alignment = 64 : i64} : memref<1x24x24x20xf32>
    %c0_23 = arith.constant 0 : index
    %c1_24 = arith.constant 1 : index
    %c1_25 = arith.constant 1 : index
    cf.br ^bb25(%c0_23 : index)
  ^bb25(%40: index):  // 2 preds: ^bb24, ^bb35
    %41 = arith.cmpi slt, %40, %c1_24 : index
    cf.cond_br %41, ^bb26, ^bb36
  ^bb26:  // pred: ^bb25
    %c0_26 = arith.constant 0 : index
    %c24 = arith.constant 24 : index
    %c1_27 = arith.constant 1 : index
    cf.br ^bb27(%c0_26 : index)
  ^bb27(%42: index):  // 2 preds: ^bb26, ^bb34
    %43 = arith.cmpi slt, %42, %c24 : index
    cf.cond_br %43, ^bb28, ^bb35
  ^bb28:  // pred: ^bb27
    %c0_28 = arith.constant 0 : index
    %c24_29 = arith.constant 24 : index
    %c1_30 = arith.constant 1 : index
    cf.br ^bb29(%c0_28 : index)
  ^bb29(%44: index):  // 2 preds: ^bb28, ^bb33
    %45 = arith.cmpi slt, %44, %c24_29 : index
    cf.cond_br %45, ^bb30, ^bb34
  ^bb30:  // pred: ^bb29
    %c0_31 = arith.constant 0 : index
    %c20_32 = arith.constant 20 : index
    %c1_33 = arith.constant 1 : index
    cf.br ^bb31(%c0_31 : index)
  ^bb31(%46: index):  // 2 preds: ^bb30, ^bb32
    %47 = arith.cmpi slt, %46, %c20_32 : index
    cf.cond_br %47, ^bb32, ^bb33
  ^bb32:  // pred: ^bb31
    %48 = memref.load %11[%46] : memref<20xf32, strided<[?], offset: ?>>
    memref.store %48, %alloc_22[%40, %42, %44, %46] : memref<1x24x24x20xf32>
    %49 = arith.addi %46, %c1_33 : index
    cf.br ^bb31(%49 : index)
  ^bb33:  // pred: ^bb31
    %50 = arith.addi %44, %c1_30 : index
    cf.br ^bb29(%50 : index)
  ^bb34:  // pred: ^bb29
    %51 = arith.addi %42, %c1_27 : index
    cf.br ^bb27(%51 : index)
  ^bb35:  // pred: ^bb27
    %52 = arith.addi %40, %c1_25 : index
    cf.br ^bb25(%52 : index)
  ^bb36:  // pred: ^bb25
    %c0_34 = arith.constant 0 : index
    %c1_35 = arith.constant 1 : index
    %c1_36 = arith.constant 1 : index
    cf.br ^bb37(%c0_34 : index)
  ^bb37(%53: index):  // 2 preds: ^bb36, ^bb56
    %54 = arith.cmpi slt, %53, %c1_35 : index
    cf.cond_br %54, ^bb38, ^bb57
  ^bb38:  // pred: ^bb37
    %c0_37 = arith.constant 0 : index
    %c24_38 = arith.constant 24 : index
    %c1_39 = arith.constant 1 : index
    cf.br ^bb39(%c0_37 : index)
  ^bb39(%55: index):  // 2 preds: ^bb38, ^bb55
    %56 = arith.cmpi slt, %55, %c24_38 : index
    cf.cond_br %56, ^bb40, ^bb56
  ^bb40:  // pred: ^bb39
    %c0_40 = arith.constant 0 : index
    %c24_41 = arith.constant 24 : index
    %c1_42 = arith.constant 1 : index
    cf.br ^bb41(%c0_40 : index)
  ^bb41(%57: index):  // 2 preds: ^bb40, ^bb54
    %58 = arith.cmpi slt, %57, %c24_41 : index
    cf.cond_br %58, ^bb42, ^bb55
  ^bb42:  // pred: ^bb41
    %c0_43 = arith.constant 0 : index
    %c20_44 = arith.constant 20 : index
    %c1_45 = arith.constant 1 : index
    cf.br ^bb43(%c0_43 : index)
  ^bb43(%59: index):  // 2 preds: ^bb42, ^bb53
    %60 = arith.cmpi slt, %59, %c20_44 : index
    cf.cond_br %60, ^bb44, ^bb54
  ^bb44:  // pred: ^bb43
    %c0_46 = arith.constant 0 : index
    %c5_47 = arith.constant 5 : index
    %c1_48 = arith.constant 1 : index
    cf.br ^bb45(%c0_46 : index)
  ^bb45(%61: index):  // 2 preds: ^bb44, ^bb52
    %62 = arith.cmpi slt, %61, %c5_47 : index
    cf.cond_br %62, ^bb46, ^bb53
  ^bb46:  // pred: ^bb45
    %c0_49 = arith.constant 0 : index
    %c5_50 = arith.constant 5 : index
    %c1_51 = arith.constant 1 : index
    cf.br ^bb47(%c0_49 : index)
  ^bb47(%63: index):  // 2 preds: ^bb46, ^bb51
    %64 = arith.cmpi slt, %63, %c5_50 : index
    cf.cond_br %64, ^bb48, ^bb52
  ^bb48:  // pred: ^bb47
    %c0_52 = arith.constant 0 : index
    %c1_53 = arith.constant 1 : index
    %c1_54 = arith.constant 1 : index
    cf.br ^bb49(%c0_52 : index)
  ^bb49(%65: index):  // 2 preds: ^bb48, ^bb50
    %66 = arith.cmpi slt, %65, %c1_53 : index
    cf.cond_br %66, ^bb50, ^bb51
  ^bb50:  // pred: ^bb49
    %67 = arith.addi %55, %61 : index
    %68 = arith.addi %57, %63 : index
    %69 = memref.load %alloc[%53, %67, %68, %65] : memref<1x28x28x1xf32>
    %70 = memref.load %alloc_11[%59, %61, %63, %65] : memref<20x5x5x1xf32>
    %71 = memref.load %alloc_22[%53, %55, %57, %59] : memref<1x24x24x20xf32>
    %72 = arith.mulf %69, %70 : f32
    %73 = arith.addf %71, %72 : f32
    memref.store %73, %alloc_22[%53, %55, %57, %59] : memref<1x24x24x20xf32>
    %74 = arith.addi %65, %c1_54 : index
    cf.br ^bb49(%74 : index)
  ^bb51:  // pred: ^bb49
    %75 = arith.addi %63, %c1_51 : index
    cf.br ^bb47(%75 : index)
  ^bb52:  // pred: ^bb47
    %76 = arith.addi %61, %c1_48 : index
    cf.br ^bb45(%76 : index)
  ^bb53:  // pred: ^bb45
    %77 = arith.addi %59, %c1_45 : index
    cf.br ^bb43(%77 : index)
  ^bb54:  // pred: ^bb43
    %78 = arith.addi %57, %c1_42 : index
    cf.br ^bb41(%78 : index)
  ^bb55:  // pred: ^bb41
    %79 = arith.addi %55, %c1_39 : index
    cf.br ^bb39(%79 : index)
  ^bb56:  // pred: ^bb39
    %80 = arith.addi %53, %c1_36 : index
    cf.br ^bb37(%80 : index)
  ^bb57:  // pred: ^bb37
    %alloc_55 = memref.alloc() {alignment = 64 : i64} : memref<1x20x24x24xf32>
    %c0_56 = arith.constant 0 : index
    %c1_57 = arith.constant 1 : index
    %c1_58 = arith.constant 1 : index
    cf.br ^bb58(%c0_56 : index)
  ^bb58(%81: index):  // 2 preds: ^bb57, ^bb68
    %82 = arith.cmpi slt, %81, %c1_57 : index
    cf.cond_br %82, ^bb59, ^bb69
  ^bb59:  // pred: ^bb58
    %c0_59 = arith.constant 0 : index
    %c20_60 = arith.constant 20 : index
    %c1_61 = arith.constant 1 : index
    cf.br ^bb60(%c0_59 : index)
  ^bb60(%83: index):  // 2 preds: ^bb59, ^bb67
    %84 = arith.cmpi slt, %83, %c20_60 : index
    cf.cond_br %84, ^bb61, ^bb68
  ^bb61:  // pred: ^bb60
    %c0_62 = arith.constant 0 : index
    %c24_63 = arith.constant 24 : index
    %c1_64 = arith.constant 1 : index
    cf.br ^bb62(%c0_62 : index)
  ^bb62(%85: index):  // 2 preds: ^bb61, ^bb66
    %86 = arith.cmpi slt, %85, %c24_63 : index
    cf.cond_br %86, ^bb63, ^bb67
  ^bb63:  // pred: ^bb62
    %c0_65 = arith.constant 0 : index
    %c24_66 = arith.constant 24 : index
    %c1_67 = arith.constant 1 : index
    cf.br ^bb64(%c0_65 : index)
  ^bb64(%87: index):  // 2 preds: ^bb63, ^bb65
    %88 = arith.cmpi slt, %87, %c24_66 : index
    cf.cond_br %88, ^bb65, ^bb66
  ^bb65:  // pred: ^bb64
    %89 = memref.load %alloc_22[%81, %85, %87, %83] : memref<1x24x24x20xf32>
    memref.store %89, %alloc_55[%81, %83, %85, %87] : memref<1x20x24x24xf32>
    %90 = arith.addi %87, %c1_67 : index
    cf.br ^bb64(%90 : index)
  ^bb66:  // pred: ^bb64
    %91 = arith.addi %85, %c1_64 : index
    cf.br ^bb62(%91 : index)
  ^bb67:  // pred: ^bb62
    %92 = arith.addi %83, %c1_61 : index
    cf.br ^bb60(%92 : index)
  ^bb68:  // pred: ^bb60
    %93 = arith.addi %81, %c1_58 : index
    cf.br ^bb58(%93 : index)
  ^bb69:  // pred: ^bb58
    %alloc_68 = memref.alloc() {alignment = 64 : i64} : memref<1x20x24x24xf32>
    %c0_69 = arith.constant 0 : index
    %c1_70 = arith.constant 1 : index
    %c1_71 = arith.constant 1 : index
    cf.br ^bb70(%c0_69 : index)
  ^bb70(%94: index):  // 2 preds: ^bb69, ^bb80
    %95 = arith.cmpi slt, %94, %c1_70 : index
    cf.cond_br %95, ^bb71, ^bb81
  ^bb71:  // pred: ^bb70
    %c0_72 = arith.constant 0 : index
    %c20_73 = arith.constant 20 : index
    %c1_74 = arith.constant 1 : index
    cf.br ^bb72(%c0_72 : index)
  ^bb72(%96: index):  // 2 preds: ^bb71, ^bb79
    %97 = arith.cmpi slt, %96, %c20_73 : index
    cf.cond_br %97, ^bb73, ^bb80
  ^bb73:  // pred: ^bb72
    %c0_75 = arith.constant 0 : index
    %c24_76 = arith.constant 24 : index
    %c1_77 = arith.constant 1 : index
    cf.br ^bb74(%c0_75 : index)
  ^bb74(%98: index):  // 2 preds: ^bb73, ^bb78
    %99 = arith.cmpi slt, %98, %c24_76 : index
    cf.cond_br %99, ^bb75, ^bb79
  ^bb75:  // pred: ^bb74
    %c0_78 = arith.constant 0 : index
    %c24_79 = arith.constant 24 : index
    %c1_80 = arith.constant 1 : index
    cf.br ^bb76(%c0_78 : index)
  ^bb76(%100: index):  // 2 preds: ^bb75, ^bb77
    %101 = arith.cmpi slt, %100, %c24_79 : index
    cf.cond_br %101, ^bb77, ^bb78
  ^bb77:  // pred: ^bb76
    %102 = memref.load %alloc_55[%c0, %96, %98, %100] : memref<1x20x24x24xf32>
    %103 = math.tanh %102 : f32
    memref.store %103, %alloc_68[%94, %96, %98, %100] : memref<1x20x24x24xf32>
    %104 = arith.addi %100, %c1_80 : index
    cf.br ^bb76(%104 : index)
  ^bb78:  // pred: ^bb76
    %105 = arith.addi %98, %c1_77 : index
    cf.br ^bb74(%105 : index)
  ^bb79:  // pred: ^bb74
    %106 = arith.addi %96, %c1_74 : index
    cf.br ^bb72(%106 : index)
  ^bb80:  // pred: ^bb72
    %107 = arith.addi %94, %c1_71 : index
    cf.br ^bb70(%107 : index)
  ^bb81:  // pred: ^bb70
    %alloc_81 = memref.alloc() {alignment = 64 : i64} : memref<1x24x24x20xf32>
    %c0_82 = arith.constant 0 : index
    %c1_83 = arith.constant 1 : index
    %c1_84 = arith.constant 1 : index
    cf.br ^bb82(%c0_82 : index)
  ^bb82(%108: index):  // 2 preds: ^bb81, ^bb92
    %109 = arith.cmpi slt, %108, %c1_83 : index
    cf.cond_br %109, ^bb83, ^bb93
  ^bb83:  // pred: ^bb82
    %c0_85 = arith.constant 0 : index
    %c24_86 = arith.constant 24 : index
    %c1_87 = arith.constant 1 : index
    cf.br ^bb84(%c0_85 : index)
  ^bb84(%110: index):  // 2 preds: ^bb83, ^bb91
    %111 = arith.cmpi slt, %110, %c24_86 : index
    cf.cond_br %111, ^bb85, ^bb92
  ^bb85:  // pred: ^bb84
    %c0_88 = arith.constant 0 : index
    %c24_89 = arith.constant 24 : index
    %c1_90 = arith.constant 1 : index
    cf.br ^bb86(%c0_88 : index)
  ^bb86(%112: index):  // 2 preds: ^bb85, ^bb90
    %113 = arith.cmpi slt, %112, %c24_89 : index
    cf.cond_br %113, ^bb87, ^bb91
  ^bb87:  // pred: ^bb86
    %c0_91 = arith.constant 0 : index
    %c20_92 = arith.constant 20 : index
    %c1_93 = arith.constant 1 : index
    cf.br ^bb88(%c0_91 : index)
  ^bb88(%114: index):  // 2 preds: ^bb87, ^bb89
    %115 = arith.cmpi slt, %114, %c20_92 : index
    cf.cond_br %115, ^bb89, ^bb90
  ^bb89:  // pred: ^bb88
    %116 = memref.load %alloc_68[%108, %114, %110, %112] : memref<1x20x24x24xf32>
    memref.store %116, %alloc_81[%108, %110, %112, %114] : memref<1x24x24x20xf32>
    %117 = arith.addi %114, %c1_93 : index
    cf.br ^bb88(%117 : index)
  ^bb90:  // pred: ^bb88
    %118 = arith.addi %112, %c1_90 : index
    cf.br ^bb86(%118 : index)
  ^bb91:  // pred: ^bb86
    %119 = arith.addi %110, %c1_87 : index
    cf.br ^bb84(%119 : index)
  ^bb92:  // pred: ^bb84
    %120 = arith.addi %108, %c1_84 : index
    cf.br ^bb82(%120 : index)
  ^bb93:  // pred: ^bb82
    %alloc_94 = memref.alloc() {alignment = 64 : i64} : memref<1x12x12x20xf32>
    %c0_95 = arith.constant 0 : index
    %c1_96 = arith.constant 1 : index
    %c1_97 = arith.constant 1 : index
    cf.br ^bb94(%c0_95 : index)
  ^bb94(%121: index):  // 2 preds: ^bb93, ^bb104
    %122 = arith.cmpi slt, %121, %c1_96 : index
    cf.cond_br %122, ^bb95, ^bb105
  ^bb95:  // pred: ^bb94
    %c0_98 = arith.constant 0 : index
    %c12 = arith.constant 12 : index
    %c1_99 = arith.constant 1 : index
    cf.br ^bb96(%c0_98 : index)
  ^bb96(%123: index):  // 2 preds: ^bb95, ^bb103
    %124 = arith.cmpi slt, %123, %c12 : index
    cf.cond_br %124, ^bb97, ^bb104
  ^bb97:  // pred: ^bb96
    %c0_100 = arith.constant 0 : index
    %c12_101 = arith.constant 12 : index
    %c1_102 = arith.constant 1 : index
    cf.br ^bb98(%c0_100 : index)
  ^bb98(%125: index):  // 2 preds: ^bb97, ^bb102
    %126 = arith.cmpi slt, %125, %c12_101 : index
    cf.cond_br %126, ^bb99, ^bb103
  ^bb99:  // pred: ^bb98
    %c0_103 = arith.constant 0 : index
    %c20_104 = arith.constant 20 : index
    %c1_105 = arith.constant 1 : index
    cf.br ^bb100(%c0_103 : index)
  ^bb100(%127: index):  // 2 preds: ^bb99, ^bb101
    %128 = arith.cmpi slt, %127, %c20_104 : index
    cf.cond_br %128, ^bb101, ^bb102
  ^bb101:  // pred: ^bb100
    memref.store %cst_0, %alloc_94[%121, %123, %125, %127] : memref<1x12x12x20xf32>
    %129 = arith.addi %127, %c1_105 : index
    cf.br ^bb100(%129 : index)
  ^bb102:  // pred: ^bb100
    %130 = arith.addi %125, %c1_102 : index
    cf.br ^bb98(%130 : index)
  ^bb103:  // pred: ^bb98
    %131 = arith.addi %123, %c1_99 : index
    cf.br ^bb96(%131 : index)
  ^bb104:  // pred: ^bb96
    %132 = arith.addi %121, %c1_97 : index
    cf.br ^bb94(%132 : index)
  ^bb105:  // pred: ^bb94
    %c0_106 = arith.constant 0 : index
    %c1_107 = arith.constant 1 : index
    %c1_108 = arith.constant 1 : index
    cf.br ^bb106(%c0_106 : index)
  ^bb106(%133: index):  // 2 preds: ^bb105, ^bb122
    %134 = arith.cmpi slt, %133, %c1_107 : index
    cf.cond_br %134, ^bb107, ^bb123
  ^bb107:  // pred: ^bb106
    %c0_109 = arith.constant 0 : index
    %c12_110 = arith.constant 12 : index
    %c1_111 = arith.constant 1 : index
    cf.br ^bb108(%c0_109 : index)
  ^bb108(%135: index):  // 2 preds: ^bb107, ^bb121
    %136 = arith.cmpi slt, %135, %c12_110 : index
    cf.cond_br %136, ^bb109, ^bb122
  ^bb109:  // pred: ^bb108
    %c0_112 = arith.constant 0 : index
    %c12_113 = arith.constant 12 : index
    %c1_114 = arith.constant 1 : index
    cf.br ^bb110(%c0_112 : index)
  ^bb110(%137: index):  // 2 preds: ^bb109, ^bb120
    %138 = arith.cmpi slt, %137, %c12_113 : index
    cf.cond_br %138, ^bb111, ^bb121
  ^bb111:  // pred: ^bb110
    %c0_115 = arith.constant 0 : index
    %c20_116 = arith.constant 20 : index
    %c1_117 = arith.constant 1 : index
    cf.br ^bb112(%c0_115 : index)
  ^bb112(%139: index):  // 2 preds: ^bb111, ^bb119
    %140 = arith.cmpi slt, %139, %c20_116 : index
    cf.cond_br %140, ^bb113, ^bb120
  ^bb113:  // pred: ^bb112
    %c0_118 = arith.constant 0 : index
    %c2 = arith.constant 2 : index
    %c1_119 = arith.constant 1 : index
    cf.br ^bb114(%c0_118 : index)
  ^bb114(%141: index):  // 2 preds: ^bb113, ^bb118
    %142 = arith.cmpi slt, %141, %c2 : index
    cf.cond_br %142, ^bb115, ^bb119
  ^bb115:  // pred: ^bb114
    %c0_120 = arith.constant 0 : index
    %c2_121 = arith.constant 2 : index
    %c1_122 = arith.constant 1 : index
    cf.br ^bb116(%c0_120 : index)
  ^bb116(%143: index):  // 2 preds: ^bb115, ^bb117
    %144 = arith.cmpi slt, %143, %c2_121 : index
    cf.cond_br %144, ^bb117, ^bb118
  ^bb117:  // pred: ^bb116
    %c2_123 = arith.constant 2 : index
    %145 = arith.muli %135, %c2_123 : index
    %146 = arith.addi %145, %141 : index
    %c2_124 = arith.constant 2 : index
    %147 = arith.muli %137, %c2_124 : index
    %148 = arith.addi %147, %143 : index
    %149 = memref.load %alloc_81[%133, %146, %148, %139] : memref<1x24x24x20xf32>
    %150 = memref.load %alloc_94[%133, %135, %137, %139] : memref<1x12x12x20xf32>
    %151 = arith.maximumf %150, %149 : f32
    memref.store %151, %alloc_94[%133, %135, %137, %139] : memref<1x12x12x20xf32>
    %152 = arith.addi %143, %c1_122 : index
    cf.br ^bb116(%152 : index)
  ^bb118:  // pred: ^bb116
    %153 = arith.addi %141, %c1_119 : index
    cf.br ^bb114(%153 : index)
  ^bb119:  // pred: ^bb114
    %154 = arith.addi %139, %c1_117 : index
    cf.br ^bb112(%154 : index)
  ^bb120:  // pred: ^bb112
    %155 = arith.addi %137, %c1_114 : index
    cf.br ^bb110(%155 : index)
  ^bb121:  // pred: ^bb110
    %156 = arith.addi %135, %c1_111 : index
    cf.br ^bb108(%156 : index)
  ^bb122:  // pred: ^bb108
    %157 = arith.addi %133, %c1_108 : index
    cf.br ^bb106(%157 : index)
  ^bb123:  // pred: ^bb106
    %alloc_125 = memref.alloc() {alignment = 64 : i64} : memref<1x20x12x12xf32>
    %c0_126 = arith.constant 0 : index
    %c1_127 = arith.constant 1 : index
    %c1_128 = arith.constant 1 : index
    cf.br ^bb124(%c0_126 : index)
  ^bb124(%158: index):  // 2 preds: ^bb123, ^bb134
    %159 = arith.cmpi slt, %158, %c1_127 : index
    cf.cond_br %159, ^bb125, ^bb135
  ^bb125:  // pred: ^bb124
    %c0_129 = arith.constant 0 : index
    %c20_130 = arith.constant 20 : index
    %c1_131 = arith.constant 1 : index
    cf.br ^bb126(%c0_129 : index)
  ^bb126(%160: index):  // 2 preds: ^bb125, ^bb133
    %161 = arith.cmpi slt, %160, %c20_130 : index
    cf.cond_br %161, ^bb127, ^bb134
  ^bb127:  // pred: ^bb126
    %c0_132 = arith.constant 0 : index
    %c12_133 = arith.constant 12 : index
    %c1_134 = arith.constant 1 : index
    cf.br ^bb128(%c0_132 : index)
  ^bb128(%162: index):  // 2 preds: ^bb127, ^bb132
    %163 = arith.cmpi slt, %162, %c12_133 : index
    cf.cond_br %163, ^bb129, ^bb133
  ^bb129:  // pred: ^bb128
    %c0_135 = arith.constant 0 : index
    %c12_136 = arith.constant 12 : index
    %c1_137 = arith.constant 1 : index
    cf.br ^bb130(%c0_135 : index)
  ^bb130(%164: index):  // 2 preds: ^bb129, ^bb131
    %165 = arith.cmpi slt, %164, %c12_136 : index
    cf.cond_br %165, ^bb131, ^bb132
  ^bb131:  // pred: ^bb130
    %166 = memref.load %alloc_94[%158, %162, %164, %160] : memref<1x12x12x20xf32>
    memref.store %166, %alloc_125[%158, %160, %162, %164] : memref<1x20x12x12xf32>
    %167 = arith.addi %164, %c1_137 : index
    cf.br ^bb130(%167 : index)
  ^bb132:  // pred: ^bb130
    %168 = arith.addi %162, %c1_134 : index
    cf.br ^bb128(%168 : index)
  ^bb133:  // pred: ^bb128
    %169 = arith.addi %160, %c1_131 : index
    cf.br ^bb126(%169 : index)
  ^bb134:  // pred: ^bb126
    %170 = arith.addi %158, %c1_128 : index
    cf.br ^bb124(%170 : index)
  ^bb135:  // pred: ^bb124
    %alloc_138 = memref.alloc() {alignment = 64 : i64} : memref<1x12x12x20xf32>
    %c0_139 = arith.constant 0 : index
    %c1_140 = arith.constant 1 : index
    %c1_141 = arith.constant 1 : index
    cf.br ^bb136(%c0_139 : index)
  ^bb136(%171: index):  // 2 preds: ^bb135, ^bb146
    %172 = arith.cmpi slt, %171, %c1_140 : index
    cf.cond_br %172, ^bb137, ^bb147
  ^bb137:  // pred: ^bb136
    %c0_142 = arith.constant 0 : index
    %c12_143 = arith.constant 12 : index
    %c1_144 = arith.constant 1 : index
    cf.br ^bb138(%c0_142 : index)
  ^bb138(%173: index):  // 2 preds: ^bb137, ^bb145
    %174 = arith.cmpi slt, %173, %c12_143 : index
    cf.cond_br %174, ^bb139, ^bb146
  ^bb139:  // pred: ^bb138
    %c0_145 = arith.constant 0 : index
    %c12_146 = arith.constant 12 : index
    %c1_147 = arith.constant 1 : index
    cf.br ^bb140(%c0_145 : index)
  ^bb140(%175: index):  // 2 preds: ^bb139, ^bb144
    %176 = arith.cmpi slt, %175, %c12_146 : index
    cf.cond_br %176, ^bb141, ^bb145
  ^bb141:  // pred: ^bb140
    %c0_148 = arith.constant 0 : index
    %c20_149 = arith.constant 20 : index
    %c1_150 = arith.constant 1 : index
    cf.br ^bb142(%c0_148 : index)
  ^bb142(%177: index):  // 2 preds: ^bb141, ^bb143
    %178 = arith.cmpi slt, %177, %c20_149 : index
    cf.cond_br %178, ^bb143, ^bb144
  ^bb143:  // pred: ^bb142
    %179 = memref.load %alloc_125[%171, %177, %173, %175] : memref<1x20x12x12xf32>
    memref.store %179, %alloc_138[%171, %173, %175, %177] : memref<1x12x12x20xf32>
    %180 = arith.addi %177, %c1_150 : index
    cf.br ^bb142(%180 : index)
  ^bb144:  // pred: ^bb142
    %181 = arith.addi %175, %c1_147 : index
    cf.br ^bb140(%181 : index)
  ^bb145:  // pred: ^bb140
    %182 = arith.addi %173, %c1_144 : index
    cf.br ^bb138(%182 : index)
  ^bb146:  // pred: ^bb138
    %183 = arith.addi %171, %c1_141 : index
    cf.br ^bb136(%183 : index)
  ^bb147:  // pred: ^bb136
    %alloc_151 = memref.alloc() {alignment = 64 : i64} : memref<50x5x5x20xf32>
    %c0_152 = arith.constant 0 : index
    %c50 = arith.constant 50 : index
    %c1_153 = arith.constant 1 : index
    cf.br ^bb148(%c0_152 : index)
  ^bb148(%184: index):  // 2 preds: ^bb147, ^bb158
    %185 = arith.cmpi slt, %184, %c50 : index
    cf.cond_br %185, ^bb149, ^bb159
  ^bb149:  // pred: ^bb148
    %c0_154 = arith.constant 0 : index
    %c5_155 = arith.constant 5 : index
    %c1_156 = arith.constant 1 : index
    cf.br ^bb150(%c0_154 : index)
  ^bb150(%186: index):  // 2 preds: ^bb149, ^bb157
    %187 = arith.cmpi slt, %186, %c5_155 : index
    cf.cond_br %187, ^bb151, ^bb158
  ^bb151:  // pred: ^bb150
    %c0_157 = arith.constant 0 : index
    %c5_158 = arith.constant 5 : index
    %c1_159 = arith.constant 1 : index
    cf.br ^bb152(%c0_157 : index)
  ^bb152(%188: index):  // 2 preds: ^bb151, ^bb156
    %189 = arith.cmpi slt, %188, %c5_158 : index
    cf.cond_br %189, ^bb153, ^bb157
  ^bb153:  // pred: ^bb152
    %c0_160 = arith.constant 0 : index
    %c20_161 = arith.constant 20 : index
    %c1_162 = arith.constant 1 : index
    cf.br ^bb154(%c0_160 : index)
  ^bb154(%190: index):  // 2 preds: ^bb153, ^bb155
    %191 = arith.cmpi slt, %190, %c20_161 : index
    cf.cond_br %191, ^bb155, ^bb156
  ^bb155:  // pred: ^bb154
    %192 = memref.load %10[%184, %190, %186, %188] : memref<50x20x5x5xf32, strided<[?, ?, ?, ?], offset: ?>>
    memref.store %192, %alloc_151[%184, %186, %188, %190] : memref<50x5x5x20xf32>
    %193 = arith.addi %190, %c1_162 : index
    cf.br ^bb154(%193 : index)
  ^bb156:  // pred: ^bb154
    %194 = arith.addi %188, %c1_159 : index
    cf.br ^bb152(%194 : index)
  ^bb157:  // pred: ^bb152
    %195 = arith.addi %186, %c1_156 : index
    cf.br ^bb150(%195 : index)
  ^bb158:  // pred: ^bb150
    %196 = arith.addi %184, %c1_153 : index
    cf.br ^bb148(%196 : index)
  ^bb159:  // pred: ^bb148
    %alloc_163 = memref.alloc() {alignment = 64 : i64} : memref<1x8x8x50xf32>
    %c0_164 = arith.constant 0 : index
    %c1_165 = arith.constant 1 : index
    %c1_166 = arith.constant 1 : index
    cf.br ^bb160(%c0_164 : index)
  ^bb160(%197: index):  // 2 preds: ^bb159, ^bb170
    %198 = arith.cmpi slt, %197, %c1_165 : index
    cf.cond_br %198, ^bb161, ^bb171
  ^bb161:  // pred: ^bb160
    %c0_167 = arith.constant 0 : index
    %c8 = arith.constant 8 : index
    %c1_168 = arith.constant 1 : index
    cf.br ^bb162(%c0_167 : index)
  ^bb162(%199: index):  // 2 preds: ^bb161, ^bb169
    %200 = arith.cmpi slt, %199, %c8 : index
    cf.cond_br %200, ^bb163, ^bb170
  ^bb163:  // pred: ^bb162
    %c0_169 = arith.constant 0 : index
    %c8_170 = arith.constant 8 : index
    %c1_171 = arith.constant 1 : index
    cf.br ^bb164(%c0_169 : index)
  ^bb164(%201: index):  // 2 preds: ^bb163, ^bb168
    %202 = arith.cmpi slt, %201, %c8_170 : index
    cf.cond_br %202, ^bb165, ^bb169
  ^bb165:  // pred: ^bb164
    %c0_172 = arith.constant 0 : index
    %c50_173 = arith.constant 50 : index
    %c1_174 = arith.constant 1 : index
    cf.br ^bb166(%c0_172 : index)
  ^bb166(%203: index):  // 2 preds: ^bb165, ^bb167
    %204 = arith.cmpi slt, %203, %c50_173 : index
    cf.cond_br %204, ^bb167, ^bb168
  ^bb167:  // pred: ^bb166
    %205 = memref.load %9[%203] : memref<50xf32, strided<[?], offset: ?>>
    memref.store %205, %alloc_163[%197, %199, %201, %203] : memref<1x8x8x50xf32>
    %206 = arith.addi %203, %c1_174 : index
    cf.br ^bb166(%206 : index)
  ^bb168:  // pred: ^bb166
    %207 = arith.addi %201, %c1_171 : index
    cf.br ^bb164(%207 : index)
  ^bb169:  // pred: ^bb164
    %208 = arith.addi %199, %c1_168 : index
    cf.br ^bb162(%208 : index)
  ^bb170:  // pred: ^bb162
    %209 = arith.addi %197, %c1_166 : index
    cf.br ^bb160(%209 : index)
  ^bb171:  // pred: ^bb160
    %c0_175 = arith.constant 0 : index
    %c1_176 = arith.constant 1 : index
    %c1_177 = arith.constant 1 : index
    cf.br ^bb172(%c0_175 : index)
  ^bb172(%210: index):  // 2 preds: ^bb171, ^bb191
    %211 = arith.cmpi slt, %210, %c1_176 : index
    cf.cond_br %211, ^bb173, ^bb192
  ^bb173:  // pred: ^bb172
    %c0_178 = arith.constant 0 : index
    %c8_179 = arith.constant 8 : index
    %c1_180 = arith.constant 1 : index
    cf.br ^bb174(%c0_178 : index)
  ^bb174(%212: index):  // 2 preds: ^bb173, ^bb190
    %213 = arith.cmpi slt, %212, %c8_179 : index
    cf.cond_br %213, ^bb175, ^bb191
  ^bb175:  // pred: ^bb174
    %c0_181 = arith.constant 0 : index
    %c8_182 = arith.constant 8 : index
    %c1_183 = arith.constant 1 : index
    cf.br ^bb176(%c0_181 : index)
  ^bb176(%214: index):  // 2 preds: ^bb175, ^bb189
    %215 = arith.cmpi slt, %214, %c8_182 : index
    cf.cond_br %215, ^bb177, ^bb190
  ^bb177:  // pred: ^bb176
    %c0_184 = arith.constant 0 : index
    %c50_185 = arith.constant 50 : index
    %c1_186 = arith.constant 1 : index
    cf.br ^bb178(%c0_184 : index)
  ^bb178(%216: index):  // 2 preds: ^bb177, ^bb188
    %217 = arith.cmpi slt, %216, %c50_185 : index
    cf.cond_br %217, ^bb179, ^bb189
  ^bb179:  // pred: ^bb178
    %c0_187 = arith.constant 0 : index
    %c5_188 = arith.constant 5 : index
    %c1_189 = arith.constant 1 : index
    cf.br ^bb180(%c0_187 : index)
  ^bb180(%218: index):  // 2 preds: ^bb179, ^bb187
    %219 = arith.cmpi slt, %218, %c5_188 : index
    cf.cond_br %219, ^bb181, ^bb188
  ^bb181:  // pred: ^bb180
    %c0_190 = arith.constant 0 : index
    %c5_191 = arith.constant 5 : index
    %c1_192 = arith.constant 1 : index
    cf.br ^bb182(%c0_190 : index)
  ^bb182(%220: index):  // 2 preds: ^bb181, ^bb186
    %221 = arith.cmpi slt, %220, %c5_191 : index
    cf.cond_br %221, ^bb183, ^bb187
  ^bb183:  // pred: ^bb182
    %c0_193 = arith.constant 0 : index
    %c20_194 = arith.constant 20 : index
    %c1_195 = arith.constant 1 : index
    cf.br ^bb184(%c0_193 : index)
  ^bb184(%222: index):  // 2 preds: ^bb183, ^bb185
    %223 = arith.cmpi slt, %222, %c20_194 : index
    cf.cond_br %223, ^bb185, ^bb186
  ^bb185:  // pred: ^bb184
    %224 = arith.addi %212, %218 : index
    %225 = arith.addi %214, %220 : index
    %226 = memref.load %alloc_138[%210, %224, %225, %222] : memref<1x12x12x20xf32>
    %227 = memref.load %alloc_151[%216, %218, %220, %222] : memref<50x5x5x20xf32>
    %228 = memref.load %alloc_163[%210, %212, %214, %216] : memref<1x8x8x50xf32>
    %229 = arith.mulf %226, %227 : f32
    %230 = arith.addf %228, %229 : f32
    memref.store %230, %alloc_163[%210, %212, %214, %216] : memref<1x8x8x50xf32>
    %231 = arith.addi %222, %c1_195 : index
    cf.br ^bb184(%231 : index)
  ^bb186:  // pred: ^bb184
    %232 = arith.addi %220, %c1_192 : index
    cf.br ^bb182(%232 : index)
  ^bb187:  // pred: ^bb182
    %233 = arith.addi %218, %c1_189 : index
    cf.br ^bb180(%233 : index)
  ^bb188:  // pred: ^bb180
    %234 = arith.addi %216, %c1_186 : index
    cf.br ^bb178(%234 : index)
  ^bb189:  // pred: ^bb178
    %235 = arith.addi %214, %c1_183 : index
    cf.br ^bb176(%235 : index)
  ^bb190:  // pred: ^bb176
    %236 = arith.addi %212, %c1_180 : index
    cf.br ^bb174(%236 : index)
  ^bb191:  // pred: ^bb174
    %237 = arith.addi %210, %c1_177 : index
    cf.br ^bb172(%237 : index)
  ^bb192:  // pred: ^bb172
    %alloc_196 = memref.alloc() {alignment = 64 : i64} : memref<1x50x8x8xf32>
    %c0_197 = arith.constant 0 : index
    %c1_198 = arith.constant 1 : index
    %c1_199 = arith.constant 1 : index
    cf.br ^bb193(%c0_197 : index)
  ^bb193(%238: index):  // 2 preds: ^bb192, ^bb203
    %239 = arith.cmpi slt, %238, %c1_198 : index
    cf.cond_br %239, ^bb194, ^bb204
  ^bb194:  // pred: ^bb193
    %c0_200 = arith.constant 0 : index
    %c50_201 = arith.constant 50 : index
    %c1_202 = arith.constant 1 : index
    cf.br ^bb195(%c0_200 : index)
  ^bb195(%240: index):  // 2 preds: ^bb194, ^bb202
    %241 = arith.cmpi slt, %240, %c50_201 : index
    cf.cond_br %241, ^bb196, ^bb203
  ^bb196:  // pred: ^bb195
    %c0_203 = arith.constant 0 : index
    %c8_204 = arith.constant 8 : index
    %c1_205 = arith.constant 1 : index
    cf.br ^bb197(%c0_203 : index)
  ^bb197(%242: index):  // 2 preds: ^bb196, ^bb201
    %243 = arith.cmpi slt, %242, %c8_204 : index
    cf.cond_br %243, ^bb198, ^bb202
  ^bb198:  // pred: ^bb197
    %c0_206 = arith.constant 0 : index
    %c8_207 = arith.constant 8 : index
    %c1_208 = arith.constant 1 : index
    cf.br ^bb199(%c0_206 : index)
  ^bb199(%244: index):  // 2 preds: ^bb198, ^bb200
    %245 = arith.cmpi slt, %244, %c8_207 : index
    cf.cond_br %245, ^bb200, ^bb201
  ^bb200:  // pred: ^bb199
    %246 = memref.load %alloc_163[%238, %242, %244, %240] : memref<1x8x8x50xf32>
    memref.store %246, %alloc_196[%238, %240, %242, %244] : memref<1x50x8x8xf32>
    %247 = arith.addi %244, %c1_208 : index
    cf.br ^bb199(%247 : index)
  ^bb201:  // pred: ^bb199
    %248 = arith.addi %242, %c1_205 : index
    cf.br ^bb197(%248 : index)
  ^bb202:  // pred: ^bb197
    %249 = arith.addi %240, %c1_202 : index
    cf.br ^bb195(%249 : index)
  ^bb203:  // pred: ^bb195
    %250 = arith.addi %238, %c1_199 : index
    cf.br ^bb193(%250 : index)
  ^bb204:  // pred: ^bb193
    %alloc_209 = memref.alloc() {alignment = 64 : i64} : memref<1x50x8x8xf32>
    %c0_210 = arith.constant 0 : index
    %c1_211 = arith.constant 1 : index
    %c1_212 = arith.constant 1 : index
    cf.br ^bb205(%c0_210 : index)
  ^bb205(%251: index):  // 2 preds: ^bb204, ^bb215
    %252 = arith.cmpi slt, %251, %c1_211 : index
    cf.cond_br %252, ^bb206, ^bb216
  ^bb206:  // pred: ^bb205
    %c0_213 = arith.constant 0 : index
    %c50_214 = arith.constant 50 : index
    %c1_215 = arith.constant 1 : index
    cf.br ^bb207(%c0_213 : index)
  ^bb207(%253: index):  // 2 preds: ^bb206, ^bb214
    %254 = arith.cmpi slt, %253, %c50_214 : index
    cf.cond_br %254, ^bb208, ^bb215
  ^bb208:  // pred: ^bb207
    %c0_216 = arith.constant 0 : index
    %c8_217 = arith.constant 8 : index
    %c1_218 = arith.constant 1 : index
    cf.br ^bb209(%c0_216 : index)
  ^bb209(%255: index):  // 2 preds: ^bb208, ^bb213
    %256 = arith.cmpi slt, %255, %c8_217 : index
    cf.cond_br %256, ^bb210, ^bb214
  ^bb210:  // pred: ^bb209
    %c0_219 = arith.constant 0 : index
    %c8_220 = arith.constant 8 : index
    %c1_221 = arith.constant 1 : index
    cf.br ^bb211(%c0_219 : index)
  ^bb211(%257: index):  // 2 preds: ^bb210, ^bb212
    %258 = arith.cmpi slt, %257, %c8_220 : index
    cf.cond_br %258, ^bb212, ^bb213
  ^bb212:  // pred: ^bb211
    %259 = memref.load %alloc_196[%c0, %253, %255, %257] : memref<1x50x8x8xf32>
    %260 = math.tanh %259 : f32
    memref.store %260, %alloc_209[%251, %253, %255, %257] : memref<1x50x8x8xf32>
    %261 = arith.addi %257, %c1_221 : index
    cf.br ^bb211(%261 : index)
  ^bb213:  // pred: ^bb211
    %262 = arith.addi %255, %c1_218 : index
    cf.br ^bb209(%262 : index)
  ^bb214:  // pred: ^bb209
    %263 = arith.addi %253, %c1_215 : index
    cf.br ^bb207(%263 : index)
  ^bb215:  // pred: ^bb207
    %264 = arith.addi %251, %c1_212 : index
    cf.br ^bb205(%264 : index)
  ^bb216:  // pred: ^bb205
    %alloc_222 = memref.alloc() {alignment = 64 : i64} : memref<1x8x8x50xf32>
    %c0_223 = arith.constant 0 : index
    %c1_224 = arith.constant 1 : index
    %c1_225 = arith.constant 1 : index
    cf.br ^bb217(%c0_223 : index)
  ^bb217(%265: index):  // 2 preds: ^bb216, ^bb227
    %266 = arith.cmpi slt, %265, %c1_224 : index
    cf.cond_br %266, ^bb218, ^bb228
  ^bb218:  // pred: ^bb217
    %c0_226 = arith.constant 0 : index
    %c8_227 = arith.constant 8 : index
    %c1_228 = arith.constant 1 : index
    cf.br ^bb219(%c0_226 : index)
  ^bb219(%267: index):  // 2 preds: ^bb218, ^bb226
    %268 = arith.cmpi slt, %267, %c8_227 : index
    cf.cond_br %268, ^bb220, ^bb227
  ^bb220:  // pred: ^bb219
    %c0_229 = arith.constant 0 : index
    %c8_230 = arith.constant 8 : index
    %c1_231 = arith.constant 1 : index
    cf.br ^bb221(%c0_229 : index)
  ^bb221(%269: index):  // 2 preds: ^bb220, ^bb225
    %270 = arith.cmpi slt, %269, %c8_230 : index
    cf.cond_br %270, ^bb222, ^bb226
  ^bb222:  // pred: ^bb221
    %c0_232 = arith.constant 0 : index
    %c50_233 = arith.constant 50 : index
    %c1_234 = arith.constant 1 : index
    cf.br ^bb223(%c0_232 : index)
  ^bb223(%271: index):  // 2 preds: ^bb222, ^bb224
    %272 = arith.cmpi slt, %271, %c50_233 : index
    cf.cond_br %272, ^bb224, ^bb225
  ^bb224:  // pred: ^bb223
    %273 = memref.load %alloc_209[%265, %271, %267, %269] : memref<1x50x8x8xf32>
    memref.store %273, %alloc_222[%265, %267, %269, %271] : memref<1x8x8x50xf32>
    %274 = arith.addi %271, %c1_234 : index
    cf.br ^bb223(%274 : index)
  ^bb225:  // pred: ^bb223
    %275 = arith.addi %269, %c1_231 : index
    cf.br ^bb221(%275 : index)
  ^bb226:  // pred: ^bb221
    %276 = arith.addi %267, %c1_228 : index
    cf.br ^bb219(%276 : index)
  ^bb227:  // pred: ^bb219
    %277 = arith.addi %265, %c1_225 : index
    cf.br ^bb217(%277 : index)
  ^bb228:  // pred: ^bb217
    %alloc_235 = memref.alloc() {alignment = 64 : i64} : memref<1x4x4x50xf32>
    %c0_236 = arith.constant 0 : index
    %c1_237 = arith.constant 1 : index
    %c1_238 = arith.constant 1 : index
    cf.br ^bb229(%c0_236 : index)
  ^bb229(%278: index):  // 2 preds: ^bb228, ^bb239
    %279 = arith.cmpi slt, %278, %c1_237 : index
    cf.cond_br %279, ^bb230, ^bb240
  ^bb230:  // pred: ^bb229
    %c0_239 = arith.constant 0 : index
    %c4 = arith.constant 4 : index
    %c1_240 = arith.constant 1 : index
    cf.br ^bb231(%c0_239 : index)
  ^bb231(%280: index):  // 2 preds: ^bb230, ^bb238
    %281 = arith.cmpi slt, %280, %c4 : index
    cf.cond_br %281, ^bb232, ^bb239
  ^bb232:  // pred: ^bb231
    %c0_241 = arith.constant 0 : index
    %c4_242 = arith.constant 4 : index
    %c1_243 = arith.constant 1 : index
    cf.br ^bb233(%c0_241 : index)
  ^bb233(%282: index):  // 2 preds: ^bb232, ^bb237
    %283 = arith.cmpi slt, %282, %c4_242 : index
    cf.cond_br %283, ^bb234, ^bb238
  ^bb234:  // pred: ^bb233
    %c0_244 = arith.constant 0 : index
    %c50_245 = arith.constant 50 : index
    %c1_246 = arith.constant 1 : index
    cf.br ^bb235(%c0_244 : index)
  ^bb235(%284: index):  // 2 preds: ^bb234, ^bb236
    %285 = arith.cmpi slt, %284, %c50_245 : index
    cf.cond_br %285, ^bb236, ^bb237
  ^bb236:  // pred: ^bb235
    memref.store %cst_0, %alloc_235[%278, %280, %282, %284] : memref<1x4x4x50xf32>
    %286 = arith.addi %284, %c1_246 : index
    cf.br ^bb235(%286 : index)
  ^bb237:  // pred: ^bb235
    %287 = arith.addi %282, %c1_243 : index
    cf.br ^bb233(%287 : index)
  ^bb238:  // pred: ^bb233
    %288 = arith.addi %280, %c1_240 : index
    cf.br ^bb231(%288 : index)
  ^bb239:  // pred: ^bb231
    %289 = arith.addi %278, %c1_238 : index
    cf.br ^bb229(%289 : index)
  ^bb240:  // pred: ^bb229
    %c0_247 = arith.constant 0 : index
    %c1_248 = arith.constant 1 : index
    %c1_249 = arith.constant 1 : index
    cf.br ^bb241(%c0_247 : index)
  ^bb241(%290: index):  // 2 preds: ^bb240, ^bb257
    %291 = arith.cmpi slt, %290, %c1_248 : index
    cf.cond_br %291, ^bb242, ^bb258
  ^bb242:  // pred: ^bb241
    %c0_250 = arith.constant 0 : index
    %c4_251 = arith.constant 4 : index
    %c1_252 = arith.constant 1 : index
    cf.br ^bb243(%c0_250 : index)
  ^bb243(%292: index):  // 2 preds: ^bb242, ^bb256
    %293 = arith.cmpi slt, %292, %c4_251 : index
    cf.cond_br %293, ^bb244, ^bb257
  ^bb244:  // pred: ^bb243
    %c0_253 = arith.constant 0 : index
    %c4_254 = arith.constant 4 : index
    %c1_255 = arith.constant 1 : index
    cf.br ^bb245(%c0_253 : index)
  ^bb245(%294: index):  // 2 preds: ^bb244, ^bb255
    %295 = arith.cmpi slt, %294, %c4_254 : index
    cf.cond_br %295, ^bb246, ^bb256
  ^bb246:  // pred: ^bb245
    %c0_256 = arith.constant 0 : index
    %c50_257 = arith.constant 50 : index
    %c1_258 = arith.constant 1 : index
    cf.br ^bb247(%c0_256 : index)
  ^bb247(%296: index):  // 2 preds: ^bb246, ^bb254
    %297 = arith.cmpi slt, %296, %c50_257 : index
    cf.cond_br %297, ^bb248, ^bb255
  ^bb248:  // pred: ^bb247
    %c0_259 = arith.constant 0 : index
    %c2_260 = arith.constant 2 : index
    %c1_261 = arith.constant 1 : index
    cf.br ^bb249(%c0_259 : index)
  ^bb249(%298: index):  // 2 preds: ^bb248, ^bb253
    %299 = arith.cmpi slt, %298, %c2_260 : index
    cf.cond_br %299, ^bb250, ^bb254
  ^bb250:  // pred: ^bb249
    %c0_262 = arith.constant 0 : index
    %c2_263 = arith.constant 2 : index
    %c1_264 = arith.constant 1 : index
    cf.br ^bb251(%c0_262 : index)
  ^bb251(%300: index):  // 2 preds: ^bb250, ^bb252
    %301 = arith.cmpi slt, %300, %c2_263 : index
    cf.cond_br %301, ^bb252, ^bb253
  ^bb252:  // pred: ^bb251
    %c2_265 = arith.constant 2 : index
    %302 = arith.muli %292, %c2_265 : index
    %303 = arith.addi %302, %298 : index
    %c2_266 = arith.constant 2 : index
    %304 = arith.muli %294, %c2_266 : index
    %305 = arith.addi %304, %300 : index
    %306 = memref.load %alloc_222[%290, %303, %305, %296] : memref<1x8x8x50xf32>
    %307 = memref.load %alloc_235[%290, %292, %294, %296] : memref<1x4x4x50xf32>
    %308 = arith.maximumf %307, %306 : f32
    memref.store %308, %alloc_235[%290, %292, %294, %296] : memref<1x4x4x50xf32>
    %309 = arith.addi %300, %c1_264 : index
    cf.br ^bb251(%309 : index)
  ^bb253:  // pred: ^bb251
    %310 = arith.addi %298, %c1_261 : index
    cf.br ^bb249(%310 : index)
  ^bb254:  // pred: ^bb249
    %311 = arith.addi %296, %c1_258 : index
    cf.br ^bb247(%311 : index)
  ^bb255:  // pred: ^bb247
    %312 = arith.addi %294, %c1_255 : index
    cf.br ^bb245(%312 : index)
  ^bb256:  // pred: ^bb245
    %313 = arith.addi %292, %c1_252 : index
    cf.br ^bb243(%313 : index)
  ^bb257:  // pred: ^bb243
    %314 = arith.addi %290, %c1_249 : index
    cf.br ^bb241(%314 : index)
  ^bb258:  // pred: ^bb241
    %alloc_267 = memref.alloc() {alignment = 64 : i64} : memref<1x50x4x4xf32>
    %c0_268 = arith.constant 0 : index
    %c1_269 = arith.constant 1 : index
    %c1_270 = arith.constant 1 : index
    cf.br ^bb259(%c0_268 : index)
  ^bb259(%315: index):  // 2 preds: ^bb258, ^bb269
    %316 = arith.cmpi slt, %315, %c1_269 : index
    cf.cond_br %316, ^bb260, ^bb270
  ^bb260:  // pred: ^bb259
    %c0_271 = arith.constant 0 : index
    %c50_272 = arith.constant 50 : index
    %c1_273 = arith.constant 1 : index
    cf.br ^bb261(%c0_271 : index)
  ^bb261(%317: index):  // 2 preds: ^bb260, ^bb268
    %318 = arith.cmpi slt, %317, %c50_272 : index
    cf.cond_br %318, ^bb262, ^bb269
  ^bb262:  // pred: ^bb261
    %c0_274 = arith.constant 0 : index
    %c4_275 = arith.constant 4 : index
    %c1_276 = arith.constant 1 : index
    cf.br ^bb263(%c0_274 : index)
  ^bb263(%319: index):  // 2 preds: ^bb262, ^bb267
    %320 = arith.cmpi slt, %319, %c4_275 : index
    cf.cond_br %320, ^bb264, ^bb268
  ^bb264:  // pred: ^bb263
    %c0_277 = arith.constant 0 : index
    %c4_278 = arith.constant 4 : index
    %c1_279 = arith.constant 1 : index
    cf.br ^bb265(%c0_277 : index)
  ^bb265(%321: index):  // 2 preds: ^bb264, ^bb266
    %322 = arith.cmpi slt, %321, %c4_278 : index
    cf.cond_br %322, ^bb266, ^bb267
  ^bb266:  // pred: ^bb265
    %323 = memref.load %alloc_235[%315, %319, %321, %317] : memref<1x4x4x50xf32>
    memref.store %323, %alloc_267[%315, %317, %319, %321] : memref<1x50x4x4xf32>
    %324 = arith.addi %321, %c1_279 : index
    cf.br ^bb265(%324 : index)
  ^bb267:  // pred: ^bb265
    %325 = arith.addi %319, %c1_276 : index
    cf.br ^bb263(%325 : index)
  ^bb268:  // pred: ^bb263
    %326 = arith.addi %317, %c1_273 : index
    cf.br ^bb261(%326 : index)
  ^bb269:  // pred: ^bb261
    %327 = arith.addi %315, %c1_270 : index
    cf.br ^bb259(%327 : index)
  ^bb270:  // pred: ^bb259
    %alloc_280 = memref.alloc() {alignment = 64 : i64} : memref<800x500xf32>
    %c0_281 = arith.constant 0 : index
    %c800 = arith.constant 800 : index
    %c1_282 = arith.constant 1 : index
    cf.br ^bb271(%c0_281 : index)
  ^bb271(%328: index):  // 2 preds: ^bb270, ^bb275
    %329 = arith.cmpi slt, %328, %c800 : index
    cf.cond_br %329, ^bb272, ^bb276
  ^bb272:  // pred: ^bb271
    %c0_283 = arith.constant 0 : index
    %c500 = arith.constant 500 : index
    %c1_284 = arith.constant 1 : index
    cf.br ^bb273(%c0_283 : index)
  ^bb273(%330: index):  // 2 preds: ^bb272, ^bb274
    %331 = arith.cmpi slt, %330, %c500 : index
    cf.cond_br %331, ^bb274, ^bb275
  ^bb274:  // pred: ^bb273
    %332 = memref.load %8[%330, %328] : memref<500x800xf32, strided<[?, ?], offset: ?>>
    memref.store %332, %alloc_280[%328, %330] : memref<800x500xf32>
    %333 = arith.addi %330, %c1_284 : index
    cf.br ^bb273(%333 : index)
  ^bb275:  // pred: ^bb273
    %334 = arith.addi %328, %c1_282 : index
    cf.br ^bb271(%334 : index)
  ^bb276:  // pred: ^bb271
    %collapse_shape = memref.collapse_shape %alloc_267 [[0], [1, 2, 3]] : memref<1x50x4x4xf32> into memref<1x800xf32>
    %expand_shape = memref.expand_shape %collapse_shape [[0, 1], [2]] output_shape [1, 1, 800] : memref<1x800xf32> into memref<1x1x800xf32>
    %expand_shape_285 = memref.expand_shape %alloc_280 [[0, 1], [2]] output_shape [1, 800, 500] : memref<800x500xf32> into memref<1x800x500xf32>
    %alloc_286 = memref.alloc() {alignment = 64 : i64} : memref<1x1x500xf32>
    %c0_287 = arith.constant 0 : index
    %c1_288 = arith.constant 1 : index
    %c1_289 = arith.constant 1 : index
    cf.br ^bb277(%c0_287 : index)
  ^bb277(%335: index):  // 2 preds: ^bb276, ^bb284
    %336 = arith.cmpi slt, %335, %c1_288 : index
    cf.cond_br %336, ^bb278, ^bb285
  ^bb278:  // pred: ^bb277
    %c0_290 = arith.constant 0 : index
    %c1_291 = arith.constant 1 : index
    %c1_292 = arith.constant 1 : index
    cf.br ^bb279(%c0_290 : index)
  ^bb279(%337: index):  // 2 preds: ^bb278, ^bb283
    %338 = arith.cmpi slt, %337, %c1_291 : index
    cf.cond_br %338, ^bb280, ^bb284
  ^bb280:  // pred: ^bb279
    %c0_293 = arith.constant 0 : index
    %c500_294 = arith.constant 500 : index
    %c1_295 = arith.constant 1 : index
    cf.br ^bb281(%c0_293 : index)
  ^bb281(%339: index):  // 2 preds: ^bb280, ^bb282
    %340 = arith.cmpi slt, %339, %c500_294 : index
    cf.cond_br %340, ^bb282, ^bb283
  ^bb282:  // pred: ^bb281
    memref.store %cst, %alloc_286[%335, %337, %339] : memref<1x1x500xf32>
    %341 = arith.addi %339, %c1_295 : index
    cf.br ^bb281(%341 : index)
  ^bb283:  // pred: ^bb281
    %342 = arith.addi %337, %c1_292 : index
    cf.br ^bb279(%342 : index)
  ^bb284:  // pred: ^bb279
    %343 = arith.addi %335, %c1_289 : index
    cf.br ^bb277(%343 : index)
  ^bb285:  // pred: ^bb277
    %c0_296 = arith.constant 0 : index
    %c1_297 = arith.constant 1 : index
    %c1_298 = arith.constant 1 : index
    cf.br ^bb286(%c0_296 : index)
  ^bb286(%344: index):  // 2 preds: ^bb285, ^bb296
    %345 = arith.cmpi slt, %344, %c1_297 : index
    cf.cond_br %345, ^bb287, ^bb297
  ^bb287:  // pred: ^bb286
    %c0_299 = arith.constant 0 : index
    %c1_300 = arith.constant 1 : index
    %c1_301 = arith.constant 1 : index
    cf.br ^bb288(%c0_299 : index)
  ^bb288(%346: index):  // 2 preds: ^bb287, ^bb295
    %347 = arith.cmpi slt, %346, %c1_300 : index
    cf.cond_br %347, ^bb289, ^bb296
  ^bb289:  // pred: ^bb288
    %c0_302 = arith.constant 0 : index
    %c500_303 = arith.constant 500 : index
    %c1_304 = arith.constant 1 : index
    cf.br ^bb290(%c0_302 : index)
  ^bb290(%348: index):  // 2 preds: ^bb289, ^bb294
    %349 = arith.cmpi slt, %348, %c500_303 : index
    cf.cond_br %349, ^bb291, ^bb295
  ^bb291:  // pred: ^bb290
    %c0_305 = arith.constant 0 : index
    %c800_306 = arith.constant 800 : index
    %c1_307 = arith.constant 1 : index
    cf.br ^bb292(%c0_305 : index)
  ^bb292(%350: index):  // 2 preds: ^bb291, ^bb293
    %351 = arith.cmpi slt, %350, %c800_306 : index
    cf.cond_br %351, ^bb293, ^bb294
  ^bb293:  // pred: ^bb292
    %352 = memref.load %expand_shape[%344, %346, %350] : memref<1x1x800xf32>
    %353 = memref.load %expand_shape_285[%344, %350, %348] : memref<1x800x500xf32>
    %354 = memref.load %alloc_286[%344, %346, %348] : memref<1x1x500xf32>
    %355 = arith.mulf %352, %353 : f32
    %356 = arith.addf %354, %355 : f32
    memref.store %356, %alloc_286[%344, %346, %348] : memref<1x1x500xf32>
    %357 = arith.addi %350, %c1_307 : index
    cf.br ^bb292(%357 : index)
  ^bb294:  // pred: ^bb292
    %358 = arith.addi %348, %c1_304 : index
    cf.br ^bb290(%358 : index)
  ^bb295:  // pred: ^bb290
    %359 = arith.addi %346, %c1_301 : index
    cf.br ^bb288(%359 : index)
  ^bb296:  // pred: ^bb288
    %360 = arith.addi %344, %c1_298 : index
    cf.br ^bb286(%360 : index)
  ^bb297:  // pred: ^bb286
    %collapse_shape_308 = memref.collapse_shape %alloc_286 [[0, 1], [2]] : memref<1x1x500xf32> into memref<1x500xf32>
    %alloc_309 = memref.alloc() {alignment = 64 : i64} : memref<1x500xf32>
    %c0_310 = arith.constant 0 : index
    %c1_311 = arith.constant 1 : index
    %c1_312 = arith.constant 1 : index
    cf.br ^bb298(%c0_310 : index)
  ^bb298(%361: index):  // 2 preds: ^bb297, ^bb302
    %362 = arith.cmpi slt, %361, %c1_311 : index
    cf.cond_br %362, ^bb299, ^bb303
  ^bb299:  // pred: ^bb298
    %c0_313 = arith.constant 0 : index
    %c500_314 = arith.constant 500 : index
    %c1_315 = arith.constant 1 : index
    cf.br ^bb300(%c0_313 : index)
  ^bb300(%363: index):  // 2 preds: ^bb299, ^bb301
    %364 = arith.cmpi slt, %363, %c500_314 : index
    cf.cond_br %364, ^bb301, ^bb302
  ^bb301:  // pred: ^bb300
    %365 = memref.load %collapse_shape_308[%c0, %363] : memref<1x500xf32>
    %366 = math.tanh %365 : f32
    memref.store %366, %alloc_309[%361, %363] : memref<1x500xf32>
    %367 = arith.addi %363, %c1_315 : index
    cf.br ^bb300(%367 : index)
  ^bb302:  // pred: ^bb300
    %368 = arith.addi %361, %c1_312 : index
    cf.br ^bb298(%368 : index)
  ^bb303:  // pred: ^bb298
    %alloc_316 = memref.alloc() {alignment = 64 : i64} : memref<500x10xf32>
    %c0_317 = arith.constant 0 : index
    %c500_318 = arith.constant 500 : index
    %c1_319 = arith.constant 1 : index
    cf.br ^bb304(%c0_317 : index)
  ^bb304(%369: index):  // 2 preds: ^bb303, ^bb308
    %370 = arith.cmpi slt, %369, %c500_318 : index
    cf.cond_br %370, ^bb305, ^bb309
  ^bb305:  // pred: ^bb304
    %c0_320 = arith.constant 0 : index
    %c10 = arith.constant 10 : index
    %c1_321 = arith.constant 1 : index
    cf.br ^bb306(%c0_320 : index)
  ^bb306(%371: index):  // 2 preds: ^bb305, ^bb307
    %372 = arith.cmpi slt, %371, %c10 : index
    cf.cond_br %372, ^bb307, ^bb308
  ^bb307:  // pred: ^bb306
    %373 = memref.load %7[%371, %369] : memref<10x500xf32, strided<[?, ?], offset: ?>>
    memref.store %373, %alloc_316[%369, %371] : memref<500x10xf32>
    %374 = arith.addi %371, %c1_321 : index
    cf.br ^bb306(%374 : index)
  ^bb308:  // pred: ^bb306
    %375 = arith.addi %369, %c1_319 : index
    cf.br ^bb304(%375 : index)
  ^bb309:  // pred: ^bb304
    %expand_shape_322 = memref.expand_shape %alloc_309 [[0, 1], [2]] output_shape [1, 1, 500] : memref<1x500xf32> into memref<1x1x500xf32>
    %expand_shape_323 = memref.expand_shape %alloc_316 [[0, 1], [2]] output_shape [1, 500, 10] : memref<500x10xf32> into memref<1x500x10xf32>
    %alloc_324 = memref.alloc() {alignment = 64 : i64} : memref<1x1x10xf32>
    %c0_325 = arith.constant 0 : index
    %c1_326 = arith.constant 1 : index
    %c1_327 = arith.constant 1 : index
    cf.br ^bb310(%c0_325 : index)
  ^bb310(%376: index):  // 2 preds: ^bb309, ^bb317
    %377 = arith.cmpi slt, %376, %c1_326 : index
    cf.cond_br %377, ^bb311, ^bb318
  ^bb311:  // pred: ^bb310
    %c0_328 = arith.constant 0 : index
    %c1_329 = arith.constant 1 : index
    %c1_330 = arith.constant 1 : index
    cf.br ^bb312(%c0_328 : index)
  ^bb312(%378: index):  // 2 preds: ^bb311, ^bb316
    %379 = arith.cmpi slt, %378, %c1_329 : index
    cf.cond_br %379, ^bb313, ^bb317
  ^bb313:  // pred: ^bb312
    %c0_331 = arith.constant 0 : index
    %c10_332 = arith.constant 10 : index
    %c1_333 = arith.constant 1 : index
    cf.br ^bb314(%c0_331 : index)
  ^bb314(%380: index):  // 2 preds: ^bb313, ^bb315
    %381 = arith.cmpi slt, %380, %c10_332 : index
    cf.cond_br %381, ^bb315, ^bb316
  ^bb315:  // pred: ^bb314
    memref.store %cst, %alloc_324[%376, %378, %380] : memref<1x1x10xf32>
    %382 = arith.addi %380, %c1_333 : index
    cf.br ^bb314(%382 : index)
  ^bb316:  // pred: ^bb314
    %383 = arith.addi %378, %c1_330 : index
    cf.br ^bb312(%383 : index)
  ^bb317:  // pred: ^bb312
    %384 = arith.addi %376, %c1_327 : index
    cf.br ^bb310(%384 : index)
  ^bb318:  // pred: ^bb310
    %c0_334 = arith.constant 0 : index
    %c1_335 = arith.constant 1 : index
    %c1_336 = arith.constant 1 : index
    cf.br ^bb319(%c0_334 : index)
  ^bb319(%385: index):  // 2 preds: ^bb318, ^bb329
    %386 = arith.cmpi slt, %385, %c1_335 : index
    cf.cond_br %386, ^bb320, ^bb330
  ^bb320:  // pred: ^bb319
    %c0_337 = arith.constant 0 : index
    %c1_338 = arith.constant 1 : index
    %c1_339 = arith.constant 1 : index
    cf.br ^bb321(%c0_337 : index)
  ^bb321(%387: index):  // 2 preds: ^bb320, ^bb328
    %388 = arith.cmpi slt, %387, %c1_338 : index
    cf.cond_br %388, ^bb322, ^bb329
  ^bb322:  // pred: ^bb321
    %c0_340 = arith.constant 0 : index
    %c10_341 = arith.constant 10 : index
    %c1_342 = arith.constant 1 : index
    cf.br ^bb323(%c0_340 : index)
  ^bb323(%389: index):  // 2 preds: ^bb322, ^bb327
    %390 = arith.cmpi slt, %389, %c10_341 : index
    cf.cond_br %390, ^bb324, ^bb328
  ^bb324:  // pred: ^bb323
    %c0_343 = arith.constant 0 : index
    %c500_344 = arith.constant 500 : index
    %c1_345 = arith.constant 1 : index
    cf.br ^bb325(%c0_343 : index)
  ^bb325(%391: index):  // 2 preds: ^bb324, ^bb326
    %392 = arith.cmpi slt, %391, %c500_344 : index
    cf.cond_br %392, ^bb326, ^bb327
  ^bb326:  // pred: ^bb325
    %393 = memref.load %expand_shape_322[%385, %387, %391] : memref<1x1x500xf32>
    %394 = memref.load %expand_shape_323[%385, %391, %389] : memref<1x500x10xf32>
    %395 = memref.load %alloc_324[%385, %387, %389] : memref<1x1x10xf32>
    %396 = arith.mulf %393, %394 : f32
    %397 = arith.addf %395, %396 : f32
    memref.store %397, %alloc_324[%385, %387, %389] : memref<1x1x10xf32>
    %398 = arith.addi %391, %c1_345 : index
    cf.br ^bb325(%398 : index)
  ^bb327:  // pred: ^bb325
    %399 = arith.addi %389, %c1_342 : index
    cf.br ^bb323(%399 : index)
  ^bb328:  // pred: ^bb323
    %400 = arith.addi %387, %c1_339 : index
    cf.br ^bb321(%400 : index)
  ^bb329:  // pred: ^bb321
    %401 = arith.addi %385, %c1_336 : index
    cf.br ^bb319(%401 : index)
  ^bb330:  // pred: ^bb319
    %collapse_shape_346 = memref.collapse_shape %alloc_324 [[0, 1], [2]] : memref<1x1x10xf32> into memref<1x10xf32>
    %alloc_347 = memref.alloc() {alignment = 64 : i64} : memref<1x10xf32>
    %c0_348 = arith.constant 0 : index
…
    %1266 = llvm.add %1244, %76 : i64
    llvm.br ^bb167(%1266 : i64)
  ^bb175(%1267: i64):  // 2 preds: ^bb167, ^bb186
    %1268 = llvm.icmp "slt" %1267, %76 : i64
    llvm.cond_br %1268, ^bb176(%77 : i64), ^bb187
  ^bb176(%1269: i64):  // 2 preds: ^bb175, ^bb185
    %1270 = llvm.icmp "slt" %1269, %67 : i64
    llvm.cond_br %1270, ^bb177(%77 : i64), ^bb186
  ^bb177(%1271: i64):  // 2 preds: ^bb176, ^bb184
    %1272 = llvm.icmp "slt" %1271, %67 : i64
    llvm.cond_br %1272, ^bb178(%77 : i64), ^bb185
  ^bb178(%1273: i64):  // 2 preds: ^bb177, ^bb183
    %1274 = llvm.icmp "slt" %1273, %69 : i64
    llvm.cond_br %1274, ^bb179(%77 : i64), ^bb184
  ^bb179(%1275: i64):  // 2 preds: ^bb178, ^bb182
    %1276 = llvm.icmp "slt" %1275, %70 : i64
    llvm.cond_br %1276, ^bb180(%77 : i64), ^bb183
  ^bb180(%1277: i64):  // 2 preds: ^bb179, ^bb181
    %1278 = llvm.icmp "slt" %1277, %70 : i64
    llvm.cond_br %1278, ^bb181, ^bb182
  ^bb181:  // pred: ^bb180
    %1279 = llvm.mul %1269, %70 : i64
    %1280 = llvm.add %1279, %1275 : i64
    %1281 = llvm.mul %1271, %70 : i64
    %1282 = llvm.add %1281, %1277 : i64
    %1283 = llvm.extractvalue %1174[1] : !llvm.struct<(ptr, ptr, i64, array<4 x i64>, array<4 x i64>)> 
    %1284 = llvm.mlir.constant(3200 : index) : i64
    %1285 = llvm.mul %1267, %1284 : i64
    %1286 = llvm.mlir.constant(400 : index) : i64
    %1287 = llvm.mul %1280, %1286 : i64
    %1288 = llvm.add %1285, %1287 : i64
    %1289 = llvm.mlir.constant(50 : index) : i64
    %1290 = llvm.mul %1282, %1289 : i64
    %1291 = llvm.add %1288, %1290 : i64
    %1292 = llvm.add %1291, %1273 : i64
    %1293 = llvm.getelementptr %1283[%1292] : (!llvm.ptr, i64) -> !llvm.ptr, f32
    %1294 = llvm.load %1293 : !llvm.ptr -> f32
    %1295 = llvm.extractvalue %1243[1] : !llvm.struct<(ptr, ptr, i64, array<4 x i64>, array<4 x i64>)> 
    %1296 = llvm.mlir.constant(800 : index) : i64
    %1297 = llvm.mul %1267, %1296 : i64
    %1298 = llvm.mlir.constant(200 : index) : i64
    %1299 = llvm.mul %1269, %1298 : i64
    %1300 = llvm.add %1297, %1299 : i64
    %1301 = llvm.mlir.constant(50 : index) : i64
    %1302 = llvm.mul %1271, %1301 : i64
    %1303 = llvm.add %1300, %1302 : i64
    %1304 = llvm.add %1303, %1273 : i64
    %1305 = llvm.getelementptr %1295[%1304] : (!llvm.ptr, i64) -> !llvm.ptr, f32
    %1306 = llvm.load %1305 : !llvm.ptr -> f32
    %1307 = llvm.intr.maximum(%1306, %1294)  : (f32, f32) -> f32
    %1308 = llvm.extractvalue %1243[1] : !llvm.struct<(ptr, ptr, i64, array<4 x i64>, array<4 x i64>)> 
    %1309 = llvm.mlir.constant(800 : index) : i64
    %1310 = llvm.mul %1267, %1309 : i64
    %1311 = llvm.mlir.constant(200 : index) : i64
    %1312 = llvm.mul %1269, %1311 : i64
    %1313 = llvm.add %1310, %1312 : i64
    %1314 = llvm.mlir.constant(50 : index) : i64
    %1315 = llvm.mul %1271, %1314 : i64
    %1316 = llvm.add %1313, %1315 : i64
    %1317 = llvm.add %1316, %1273 : i64
    %1318 = llvm.getelementptr %1308[%1317] : (!llvm.ptr, i64) -> !llvm.ptr, f32
    llvm.store %1307, %1318 : f32, !llvm.ptr
    %1319 = llvm.add %1277, %76 : i64
    llvm.br ^bb180(%1319 : i64)
  ^bb182:  // pred: ^bb180
    %1320 = llvm.add %1275, %76 : i64
    llvm.br ^bb179(%1320 : i64)
  ^bb183:  // pred: ^bb179
    %1321 = llvm.add %1273, %76 : i64
    llvm.br ^bb178(%1321 : i64)
  ^bb184:  // pred: ^bb178
    %1322 = llvm.add %1271, %76 : i64
    llvm.br ^bb177(%1322 : i64)
  ^bb185:  // pred: ^bb177
    %1323 = llvm.add %1269, %76 : i64
    llvm.br ^bb176(%1323 : i64)
  ^bb186:  // pred: ^bb176
    %1324 = llvm.add %1267, %76 : i64
    llvm.br ^bb175(%1324 : i64)
  ^bb187:  // pred: ^bb175
    %1325 = llvm.mlir.constant(1 : index) : i64
    %1326 = llvm.mlir.constant(50 : index) : i64
    %1327 = llvm.mlir.constant(4 : index) : i64
    %1328 = llvm.mlir.constant(4 : index) : i64
    %1329 = llvm.mlir.constant(1 : index) : i64
    %1330 = llvm.mlir.constant(16 : index) : i64
    %1331 = llvm.mlir.constant(800 : index) : i64
    %1332 = llvm.mlir.constant(800 : index) : i64
    %1333 = llvm.mlir.zero : !llvm.ptr
    %1334 = llvm.getelementptr %1333[%1332] : (!llvm.ptr, i64) -> !llvm.ptr, f32
    %1335 = llvm.ptrtoint %1334 : !llvm.ptr to i64
    %1336 = llvm.mlir.constant(64 : index) : i64
    %1337 = llvm.add %1335, %1336 : i64
    %1338 = llvm.call @malloc(%1337) : (i64) -> !llvm.ptr
    %1339 = llvm.ptrtoint %1338 : !llvm.ptr to i64
    %1340 = llvm.mlir.constant(1 : index) : i64
    %1341 = llvm.sub %1336, %1340 : i64
    %1342 = llvm.add %1339, %1341 : i64
    %1343 = llvm.urem %1342, %1336  : i64
    %1344 = llvm.sub %1342, %1343 : i64
    %1345 = llvm.inttoptr %1344 : i64 to !llvm.ptr
    %1346 = llvm.mlir.undef : !llvm.struct<(ptr, ptr, i64, array<4 x i64>, array<4 x i64>)>
    %1347 = llvm.insertvalue %1338, %1346[0] : !llvm.struct<(ptr, ptr, i64, array<4 x i64>, array<4 x i64>)> 
    %1348 = llvm.insertvalue %1345, %1347[1] : !llvm.struct<(ptr, ptr, i64, array<4 x i64>, array<4 x i64>)> 
    %1349 = llvm.mlir.constant(0 : index) : i64
    %1350 = llvm.insertvalue %1349, %1348[2] : !llvm.struct<(ptr, ptr, i64, array<4 x i64>, array<4 x i64>)> 
    %1351 = llvm.insertvalue %1325, %1350[3, 0] : !llvm.struct<(ptr, ptr, i64, array<4 x i64>, array<4 x i64>)> 
    %1352 = llvm.insertvalue %1326, %1351[3, 1] : !llvm.struct<(ptr, ptr, i64, array<4 x i64>, array<4 x i64>)> 
    %1353 = llvm.insertvalue %1327, %1352[3, 2] : !llvm.struct<(ptr, ptr, i64, array<4 x i64>, array<4 x i64>)> 
    %1354 = llvm.insertvalue %1328, %1353[3, 3] : !llvm.struct<(ptr, ptr, i64, array<4 x i64>, array<4 x i64>)> 
    %1355 = llvm.insertvalue %1331, %1354[4, 0] : !llvm.struct<(ptr, ptr, i64, array<4 x i64>, array<4 x i64>)> 
    %1356 = llvm.insertvalue %1330, %1355[4, 1] : !llvm.struct<(ptr, ptr, i64, array<4 x i64>, array<4 x i64>)> 
    %1357 = llvm.insertvalue %1328, %1356[4, 2] : !llvm.struct<(ptr, ptr, i64, array<4 x i64>, array<4 x i64>)> 
    %1358 = llvm.insertvalue %1329, %1357[4, 3] : !llvm.struct<(ptr, ptr, i64, array<4 x i64>, array<4 x i64>)> 
    llvm.br ^bb188(%77 : i64)
  ^bb188(%1359: i64):  // 2 preds: ^bb187, ^bb195
    %1360 = llvm.icmp "slt" %1359, %76 : i64
    llvm.cond_br %1360, ^bb189(%77 : i64), ^bb196
  ^bb189(%1361: i64):  // 2 preds: ^bb188, ^bb194
    %1362 = llvm.icmp "slt" %1361, %69 : i64
    llvm.cond_br %1362, ^bb190(%77 : i64), ^bb195
  ^bb190(%1363: i64):  // 2 preds: ^bb189, ^bb193
    %1364 = llvm.icmp "slt" %1363, %67 : i64
    llvm.cond_br %1364, ^bb191(%77 : i64), ^bb194
  ^bb191(%1365: i64):  // 2 preds: ^bb190, ^bb192
    %1366 = llvm.icmp "slt" %1365, %67 : i64
    llvm.cond_br %1366, ^bb192, ^bb193
  ^bb192:  // pred: ^bb191
    %1367 = llvm.extractvalue %1243[1] : !llvm.struct<(ptr, ptr, i64, array<4 x i64>, array<4 x i64>)> 
    %1368 = llvm.mlir.constant(800 : index) : i64
    %1369 = llvm.mul %1359, %1368 : i64
    %1370 = llvm.mlir.constant(200 : index) : i64
    %1371 = llvm.mul %1363, %1370 : i64
    %1372 = llvm.add %1369, %1371 : i64
    %1373 = llvm.mlir.constant(50 : index) : i64
    %1374 = llvm.mul %1365, %1373 : i64
    %1375 = llvm.add %1372, %1374 : i64
    %1376 = llvm.add %1375, %1361 : i64
    %1377 = llvm.getelementptr %1367[%1376] : (!llvm.ptr, i64) -> !llvm.ptr, f32
    %1378 = llvm.load %1377 : !llvm.ptr -> f32
    %1379 = llvm.extractvalue %1358[1] : !llvm.struct<(ptr, ptr, i64, array<4 x i64>, array<4 x i64>)> 
    %1380 = llvm.mlir.constant(800 : index) : i64
    %1381 = llvm.mul %1359, %1380 : i64
    %1382 = llvm.mlir.constant(16 : index) : i64
    %1383 = llvm.mul %1361, %1382 : i64
    %1384 = llvm.add %1381, %1383 : i64
    %1385 = llvm.mlir.constant(4 : index) : i64
    %1386 = llvm.mul %1363, %1385 : i64
    %1387 = llvm.add %1384, %1386 : i64
    %1388 = llvm.add %1387, %1365 : i64
    %1389 = llvm.getelementptr %1379[%1388] : (!llvm.ptr, i64) -> !llvm.ptr, f32
    llvm.store %1378, %1389 : f32, !llvm.ptr
    %1390 = llvm.add %1365, %76 : i64
    llvm.br ^bb191(%1390 : i64)
  ^bb193:  // pred: ^bb191
    %1391 = llvm.add %1363, %76 : i64
    llvm.br ^bb190(%1391 : i64)
  ^bb194:  // pred: ^bb190
    %1392 = llvm.add %1361, %76 : i64
    llvm.br ^bb189(%1392 : i64)
  ^bb195:  // pred: ^bb189
    %1393 = llvm.add %1359, %76 : i64
    llvm.br ^bb188(%1393 : i64)
  ^bb196:  // pred: ^bb188
    %1394 = llvm.mlir.constant(800 : index) : i64
    %1395 = llvm.mlir.constant(500 : index) : i64
    %1396 = llvm.mlir.constant(1 : index) : i64
    %1397 = llvm.mlir.constant(400000 : index) : i64
    %1398 = llvm.mlir.zero : !llvm.ptr
    %1399 = llvm.getelementptr %1398[%1397] : (!llvm.ptr, i64) -> !llvm.ptr, f32
    %1400 = llvm.ptrtoint %1399 : !llvm.ptr to i64
    %1401 = llvm.mlir.constant(64 : index) : i64
    %1402 = llvm.add %1400, %1401 : i64
    %1403 = llvm.call @malloc(%1402) : (i64) -> !llvm.ptr
    %1404 = llvm.ptrtoint %1403 : !llvm.ptr to i64
    %1405 = llvm.mlir.constant(1 : index) : i64
    %1406 = llvm.sub %1401, %1405 : i64
    %1407 = llvm.add %1404, %1406 : i64
    %1408 = llvm.urem %1407, %1401  : i64
    %1409 = llvm.sub %1407, %1408 : i64
    %1410 = llvm.inttoptr %1409 : i64 to !llvm.ptr
    %1411 = llvm.mlir.undef : !llvm.struct<(ptr, ptr, i64, array<2 x i64>, array<2 x i64>)>
    %1412 = llvm.insertvalue %1403, %1411[0] : !llvm.struct<(ptr, ptr, i64, array<2 x i64>, array<2 x i64>)> 
    %1413 = llvm.insertvalue %1410, %1412[1] : !llvm.struct<(ptr, ptr, i64, array<2 x i64>, array<2 x i64>)> 
    %1414 = llvm.mlir.constant(0 : index) : i64
    %1415 = llvm.insertvalue %1414, %1413[2] : !llvm.struct<(ptr, ptr, i64, array<2 x i64>, array<2 x i64>)> 
    %1416 = llvm.insertvalue %1394, %1415[3, 0] : !llvm.struct<(ptr, ptr, i64, array<2 x i64>, array<2 x i64>)> 
    %1417 = llvm.insertvalue %1395, %1416[3, 1] : !llvm.struct<(ptr, ptr, i64, array<2 x i64>, array<2 x i64>)> 
    %1418 = llvm.insertvalue %1395, %1417[4, 0] : !llvm.struct<(ptr, ptr, i64, array<2 x i64>, array<2 x i64>)> 
    %1419 = llvm.insertvalue %1396, %1418[4, 1] : !llvm.struct<(ptr, ptr, i64, array<2 x i64>, array<2 x i64>)> 
    llvm.br ^bb197(%77 : i64)
  ^bb197(%1420: i64):  // 2 preds: ^bb196, ^bb200
    %1421 = llvm.icmp "slt" %1420, %66 : i64
    llvm.cond_br %1421, ^bb198(%77 : i64), ^bb201
  ^bb198(%1422: i64):  // 2 preds: ^bb197, ^bb199
    %1423 = llvm.icmp "slt" %1422, %65 : i64
    llvm.cond_br %1423, ^bb199, ^bb200
  ^bb199:  // pred: ^bb198
    %1424 = llvm.extractvalue %15[1] : !llvm.struct<(ptr, ptr, i64, array<2 x i64>, array<2 x i64>)> 
    %1425 = llvm.mlir.constant(800 : index) : i64
    %1426 = llvm.mul %1422, %1425 : i64
    %1427 = llvm.add %1426, %1420 : i64
    %1428 = llvm.getelementptr %1424[%1427] : (!llvm.ptr, i64) -> !llvm.ptr, f32
    %1429 = llvm.load %1428 : !llvm.ptr -> f32
    %1430 = llvm.extractvalue %1419[1] : !llvm.struct<(ptr, ptr, i64, array<2 x i64>, array<2 x i64>)> 
    %1431 = llvm.mlir.constant(500 : index) : i64
    %1432 = llvm.mul %1420, %1431 : i64
    %1433 = llvm.add %1432, %1422 : i64
    %1434 = llvm.getelementptr %1430[%1433] : (!llvm.ptr, i64) -> !llvm.ptr, f32
    llvm.store %1429, %1434 : f32, !llvm.ptr
    %1435 = llvm.add %1422, %76 : i64
    llvm.br ^bb198(%1435 : i64)
  ^bb200:  // pred: ^bb198
    %1436 = llvm.add %1420, %76 : i64
    llvm.br ^bb197(%1436 : i64)
  ^bb201:  // pred: ^bb197
    %1437 = llvm.mlir.undef : !llvm.struct<(ptr, ptr, i64, array<3 x i64>, array<3 x i64>)>
    %1438 = llvm.extractvalue %1358[0] : !llvm.struct<(ptr, ptr, i64, array<4 x i64>, array<4 x i64>)> 
    %1439 = llvm.extractvalue %1358[1] : !llvm.struct<(ptr, ptr, i64, array<4 x i64>, array<4 x i64>)> 
    %1440 = llvm.insertvalue %1438, %1437[0] : !llvm.struct<(ptr, ptr, i64, array<3 x i64>, array<3 x i64>)> 
    %1441 = llvm.insertvalue %1439, %1440[1] : !llvm.struct<(ptr, ptr, i64, array<3 x i64>, array<3 x i64>)> 
    %1442 = llvm.mlir.constant(0 : index) : i64
    %1443 = llvm.insertvalue %1442, %1441[2] : !llvm.struct<(ptr, ptr, i64, array<3 x i64>, array<3 x i64>)> 
    %1444 = llvm.mlir.constant(1 : index) : i64
    %1445 = llvm.insertvalue %1444, %1443[3, 0] : !llvm.struct<(ptr, ptr, i64, array<3 x i64>, array<3 x i64>)> 
    %1446 = llvm.mlir.constant(800 : index) : i64
    %1447 = llvm.insertvalue %1446, %1445[4, 0] : !llvm.struct<(ptr, ptr, i64, array<3 x i64>, array<3 x i64>)> 
    %1448 = llvm.mlir.constant(1 : index) : i64
    %1449 = llvm.insertvalue %1448, %1447[3, 1] : !llvm.struct<(ptr, ptr, i64, array<3 x i64>, array<3 x i64>)> 
    %1450 = llvm.mlir.constant(800 : index) : i64
    %1451 = llvm.insertvalue %1450, %1449[4, 1] : !llvm.struct<(ptr, ptr, i64, array<3 x i64>, array<3 x i64>)> 
    %1452 = llvm.mlir.constant(800 : index) : i64
    %1453 = llvm.insertvalue %1452, %1451[3, 2] : !llvm.struct<(ptr, ptr, i64, array<3 x i64>, array<3 x i64>)> 
    %1454 = llvm.mlir.constant(1 : index) : i64
    %1455 = llvm.insertvalue %1454, %1453[4, 2] : !llvm.struct<(ptr, ptr, i64, array<3 x i64>, array<3 x i64>)> 
    %1456 = llvm.mlir.undef : !llvm.struct<(ptr, ptr, i64, array<3 x i64>, array<3 x i64>)>
    %1457 = llvm.extractvalue %1419[0] : !llvm.struct<(ptr, ptr, i64, array<2 x i64>, array<2 x i64>)> 
    %1458 = llvm.extractvalue %1419[1] : !llvm.struct<(ptr, ptr, i64, array<2 x i64>, array<2 x i64>)> 
    %1459 = llvm.insertvalue %1457, %1456[0] : !llvm.struct<(ptr, ptr, i64, array<3 x i64>, array<3 x i64>)> 
    %1460 = llvm.insertvalue %1458, %1459[1] : !llvm.struct<(ptr, ptr, i64, array<3 x i64>, array<3 x i64>)> 
    %1461 = llvm.mlir.constant(0 : index) : i64
    %1462 = llvm.insertvalue %1461, %1460[2] : !llvm.struct<(ptr, ptr, i64, array<3 x i64>, array<3 x i64>)> 
    %1463 = llvm.mlir.constant(1 : index) : i64
    %1464 = llvm.insertvalue %1463, %1462[3, 0] : !llvm.struct<(ptr, ptr, i64, array<3 x i64>, array<3 x i64>)> 
    %1465 = llvm.mlir.constant(400000 : index) : i64
    %1466 = llvm.insertvalue %1465, %1464[4, 0] : !llvm.struct<(ptr, ptr, i64, array<3 x i64>, array<3 x i64>)> 
    %1467 = llvm.mlir.constant(800 : index) : i64
    %1468 = llvm.insertvalue %1467, %1466[3, 1] : !llvm.struct<(ptr, ptr, i64, array<3 x i64>, array<3 x i64>)> 
    %1469 = llvm.mlir.constant(500 : index) : i64
    %1470 = llvm.insertvalue %1469, %1468[4, 1] : !llvm.struct<(ptr, ptr, i64, array<3 x i64>, array<3 x i64>)> 
    %1471 = llvm.mlir.constant(500 : index) : i64
    %1472 = llvm.insertvalue %1471, %1470[3, 2] : !llvm.struct<(ptr, ptr, i64, array<3 x i64>, array<3 x i64>)> 
    %1473 = llvm.mlir.constant(1 : index) : i64
    %1474 = llvm.insertvalue %1473, %1472[4, 2] : !llvm.struct<(ptr, ptr, i64, array<3 x i64>, array<3 x i64>)> 
    %1475 = llvm.mlir.constant(1 : index) : i64
    %1476 = llvm.mlir.constant(1 : index) : i64
    %1477 = llvm.mlir.constant(500 : index) : i64
    %1478 = llvm.mlir.constant(1 : index) : i64
    %1479 = llvm.mlir.constant(500 : index) : i64
    %1480 = llvm.mlir.constant(500 : index) : i64
    %1481 = llvm.mlir.zero : !llvm.ptr
    %1482 = llvm.getelementptr %1481[%1480] : (!llvm.ptr, i64) -> !llvm.ptr, f32
    %1483 = llvm.ptrtoint %1482 : !llvm.ptr to i64
    %1484 = llvm.mlir.constant(64 : index) : i64
    %1485 = llvm.add %1483, %1484 : i64
    %1486 = llvm.call @malloc(%1485) : (i64) -> !llvm.ptr
    %1487 = llvm.ptrtoint %1486 : !llvm.ptr to i64
    %1488 = llvm.mlir.constant(1 : index) : i64
    %1489 = llvm.sub %1484, %1488 : i64
    %1490 = llvm.add %1487, %1489 : i64
    %1491 = llvm.urem %1490, %1484  : i64
    %1492 = llvm.sub %1490, %1491 : i64
    %1493 = llvm.inttoptr %1492 : i64 to !llvm.ptr
    %1494 = llvm.mlir.undef : !llvm.struct<(ptr, ptr, i64, array<3 x i64>, array<3 x i64>)>
    %1495 = llvm.insertvalue %1486, %1494[0] : !llvm.struct<(ptr, ptr, i64, array<3 x i64>, array<3 x i64>)> 
    %1496 = llvm.insertvalue %1493, %1495[1] : !llvm.struct<(ptr, ptr, i64, array<3 x i64>, array<3 x i64>)> 
    %1497 = llvm.mlir.constant(0 : index) : i64
    %1498 = llvm.insertvalue %1497, %1496[2] : !llvm.struct<(ptr, ptr, i64, array<3 x i64>, array<3 x i64>)> 
    %1499 = llvm.insertvalue %1475, %1498[3, 0] : !llvm.struct<(ptr, ptr, i64, array<3 x i64>, array<3 x i64>)> 
    %1500 = llvm.insertvalue %1476, %1499[3, 1] : !llvm.struct<(ptr, ptr, i64, array<3 x i64>, array<3 x i64>)> 
    %1501 = llvm.insertvalue %1477, %1500[3, 2] : !llvm.struct<(ptr, ptr, i64, array<3 x i64>, array<3 x i64>)> 
    %1502 = llvm.insertvalue %1479, %1501[4, 0] : !llvm.struct<(ptr, ptr, i64, array<3 x i64>, array<3 x i64>)> 
    %1503 = llvm.insertvalue %1477, %1502[4, 1] : !llvm.struct<(ptr, ptr, i64, array<3 x i64>, array<3 x i64>)> 
    %1504 = llvm.insertvalue %1478, %1503[4, 2] : !llvm.struct<(ptr, ptr, i64, array<3 x i64>, array<3 x i64>)> 
    llvm.br ^bb202(%77 : i64)
  ^bb202(%1505: i64):  // 2 preds: ^bb201, ^bb207
    %1506 = llvm.icmp "slt" %1505, %76 : i64
    llvm.cond_br %1506, ^bb203(%77 : i64), ^bb208(%77 : i64)
  ^bb203(%1507: i64):  // 2 preds: ^bb202, ^bb206
    %1508 = llvm.icmp "slt" %1507, %76 : i64
    llvm.cond_br %1508, ^bb204(%77 : i64), ^bb207
  ^bb204(%1509: i64):  // 2 preds: ^bb203, ^bb205
    %1510 = llvm.icmp "slt" %1509, %65 : i64
    llvm.cond_br %1510, ^bb205, ^bb206
  ^bb205:  // pred: ^bb204
    %1511 = llvm.extractvalue %1504[1] : !llvm.struct<(ptr, ptr, i64, array<3 x i64>, array<3 x i64>)> 
    %1512 = llvm.mlir.constant(500 : index) : i64
    %1513 = llvm.mul %1505, %1512 : i64
    %1514 = llvm.mlir.constant(500 : index) : i64
    %1515 = llvm.mul %1507, %1514 : i64
    %1516 = llvm.add %1513, %1515 : i64
    %1517 = llvm.add %1516, %1509 : i64
    %1518 = llvm.getelementptr %1511[%1517] : (!llvm.ptr, i64) -> !llvm.ptr, f32
    llvm.store %78, %1518 : f32, !llvm.ptr
    %1519 = llvm.add %1509, %76 : i64
    llvm.br ^bb204(%1519 : i64)
  ^bb206:  // pred: ^bb204
    %1520 = llvm.add %1507, %76 : i64
    llvm.br ^bb203(%1520 : i64)
  ^bb207:  // pred: ^bb203
    %1521 = llvm.add %1505, %76 : i64
    llvm.br ^bb202(%1521 : i64)
  ^bb208(%1522: i64):  // 2 preds: ^bb202, ^bb215
    %1523 = llvm.icmp "slt" %1522, %76 : i64
    llvm.cond_br %1523, ^bb209(%77 : i64), ^bb216
  ^bb209(%1524: i64):  // 2 preds: ^bb208, ^bb214
    %1525 = llvm.icmp "slt" %1524, %76 : i64
    llvm.cond_br %1525, ^bb210(%77 : i64), ^bb215
  ^bb210(%1526: i64):  // 2 preds: ^bb209, ^bb213
    %1527 = llvm.icmp "slt" %1526, %65 : i64
    llvm.cond_br %1527, ^bb211(%77 : i64), ^bb214
  ^bb211(%1528: i64):  // 2 preds: ^bb210, ^bb212
    %1529 = llvm.icmp "slt" %1528, %66 : i64
    llvm.cond_br %1529, ^bb212, ^bb213
  ^bb212:  // pred: ^bb211
    %1530 = llvm.extractvalue %1455[1] : !llvm.struct<(ptr, ptr, i64, array<3 x i64>, array<3 x i64>)> 
    %1531 = llvm.mlir.constant(800 : index) : i64
    %1532 = llvm.mul %1522, %1531 : i64
    %1533 = llvm.mlir.constant(800 : index) : i64
    %1534 = llvm.mul %1524, %1533 : i64
    %1535 = llvm.add %1532, %1534 : i64
    %1536 = llvm.add %1535, %1528 : i64
    %1537 = llvm.getelementptr %1530[%1536] : (!llvm.ptr, i64) -> !llvm.ptr, f32
    %1538 = llvm.load %1537 : !llvm.ptr -> f32
    %1539 = llvm.extractvalue %1474[1] : !llvm.struct<(ptr, ptr, i64, array<3 x i64>, array<3 x i64>)> 
    %1540 = llvm.mlir.constant(400000 : index) : i64
    %1541 = llvm.mul %1522, %1540 : i64
    %1542 = llvm.mlir.constant(500 : index) : i64
    %1543 = llvm.mul %1528, %1542 : i64
    %1544 = llvm.add %1541, %1543 : i64
    %1545 = llvm.add %1544, %1526 : i64
    %1546 = llvm.getelementptr %1539[%1545] : (!llvm.ptr, i64) -> !llvm.ptr, f32
    %1547 = llvm.load %1546 : !llvm.ptr -> f32
    %1548 = llvm.extractvalue %1504[1] : !llvm.struct<(ptr, ptr, i64, array<3 x i64>, array<3 x i64>)> 
    %1549 = llvm.mlir.constant(500 : index) : i64
    %1550 = llvm.mul %1522, %1549 : i64
    %1551 = llvm.mlir.constant(500 : index) : i64
    %1552 = llvm.mul %1524, %1551 : i64
    %1553 = llvm.add %1550, %1552 : i64
    %1554 = llvm.add %1553, %1526 : i64
    %1555 = llvm.getelementptr %1548[%1554] : (!llvm.ptr, i64) -> !llvm.ptr, f32
    %1556 = llvm.load %1555 : !llvm.ptr -> f32
    %1557 = llvm.fmul %1538, %1547  : f32
    %1558 = llvm.fadd %1556, %1557  : f32
    %1559 = llvm.extractvalue %1504[1] : !llvm.struct<(ptr, ptr, i64, array<3 x i64>, array<3 x i64>)> 
    %1560 = llvm.mlir.constant(500 : index) : i64
    %1561 = llvm.mul %1522, %1560 : i64
    %1562 = llvm.mlir.constant(500 : index) : i64
    %1563 = llvm.mul %1524, %1562 : i64
    %1564 = llvm.add %1561, %1563 : i64
    %1565 = llvm.add %1564, %1526 : i64
    %1566 = llvm.getelementptr %1559[%1565] : (!llvm.ptr, i64) -> !llvm.ptr, f32
    llvm.store %1558, %1566 : f32, !llvm.ptr
    %1567 = llvm.add %1528, %76 : i64
    llvm.br ^bb211(%1567 : i64)
  ^bb213:  // pred: ^bb211
    %1568 = llvm.add %1526, %76 : i64
    llvm.br ^bb210(%1568 : i64)
  ^bb214:  // pred: ^bb210
    %1569 = llvm.add %1524, %76 : i64
    llvm.br ^bb209(%1569 : i64)
  ^bb215:  // pred: ^bb209
    %1570 = llvm.add %1522, %76 : i64
    llvm.br ^bb208(%1570 : i64)
  ^bb216:  // pred: ^bb208
    %1571 = llvm.mlir.undef : !llvm.struct<(ptr, ptr, i64, array<2 x i64>, array<2 x i64>)>
    %1572 = llvm.extractvalue %1504[0] : !llvm.struct<(ptr, ptr, i64, array<3 x i64>, array<3 x i64>)> 
    %1573 = llvm.extractvalue %1504[1] : !llvm.struct<(ptr, ptr, i64, array<3 x i64>, array<3 x i64>)> 
    %1574 = llvm.insertvalue %1572, %1571[0] : !llvm.struct<(ptr, ptr, i64, array<2 x i64>, array<2 x i64>)> 
    %1575 = llvm.insertvalue %1573, %1574[1] : !llvm.struct<(ptr, ptr, i64, array<2 x i64>, array<2 x i64>)> 
    %1576 = llvm.mlir.constant(0 : index) : i64
    %1577 = llvm.insertvalue %1576, %1575[2] : !llvm.struct<(ptr, ptr, i64, array<2 x i64>, array<2 x i64>)> 
    %1578 = llvm.mlir.constant(1 : index) : i64
    %1579 = llvm.insertvalue %1578, %1577[3, 0] : !llvm.struct<(ptr, ptr, i64, array<2 x i64>, array<2 x i64>)> 
    %1580 = llvm.mlir.constant(500 : index) : i64
    %1581 = llvm.insertvalue %1580, %1579[4, 0] : !llvm.struct<(ptr, ptr, i64, array<2 x i64>, array<2 x i64>)> 
    %1582 = llvm.mlir.constant(500 : index) : i64
    %1583 = llvm.insertvalue %1582, %1581[3, 1] : !llvm.struct<(ptr, ptr, i64, array<2 x i64>, array<2 x i64>)> 
    %1584 = llvm.mlir.constant(1 : index) : i64
    %1585 = llvm.insertvalue %1584, %1583[4, 1] : !llvm.struct<(ptr, ptr, i64, array<2 x i64>, array<2 x i64>)> 
    %1586 = llvm.mlir.constant(1 : index) : i64
    %1587 = llvm.mlir.constant(500 : index) : i64
    %1588 = llvm.mlir.constant(1 : index) : i64
    %1589 = llvm.mlir.constant(500 : index) : i64
    %1590 = llvm.mlir.zero : !llvm.ptr
    %1591 = llvm.getelementptr %1590[%1589] : (!llvm.ptr, i64) -> !llvm.ptr, f32
    %1592 = llvm.ptrtoint %1591 : !llvm.ptr to i64
    %1593 = llvm.mlir.constant(64 : index) : i64
    %1594 = llvm.add %1592, %1593 : i64
    %1595 = llvm.call @malloc(%1594) : (i64) -> !llvm.ptr
    %1596 = llvm.ptrtoint %1595 : !llvm.ptr to i64
    %1597 = llvm.mlir.constant(1 : index) : i64
    %1598 = llvm.sub %1593, %1597 : i64
    %1599 = llvm.add %1596, %1598 : i64
    %1600 = llvm.urem %1599, %1593  : i64
    %1601 = llvm.sub %1599, %1600 : i64
    %1602 = llvm.inttoptr %1601 : i64 to !llvm.ptr
    %1603 = llvm.mlir.undef : !llvm.struct<(ptr, ptr, i64, array<2 x i64>, array<2 x i64>)>
    %1604 = llvm.insertvalue %1595, %1603[0] : !llvm.struct<(ptr, ptr, i64, array<2 x i64>, array<2 x i64>)> 
    %1605 = llvm.insertvalue %1602, %1604[1] : !llvm.struct<(ptr, ptr, i64, array<2 x i64>, array<2 x i64>)> 
    %1606 = llvm.mlir.constant(0 : index) : i64
    %1607 = llvm.insertvalue %1606, %1605[2] : !llvm.struct<(ptr, ptr, i64, array<2 x i64>, array<2 x i64>)> 
    %1608 = llvm.insertvalue %1586, %1607[3, 0] : !llvm.struct<(ptr, ptr, i64, array<2 x i64>, array<2 x i64>)> 
    %1609 = llvm.insertvalue %1587, %1608[3, 1] : !llvm.struct<(ptr, ptr, i64, array<2 x i64>, array<2 x i64>)> 
    %1610 = llvm.insertvalue %1587, %1609[4, 0] : !llvm.struct<(ptr, ptr, i64, array<2 x i64>, array<2 x i64>)> 
    %1611 = llvm.insertvalue %1588, %1610[4, 1] : !llvm.struct<(ptr, ptr, i64, array<2 x i64>, array<2 x i64>)> 
    llvm.br ^bb217(%77 : i64)
  ^bb217(%1612: i64):  // 2 preds: ^bb216, ^bb220
    %1613 = llvm.icmp "slt" %1612, %76 : i64
    llvm.cond_br %1613, ^bb218(%77 : i64), ^bb221
  ^bb218(%1614: i64):  // 2 preds: ^bb217, ^bb219
    %1615 = llvm.icmp "slt" %1614, %65 : i64
    llvm.cond_br %1615, ^bb219, ^bb220
  ^bb219:  // pred: ^bb218
    %1616 = llvm.extractvalue %1585[1] : !llvm.struct<(ptr, ptr, i64, array<2 x i64>, array<2 x i64>)> 
    %1617 = llvm.mlir.constant(500 : index) : i64
    %1618 = llvm.mul %77, %1617 : i64
    %1619 = llvm.add %1618, %1614 : i64
    %1620 = llvm.getelementptr %1616[%1619] : (!llvm.ptr, i64) -> !llvm.ptr, f32
    %1621 = llvm.load %1620 : !llvm.ptr -> f32
    %1622 = llvm.call @tanhf(%1621) : (f32) -> f32
    %1623 = llvm.extractvalue %1611[1] : !llvm.struct<(ptr, ptr, i64, array<2 x i64>, array<2 x i64>)> 
    %1624 = llvm.mlir.constant(500 : index) : i64
    %1625 = llvm.mul %1612, %1624 : i64
    %1626 = llvm.add %1625, %1614 : i64
    %1627 = llvm.getelementptr %1623[%1626] : (!llvm.ptr, i64) -> !llvm.ptr, f32
    llvm.store %1622, %1627 : f32, !llvm.ptr
    %1628 = llvm.add %1614, %76 : i64
    llvm.br ^bb218(%1628 : i64)
  ^bb220:  // pred: ^bb218
    %1629 = llvm.add %1612, %76 : i64
    llvm.br ^bb217(%1629 : i64)
  ^bb221:  // pred: ^bb217
    %1630 = llvm.mlir.constant(500 : index) : i64
    %1631 = llvm.mlir.constant(10 : index) : i64
    %1632 = llvm.mlir.constant(1 : index) : i64
    %1633 = llvm.mlir.constant(5000 : index) : i64
    %1634 = llvm.mlir.zero : !llvm.ptr
    %1635 = llvm.getelementptr %1634[%1633] : (!llvm.ptr, i64) -> !llvm.ptr, f32
    %1636 = llvm.ptrtoint %1635 : !llvm.ptr to i64
    %1637 = llvm.mlir.constant(64 : index) : i64
    %1638 = llvm.add %1636, %1637 : i64
    %1639 = llvm.call @malloc(%1638) : (i64) -> !llvm.ptr
    %1640 = llvm.ptrtoint %1639 : !llvm.ptr to i64
    %1641 = llvm.mlir.constant(1 : index) : i64
    %1642 = llvm.sub %1637, %1641 : i64
    %1643 = llvm.add %1640, %1642 : i64
    %1644 = llvm.urem %1643, %1637  : i64
    %1645 = llvm.sub %1643, %1644 : i64
    %1646 = llvm.inttoptr %1645 : i64 to !llvm.ptr
    %1647 = llvm.mlir.undef : !llvm.struct<(ptr, ptr, i64, array<2 x i64>, array<2 x i64>)>
    %1648 = llvm.insertvalue %1639, %1647[0] : !llvm.struct<(ptr, ptr, i64, array<2 x i64>, array<2 x i64>)> 
    %1649 = llvm.insertvalue %1646, %1648[1] : !llvm.struct<(ptr, ptr, i64, array<2 x i64>, array<2 x i64>)> 
    %1650 = llvm.mlir.constant(0 : index) : i64
    %1651 = llvm.insertvalue %1650, %1649[2] : !llvm.struct<(ptr, ptr, i64, array<2 x i64>, array<2 x i64>)> 
    %1652 = llvm.insertvalue %1630, %1651[3, 0] : !llvm.struct<(ptr, ptr, i64, array<2 x i64>, array<2 x i64>)> 
    %1653 = llvm.insertvalue %1631, %1652[3, 1] : !llvm.struct<(ptr, ptr, i64, array<2 x i64>, array<2 x i64>)> 
    %1654 = llvm.insertvalue %1631, %1653[4, 0] : !llvm.struct<(ptr, ptr, i64, array<2 x i64>, array<2 x i64>)> 
    %1655 = llvm.insertvalue %1632, %1654[4, 1] : !llvm.struct<(ptr, ptr, i64, array<2 x i64>, array<2 x i64>)> 
    llvm.br ^bb222(%77 : i64)
  ^bb222(%1656: i64):  // 2 preds: ^bb221, ^bb225
    %1657 = llvm.icmp "slt" %1656, %65 : i64
    llvm.cond_br %1657, ^bb223(%77 : i64), ^bb226
  ^bb223(%1658: i64):  // 2 preds: ^bb222, ^bb224
    %1659 = llvm.icmp "slt" %1658, %64 : i64
    llvm.cond_br %1659, ^bb224, ^bb225
  ^bb224:  // pred: ^bb223
    %1660 = llvm.extractvalue %7[1] : !llvm.struct<(ptr, ptr, i64, array<2 x i64>, array<2 x i64>)> 
    %1661 = llvm.mlir.constant(500 : index) : i64
    %1662 = llvm.mul %1658, %1661 : i64
    %1663 = llvm.add %1662, %1656 : i64
    %1664 = llvm.getelementptr %1660[%1663] : (!llvm.ptr, i64) -> !llvm.ptr, f32
    %1665 = llvm.load %1664 : !llvm.ptr -> f32
    %1666 = llvm.extractvalue %1655[1] : !llvm.struct<(ptr, ptr, i64, array<2 x i64>, array<2 x i64>)> 
    %1667 = llvm.mlir.constant(10 : index) : i64
    %1668 = llvm.mul %1656, %1667 : i64
    %1669 = llvm.add %1668, %1658 : i64
    %1670 = llvm.getelementptr %1666[%1669] : (!llvm.ptr, i64) -> !llvm.ptr, f32
    llvm.store %1665, %1670 : f32, !llvm.ptr
    %1671 = llvm.add %1658, %76 : i64
    llvm.br ^bb223(%1671 : i64)
  ^bb225:  // pred: ^bb223
    %1672 = llvm.add %1656, %76 : i64
    llvm.br ^bb222(%1672 : i64)
  ^bb226:  // pred: ^bb222
    %1673 = llvm.mlir.undef : !llvm.struct<(ptr, ptr, i64, array<3 x i64>, array<3 x i64>)>
    %1674 = llvm.extractvalue %1611[0] : !llvm.struct<(ptr, ptr, i64, array<2 x i64>, array<2 x i64>)> 
    %1675 = llvm.extractvalue %1611[1] : !llvm.struct<(ptr, ptr, i64, array<2 x i64>, array<2 x i64>)> 
    %1676 = llvm.insertvalue %1674, %1673[0] : !llvm.struct<(ptr, ptr, i64, array<3 x i64>, array<3 x i64>)> 
    %1677 = llvm.insertvalue %1675, %1676[1] : !llvm.struct<(ptr, ptr, i64, array<3 x i64>, array<3 x i64>)> 
    %1678 = llvm.mlir.constant(0 : index) : i64
    %1679 = llvm.insertvalue %1678, %1677[2] : !llvm.struct<(ptr, ptr, i64, array<3 x i64>, array<3 x i64>)> 
    %1680 = llvm.mlir.constant(1 : index) : i64
    %1681 = llvm.insertvalue %1680, %1679[3, 0] : !llvm.struct<(ptr, ptr, i64, array<3 x i64>, array<3 x i64>)> 
    %1682 = llvm.mlir.constant(500 : index) : i64
    %1683 = llvm.insertvalue %1682, %1681[4, 0] : !llvm.struct<(ptr, ptr, i64, array<3 x i64>, array<3 x i64>)> 
    %1684 = llvm.mlir.constant(1 : index) : i64
    %1685 = llvm.insertvalue %1684, %1683[3, 1] : !llvm.struct<(ptr, ptr, i64, array<3 x i64>, array<3 x i64>)> 
    %1686 = llvm.mlir.constant(500 : index) : i64
    %1687 = llvm.insertvalue %1686, %1685[4, 1] : !llvm.struct<(ptr, ptr, i64, array<3 x i64>, array<3 x i64>)> 
    %1688 = llvm.mlir.constant(500 : index) : i64
    %1689 = llvm.insertvalue %1688, %1687[3, 2] : !llvm.struct<(ptr, ptr, i64, array<3 x i64>, array<3 x i64>)> 
    %1690 = llvm.mlir.constant(1 : index) : i64
    %1691 = llvm.insertvalue %1690, %1689[4, 2] : !llvm.struct<(ptr, ptr, i64, array<3 x i64>, array<3 x i64>)> 
    %1692 = llvm.mlir.undef : !llvm.struct<(ptr, ptr, i64, array<3 x i64>, array<3 x i64>)>
    %1693 = llvm.extractvalue %1655[0] : !llvm.struct<(ptr, ptr, i64, array<2 x i64>, array<2 x i64>)> 
    %1694 = llvm.extractvalue %1655[1] : !llvm.struct<(ptr, ptr, i64, array<2 x i64>, array<2 x i64>)> 
    %1695 = llvm.insertvalue %1693, %1692[0] : !llvm.struct<(ptr, ptr, i64, array<3 x i64>, array<3 x i64>)> 
    %1696 = llvm.insertvalue %1694, %1695[1] : !llvm.struct<(ptr, ptr, i64, array<3 x i64>, array<3 x i64>)> 
    %1697 = llvm.mlir.constant(0 : index) : i64
    %1698 = llvm.insertvalue %1697, %1696[2] : !llvm.struct<(ptr, ptr, i64, array<3 x i64>, array<3 x i64>)> 
    %1699 = llvm.mlir.constant(1 : index) : i64
    %1700 = llvm.insertvalue %1699, %1698[3, 0] : !llvm.struct<(ptr, ptr, i64, array<3 x i64>, array<3 x i64>)> 
    %1701 = llvm.mlir.constant(5000 : index) : i64
    %1702 = llvm.insertvalue %1701, %1700[4, 0] : !llvm.struct<(ptr, ptr, i64, array<3 x i64>, array<3 x i64>)> 
    %1703 = llvm.mlir.constant(500 : index) : i64
    %1704 = llvm.insertvalue %1703, %1702[3, 1] : !llvm.struct<(ptr, ptr, i64, array<3 x i64>, array<3 x i64>)> 
    %1705 = llvm.mlir.constant(10 : index) : i64
    %1706 = llvm.insertvalue %1705, %1704[4, 1] : !llvm.struct<(ptr, ptr, i64, array<3 x i64>, array<3 x i64>)> 
    %1707 = llvm.mlir.constant(10 : index) : i64
    %1708 = llvm.insertvalue %1707, %1706[3, 2] : !llvm.struct<(ptr, ptr, i64, array<3 x i64>, array<3 x i64>)> 
    %1709 = llvm.mlir.constant(1 : index) : i64
    %1710 = llvm.insertvalue %1709, %1708[4, 2] : !llvm.struct<(ptr, ptr, i64, array<3 x i64>, array<3 x i64>)> 
    %1711 = llvm.mlir.constant(1 : index) : i64
    %1712 = llvm.mlir.constant(1 : index) : i64
    %1713 = llvm.mlir.constant(10 : index) : i64
    %1714 = llvm.mlir.constant(1 : index) : i64
    %1715 = llvm.mlir.constant(10 : index) : i64
    %1716 = llvm.mlir.constant(10 : index) : i64
    %1717 = llvm.mlir.zero : !llvm.ptr
    %1718 = llvm.getelementptr %1717[%1716] : (!llvm.ptr, i64) -> !llvm.ptr, f32
    %1719 = llvm.ptrtoint %1718 : !llvm.ptr to i64
    %1720 = llvm.mlir.constant(64 : index) : i64
    %1721 = llvm.add %1719, %1720 : i64
    %1722 = llvm.call @malloc(%1721) : (i64) -> !llvm.ptr
    %1723 = llvm.ptrtoint %1722 : !llvm.ptr to i64
    %1724 = llvm.mlir.constant(1 : index) : i64
    %1725 = llvm.sub %1720, %1724 : i64
    %1726 = llvm.add %1723, %1725 : i64
    %1727 = llvm.urem %1726, %1720  : i64
    %1728 = llvm.sub %1726, %1727 : i64
    %1729 = llvm.inttoptr %1728 : i64 to !llvm.ptr
    %1730 = llvm.mlir.undef : !llvm.struct<(ptr, ptr, i64, array<3 x i64>, array<3 x i64>)>
    %1731 = llvm.insertvalue %1722, %1730[0] : !llvm.struct<(ptr, ptr, i64, array<3 x i64>, array<3 x i64>)> 
    %1732 = llvm.insertvalue %1729, %1731[1] : !llvm.struct<(ptr, ptr, i64, array<3 x i64>, array<3 x i64>)> 
    %1733 = llvm.mlir.constant(0 : index) : i64
    %1734 = llvm.insertvalue %1733, %1732[2] : !llvm.struct<(ptr, ptr, i64, array<3 x i64>, array<3 x i64>)> 
    %1735 = llvm.insertvalue %1711, %1734[3, 0] : !llvm.struct<(ptr, ptr, i64, array<3 x i64>, array<3 x i64>)> 
    %1736 = llvm.insertvalue %1712, %1735[3, 1] : !llvm.struct<(ptr, ptr, i64, array<3 x i64>, array<3 x i64>)> 
    %1737 = llvm.insertvalue %1713, %1736[3, 2] : !llvm.struct<(ptr, ptr, i64, array<3 x i64>, array<3 x i64>)> 
    %1738 = llvm.insertvalue %1715, %1737[4, 0] : !llvm.struct<(ptr, ptr, i64, array<3 x i64>, array<3 x i64>)> 
    %1739 = llvm.insertvalue %1713, %1738[4, 1] : !llvm.struct<(ptr, ptr, i64, array<3 x i64>, array<3 x i64>)> 
    %1740 = llvm.insertvalue %1714, %1739[4, 2] : !llvm.struct<(ptr, ptr, i64, array<3 x i64>, array<3 x i64>)> 
    llvm.br ^bb227(%77 : i64)
  ^bb227(%1741: i64):  // 2 preds: ^bb226, ^bb232
    %1742 = llvm.icmp "slt" %1741, %76 : i64
    llvm.cond_br %1742, ^bb228(%77 : i64), ^bb233(%77 : i64)
  ^bb228(%1743: i64):  // 2 preds: ^bb227, ^bb231
    %1744 = llvm.icmp "slt" %1743, %76 : i64
    llvm.cond_br %1744, ^bb229(%77 : i64), ^bb232
  ^bb229(%1745: i64):  // 2 preds: ^bb228, ^bb230
    %1746 = llvm.icmp "slt" %1745, %64 : i64
    llvm.cond_br %1746, ^bb230, ^bb231
  ^bb230:  // pred: ^bb229
    %1747 = llvm.extractvalue %1740[1] : !llvm.struct<(ptr, ptr, i64, array<3 x i64>, array<3 x i64>)> 
    %1748 = llvm.mlir.constant(10 : index) : i64
    %1749 = llvm.mul %1741, %1748 : i64
    %1750 = llvm.mlir.constant(10 : index) : i64
    %1751 = llvm.mul %1743, %1750 : i64
    %1752 = llvm.add %1749, %1751 : i64
    %1753 = llvm.add %1752, %1745 : i64
    %1754 = llvm.getelementptr %1747[%1753] : (!llvm.ptr, i64) -> !llvm.ptr, f32
    llvm.store %78, %1754 : f32, !llvm.ptr
    %1755 = llvm.add %1745, %76 : i64
    llvm.br ^bb229(%1755 : i64)
  ^bb231:  // pred: ^bb229
    %1756 = llvm.add %1743, %76 : i64
    llvm.br ^bb228(%1756 : i64)
  ^bb232:  // pred: ^bb228
    %1757 = llvm.add %1741, %76 : i64
    llvm.br ^bb227(%1757 : i64)
  ^bb233(%1758: i64):  // 2 preds: ^bb227, ^bb240
    %1759 = llvm.icmp "slt" %1758, %76 : i64
    llvm.cond_br %1759, ^bb234(%77 : i64), ^bb241
  ^bb234(%1760: i64):  // 2 preds: ^bb233, ^bb239
    %1761 = llvm.icmp "slt" %1760, %76 : i64
    llvm.cond_br %1761, ^bb235(%77 : i64), ^bb240
  ^bb235(%1762: i64):  // 2 preds: ^bb234, ^bb238
    %1763 = llvm.icmp "slt" %1762, %64 : i64
    llvm.cond_br %1763, ^bb236(%77 : i64), ^bb239
  ^bb236(%1764: i64):  // 2 preds: ^bb235, ^bb237
    %1765 = llvm.icmp "slt" %1764, %65 : i64
    llvm.cond_br %1765, ^bb237, ^bb238
  ^bb237:  // pred: ^bb236
    %1766 = llvm.extractvalue %1691[1] : !llvm.struct<(ptr, ptr, i64, array<3 x i64>, array<3 x i64>)> 
    %1767 = llvm.mlir.constant(500 : index) : i64
    %1768 = llvm.mul %1758, %1767 : i64
    %1769 = llvm.mlir.constant(500 : index) : i64
    %1770 = llvm.mul %1760, %1769 : i64
    %1771 = llvm.add %1768, %1770 : i64
    %1772 = llvm.add %1771, %1764 : i64
    %1773 = llvm.getelementptr %1766[%1772] : (!llvm.ptr, i64) -> !llvm.ptr, f32
    %1774 = llvm.load %1773 : !llvm.ptr -> f32
    %1775 = llvm.extractvalue %1710[1] : !llvm.struct<(ptr, ptr, i64, array<3 x i64>, array<3 x i64>)> 
    %1776 = llvm.mlir.constant(5000 : index) : i64
    %1777 = llvm.mul %1758, %1776 : i64
    %1778 = llvm.mlir.constant(10 : index) : i64
    %1779 = llvm.mul %1764, %1778 : i64
    %1780 = llvm.add %1777, %1779 : i64
    %1781 = llvm.add %1780, %1762 : i64
    %1782 = llvm.getelementptr %1775[%1781] : (!llvm.ptr, i64) -> !llvm.ptr, f32
    %1783 = llvm.load %1782 : !llvm.ptr -> f32
    %1784 = llvm.extractvalue %1740[1] : !llvm.struct<(ptr, ptr, i64, array<3 x i64>, array<3 x i64>)> 
    %1785 = llvm.mlir.constant(10 : index) : i64
    %1786 = llvm.mul %1758, %1785 : i64
    %1787 = llvm.mlir.constant(10 : index) : i64
    %1788 = llvm.mul %1760, %1787 : i64
    %1789 = llvm.add %1786, %1788 : i64
    %1790 = llvm.add %1789, %1762 : i64
    %1791 = llvm.getelementptr %1784[%1790] : (!llvm.ptr, i64) -> !llvm.ptr, f32
    %1792 = llvm.load %1791 : !llvm.ptr -> f32
    %1793 = llvm.fmul %1774, %1783  : f32
    %1794 = llvm.fadd %1792, %1793  : f32
    %1795 = llvm.extractvalue %1740[1] : !llvm.struct<(ptr, ptr, i64, array<3 x i64>, array<3 x i64>)> 
    %1796 = llvm.mlir.constant(10 : index) : i64
    %1797 = llvm.mul %1758, %1796 : i64
    %1798 = llvm.mlir.constant(10 : index) : i64
    %1799 = llvm.mul %1760, %1798 : i64
    %1800 = llvm.add %1797, %1799 : i64
    %1801 = llvm.add %1800, %1762 : i64
    %1802 = llvm.getelementptr %1795[%1801] : (!llvm.ptr, i64) -> !llvm.ptr, f32
    llvm.store %1794, %1802 : f32, !llvm.ptr
    %1803 = llvm.add %1764, %76 : i64
    llvm.br ^bb236(%1803 : i64)
  ^bb238:  // pred: ^bb236
    %1804 = llvm.add %1762, %76 : i64
    llvm.br ^bb235(%1804 : i64)
  ^bb239:  // pred: ^bb235
    %1805 = llvm.add %1760, %76 : i64
    llvm.br ^bb234(%1805 : i64)
  ^bb240:  // pred: ^bb234
    %1806 = llvm.add %1758, %76 : i64
    llvm.br ^bb233(%1806 : i64)
  ^bb241:  // pred: ^bb233
    %1807 = llvm.mlir.undef : !llvm.struct<(ptr, ptr, i64, array<2 x i64>, array<2 x i64>)>
    %1808 = llvm.extractvalue %1740[0] : !llvm.struct<(ptr, ptr, i64, array<3 x i64>, array<3 x i64>)> 
    %1809 = llvm.extractvalue %1740[1] : !llvm.struct<(ptr, ptr, i64, array<3 x i64>, array<3 x i64>)> 
    %1810 = llvm.insertvalue %1808, %1807[0] : !llvm.struct<(ptr, ptr, i64, array<2 x i64>, array<2 x i64>)> 
    %1811 = llvm.insertvalue %1809, %1810[1] : !llvm.struct<(ptr, ptr, i64, array<2 x i64>, array<2 x i64>)> 
    %1812 = llvm.mlir.constant(0 : index) : i64
    %1813 = llvm.insertvalue %1812, %1811[2] : !llvm.struct<(ptr, ptr, i64, array<2 x i64>, array<2 x i64>)> 
    %1814 = llvm.mlir.constant(1 : index) : i64
    %1815 = llvm.insertvalue %1814, %1813[3, 0] : !llvm.struct<(ptr, ptr, i64, array<2 x i64>, array<2 x i64>)> 
    %1816 = llvm.mlir.constant(10 : index) : i64
    %1817 = llvm.insertvalue %1816, %1815[4, 0] : !llvm.struct<(ptr, ptr, i64, array<2 x i64>, array<2 x i64>)> 
    %1818 = llvm.mlir.constant(10 : index) : i64
    %1819 = llvm.insertvalue %1818, %1817[3, 1] : !llvm.struct<(ptr, ptr, i64, array<2 x i64>, array<2 x i64>)> 
    %1820 = llvm.mlir.constant(1 : index) : i64
    %1821 = llvm.insertvalue %1820, %1819[4, 1] : !llvm.struct<(ptr, ptr, i64, array<2 x i64>, array<2 x i64>)> 
    %1822 = llvm.mlir.constant(1 : index) : i64
    %1823 = llvm.mlir.constant(10 : index) : i64
    %1824 = llvm.mlir.constant(1 : index) : i64
    %1825 = llvm.mlir.constant(10 : index) : i64
    %1826 = llvm.mlir.zero : !llvm.ptr
    %1827 = llvm.getelementptr %1826[%1825] : (!llvm.ptr, i64) -> !llvm.ptr, f32
    %1828 = llvm.ptrtoint %1827 : !llvm.ptr to i64
    %1829 = llvm.mlir.constant(64 : index) : i64
    %1830 = llvm.add %1828, %1829 : i64
    %1831 = llvm.call @malloc(%1830) : (i64) -> !llvm.ptr
    %1832 = llvm.ptrtoint %1831 : !llvm.ptr to i64
    %1833 = llvm.mlir.constant(1 : index) : i64
    %1834 = llvm.sub %1829, %1833 : i64
    %1835 = llvm.add %1832, %1834 : i64
    %1836 = llvm.urem %1835, %1829  : i64
    %1837 = llvm.sub %1835, %1836 : i64
    %1838 = llvm.inttoptr %1837 : i64 to !llvm.ptr
    %1839 = llvm.mlir.undef : !llvm.struct<(ptr, ptr, i64, array<2 x i64>, array<2 x i64>)>
    %1840 = llvm.insertvalue %1831, %1839[0] : !llvm.struct<(ptr, ptr, i64, array<2 x i64>, array<2 x i64>)> 
    %1841 = llvm.insertvalue %1838, %1840[1] : !llvm.struct<(ptr, ptr, i64, array<2 x i64>, array<2 x i64>)> 
    %1842 = llvm.mlir.constant(0 : index) : i64
    %1843 = llvm.insertvalue %1842, %1841[2] : !llvm.struct<(ptr, ptr, i64, array<2 x i64>, array<2 x i64>)> 
    %1844 = llvm.insertvalue %1822, %1843[3, 0] : !llvm.struct<(ptr, ptr, i64, array<2 x i64>, array<2 x i64>)> 
    %1845 = llvm.insertvalue %1823, %1844[3, 1] : !llvm.struct<(ptr, ptr, i64, array<2 x i64>, array<2 x i64>)> 
    %1846 = llvm.insertvalue %1823, %1845[4, 0] : !llvm.struct<(ptr, ptr, i64, array<2 x i64>, array<2 x i64>)> 
    %1847 = llvm.insertvalue %1824, %1846[4, 1] : !llvm.struct<(ptr, ptr, i64, array<2 x i64>, array<2 x i64>)> 
    llvm.br ^bb242(%77 : i64)
  ^bb242(%1848: i64):  // 2 preds: ^bb241, ^bb245
    %1849 = llvm.icmp "slt" %1848, %76 : i64
    llvm.cond_br %1849, ^bb243(%77 : i64), ^bb246
  ^bb243(%1850: i64):  // 2 preds: ^bb242, ^bb244
    %1851 = llvm.icmp "slt" %1850, %64 : i64
    llvm.cond_br %1851, ^bb244, ^bb245
  ^bb244:  // pred: ^bb243
    %1852 = llvm.extractvalue %1821[1] : !llvm.struct<(ptr, ptr, i64, array<2 x i64>, array<2 x i64>)> 
    %1853 = llvm.mlir.constant(10 : index) : i64
    %1854 = llvm.mul %77, %1853 : i64
    %1855 = llvm.add %1854, %1850 : i64
    %1856 = llvm.getelementptr %1852[%1855] : (!llvm.ptr, i64) -> !llvm.ptr, f32
    %1857 = llvm.load %1856 : !llvm.ptr -> f32
    %1858 = llvm.call @tanhf(%1857) : (f32) -> f32
    %1859 = llvm.extractvalue %1847[1] : !llvm.struct<(ptr, ptr, i64, array<2 x i64>, array<2 x i64>)> 
    %1860 = llvm.mlir.constant(10 : index) : i64
    %1861 = llvm.mul %1848, %1860 : i64
    %1862 = llvm.add %1861, %1850 : i64
    %1863 = llvm.getelementptr %1859[%1862] : (!llvm.ptr, i64) -> !llvm.ptr, f32
    llvm.store %1858, %1863 : f32, !llvm.ptr
    %1864 = llvm.add %1850, %76 : i64
    llvm.br ^bb243(%1864 : i64)
  ^bb245:  // pred: ^bb243
    %1865 = llvm.add %1848, %76 : i64
    llvm.br ^bb242(%1865 : i64)
  ^bb246:  // pred: ^bb242
    llvm.return %1847 : !llvm.struct<(ptr, ptr, i64, array<2 x i64>, array<2 x i64>)>
  }
  llvm.func @_mlir_ciface_test_forward(%arg0: !llvm.ptr, %arg1: !llvm.ptr, %arg2: !llvm.ptr, %arg3: !llvm.ptr, %arg4: !llvm.ptr, %arg5: !llvm.ptr, %arg6: !llvm.ptr, %arg7: !llvm.ptr) attributes {llvm.emit_c_interface} {
    %0 = llvm.load %arg1 : !llvm.ptr -> !llvm.struct<(ptr, ptr, i64, array<4 x i64>, array<4 x i64>)>
    %1 = llvm.extractvalue %0[0] : !llvm.struct<(ptr, ptr, i64, array<4 x i64>, array<4 x i64>)> 
    %2 = llvm.extractvalue %0[1] : !llvm.struct<(ptr, ptr, i64, array<4 x i64>, array<4 x i64>)> 
    %3 = llvm.extractvalue %0[2] : !llvm.struct<(ptr, ptr, i64, array<4 x i64>, array<4 x i64>)> 
    %4 = llvm.extractvalue %0[3, 0] : !llvm.struct<(ptr, ptr, i64, array<4 x i64>, array<4 x i64>)> 
    %5 = llvm.extractvalue %0[3, 1] : !llvm.struct<(ptr, ptr, i64, array<4 x i64>, array<4 x i64>)> 
    %6 = llvm.extractvalue %0[3, 2] : !llvm.struct<(ptr, ptr, i64, array<4 x i64>, array<4 x i64>)> 
    %7 = llvm.extractvalue %0[3, 3] : !llvm.struct<(ptr, ptr, i64, array<4 x i64>, array<4 x i64>)> 
    %8 = llvm.extractvalue %0[4, 0] : !llvm.struct<(ptr, ptr, i64, array<4 x i64>, array<4 x i64>)> 
    %9 = llvm.extractvalue %0[4, 1] : !llvm.struct<(ptr, ptr, i64, array<4 x i64>, array<4 x i64>)> 
    %10 = llvm.extractvalue %0[4, 2] : !llvm.struct<(ptr, ptr, i64, array<4 x i64>, array<4 x i64>)> 
    %11 = llvm.extractvalue %0[4, 3] : !llvm.struct<(ptr, ptr, i64, array<4 x i64>, array<4 x i64>)> 
    %12 = llvm.load %arg2 : !llvm.ptr -> !llvm.struct<(ptr, ptr, i64, array<4 x i64>, array<4 x i64>)>
    %13 = llvm.extractvalue %12[0] : !llvm.struct<(ptr, ptr, i64, array<4 x i64>, array<4 x i64>)> 
    %14 = llvm.extractvalue %12[1] : !llvm.struct<(ptr, ptr, i64, array<4 x i64>, array<4 x i64>)> 
    %15 = llvm.extractvalue %12[2] : !llvm.struct<(ptr, ptr, i64, array<4 x i64>, array<4 x i64>)> 
    %16 = llvm.extractvalue %12[3, 0] : !llvm.struct<(ptr, ptr, i64, array<4 x i64>, array<4 x i64>)> 
    %17 = llvm.extractvalue %12[3, 1] : !llvm.struct<(ptr, ptr, i64, array<4 x i64>, array<4 x i64>)> 
    %18 = llvm.extractvalue %12[3, 2] : !llvm.struct<(ptr, ptr, i64, array<4 x i64>, array<4 x i64>)> 
    %19 = llvm.extractvalue %12[3, 3] : !llvm.struct<(ptr, ptr, i64, array<4 x i64>, array<4 x i64>)> 
    %20 = llvm.extractvalue %12[4, 0] : !llvm.struct<(ptr, ptr, i64, array<4 x i64>, array<4 x i64>)> 
    %21 = llvm.extractvalue %12[4, 1] : !llvm.struct<(ptr, ptr, i64, array<4 x i64>, array<4 x i64>)> 
    %22 = llvm.extractvalue %12[4, 2] : !llvm.struct<(ptr, ptr, i64, array<4 x i64>, array<4 x i64>)> 
    %23 = llvm.extractvalue %12[4, 3] : !llvm.struct<(ptr, ptr, i64, array<4 x i64>, array<4 x i64>)> 
    %24 = llvm.load %arg3 : !llvm.ptr -> !llvm.struct<(ptr, ptr, i64, array<1 x i64>, array<1 x i64>)>
    %25 = llvm.extractvalue %24[0] : !llvm.struct<(ptr, ptr, i64, array<1 x i64>, array<1 x i64>)> 
    %26 = llvm.extractvalue %24[1] : !llvm.struct<(ptr, ptr, i64, array<1 x i64>, array<1 x i64>)> 
    %27 = llvm.extractvalue %24[2] : !llvm.struct<(ptr, ptr, i64, array<1 x i64>, array<1 x i64>)> 
    %28 = llvm.extractvalue %24[3, 0] : !llvm.struct<(ptr, ptr, i64, array<1 x i64>, array<1 x i64>)> 
    %29 = llvm.extractvalue %24[4, 0] : !llvm.struct<(ptr, ptr, i64, array<1 x i64>, array<1 x i64>)> 
    %30 = llvm.load %arg4 : !llvm.ptr -> !llvm.struct<(ptr, ptr, i64, array<4 x i64>, array<4 x i64>)>
    %31 = llvm.extractvalue %30[0] : !llvm.struct<(ptr, ptr, i64, array<4 x i64>, array<4 x i64>)> 
    %32 = llvm.extractvalue %30[1] : !llvm.struct<(ptr, ptr, i64, array<4 x i64>, array<4 x i64>)> 
    %33 = llvm.extractvalue %30[2] : !llvm.struct<(ptr, ptr, i64, array<4 x i64>, array<4 x i64>)> 
    %34 = llvm.extractvalue %30[3, 0] : !llvm.struct<(ptr, ptr, i64, array<4 x i64>, array<4 x i64>)> 
    %35 = llvm.extractvalue %30[3, 1] : !llvm.struct<(ptr, ptr, i64, array<4 x i64>, array<4 x i64>)> 
    %36 = llvm.extractvalue %30[3, 2] : !llvm.struct<(ptr, ptr, i64, array<4 x i64>, array<4 x i64>)> 
    %37 = llvm.extractvalue %30[3, 3] : !llvm.struct<(ptr, ptr, i64, array<4 x i64>, array<4 x i64>)> 
    %38 = llvm.extractvalue %30[4, 0] : !llvm.struct<(ptr, ptr, i64, array<4 x i64>, array<4 x i64>)> 
    %39 = llvm.extractvalue %30[4, 1] : !llvm.struct<(ptr, ptr, i64, array<4 x i64>, array<4 x i64>)> 
    %40 = llvm.extractvalue %30[4, 2] : !llvm.struct<(ptr, ptr, i64, array<4 x i64>, array<4 x i64>)> 
    %41 = llvm.extractvalue %30[4, 3] : !llvm.struct<(ptr, ptr, i64, array<4 x i64>, array<4 x i64>)> 
    %42 = llvm.load %arg5 : !llvm.ptr -> !llvm.struct<(ptr, ptr, i64, array<1 x i64>, array<1 x i64>)>
    %43 = llvm.extractvalue %42[0] : !llvm.struct<(ptr, ptr, i64, array<1 x i64>, array<1 x i64>)> 
    %44 = llvm.extractvalue %42[1] : !llvm.struct<(ptr, ptr, i64, array<1 x i64>, array<1 x i64>)> 
    %45 = llvm.extractvalue %42[2] : !llvm.struct<(ptr, ptr, i64, array<1 x i64>, array<1 x i64>)> 
    %46 = llvm.extractvalue %42[3, 0] : !llvm.struct<(ptr, ptr, i64, array<1 x i64>, array<1 x i64>)> 
    %47 = llvm.extractvalue %42[4, 0] : !llvm.struct<(ptr, ptr, i64, array<1 x i64>, array<1 x i64>)> 
    %48 = llvm.load %arg6 : !llvm.ptr -> !llvm.struct<(ptr, ptr, i64, array<2 x i64>, array<2 x i64>)>
    %49 = llvm.extractvalue %48[0] : !llvm.struct<(ptr, ptr, i64, array<2 x i64>, array<2 x i64>)> 
    %50 = llvm.extractvalue %48[1] : !llvm.struct<(ptr, ptr, i64, array<2 x i64>, array<2 x i64>)> 
    %51 = llvm.extractvalue %48[2] : !llvm.struct<(ptr, ptr, i64, array<2 x i64>, array<2 x i64>)> 
    %52 = llvm.extractvalue %48[3, 0] : !llvm.struct<(ptr, ptr, i64, array<2 x i64>, array<2 x i64>)> 
    %53 = llvm.extractvalue %48[3, 1] : !llvm.struct<(ptr, ptr, i64, array<2 x i64>, array<2 x i64>)> 
    %54 = llvm.extractvalue %48[4, 0] : !llvm.struct<(ptr, ptr, i64, array<2 x i64>, array<2 x i64>)> 
    %55 = llvm.extractvalue %48[4, 1] : !llvm.struct<(ptr, ptr, i64, array<2 x i64>, array<2 x i64>)> 
    %56 = llvm.load %arg7 : !llvm.ptr -> !llvm.struct<(ptr, ptr, i64, array<2 x i64>, array<2 x i64>)>
    %57 = llvm.extractvalue %56[0] : !llvm.struct<(ptr, ptr, i64, array<2 x i64>, array<2 x i64>)> 
    %58 = llvm.extractvalue %56[1] : !llvm.struct<(ptr, ptr, i64, array<2 x i64>, array<2 x i64>)> 
    %59 = llvm.extractvalue %56[2] : !llvm.struct<(ptr, ptr, i64, array<2 x i64>, array<2 x i64>)> 
    %60 = llvm.extractvalue %56[3, 0] : !llvm.struct<(ptr, ptr, i64, array<2 x i64>, array<2 x i64>)> 
    %61 = llvm.extractvalue %56[3, 1] : !llvm.struct<(ptr, ptr, i64, array<2 x i64>, array<2 x i64>)> 
    %62 = llvm.extractvalue %56[4, 0] : !llvm.struct<(ptr, ptr, i64, array<2 x i64>, array<2 x i64>)> 
    %63 = llvm.extractvalue %56[4, 1] : !llvm.struct<(ptr, ptr, i64, array<2 x i64>, array<2 x i64>)> 
    %64 = llvm.call @test_forward(%1, %2, %3, %4, %5, %6, %7, %8, %9, %10, %11, %13, %14, %15, %16, %17, %18, %19, %20, %21, %22, %23, %25, %26, %27, %28, %29, %31, %32, %33, %34, %35, %36, %37, %38, %39, %40, %41, %43, %44, %45, %46, %47, %49, %50, %51, %52, %53, %54, %55, %57, %58, %59, %60, %61, %62, %63) : (!llvm.ptr, !llvm.ptr, i64, i64, i64, i64, i64, i64, i64, i64, i64, !llvm.ptr, !llvm.ptr, i64, i64, i64, i64, i64, i64, i64, i64, i64, !llvm.ptr, !llvm.ptr, i64, i64, i64, !llvm.ptr, !llvm.ptr, i64, i64, i64, i64, i64, i64, i64, i64, i64, !llvm.ptr, !llvm.ptr, i64, i64, i64, !llvm.ptr, !llvm.ptr, i64, i64, i64, i64, i64, !llvm.ptr, !llvm.ptr, i64, i64, i64, i64, i64) -> !llvm.struct<(ptr, ptr, i64, array<2 x i64>, array<2 x i64>)>
    llvm.store %64, %arg0 : !llvm.struct<(ptr, ptr, i64, array<2 x i64>, array<2 x i64>)>, !llvm.ptr
    llvm.return
  }
}
