// -----// IR Dump After {anonymous}::MxToTosaLowerPass () //----- //
module {
  func.func @test_mul(%arg0: tensor<2x3xf32>, %arg1: tensor<2x3xf32>) -> tensor<2x3xf32> attributes {llvm.emit_c_interface} {
    %0 = tosa.mul %arg0, %arg1 {shift = 0 : i8} : (tensor<2x3xf32>, tensor<2x3xf32>) -> tensor<2x3xf32>
    return %0 : tensor<2x3xf32>
  }
}


// -----// IR Dump After TosaToArith (tosa-to-arith) //----- //
module {
  func.func @test_mul(%arg0: tensor<2x3xf32>, %arg1: tensor<2x3xf32>) -> tensor<2x3xf32> attributes {llvm.emit_c_interface} {
    %0 = tosa.mul %arg0, %arg1 {shift = 0 : i8} : (tensor<2x3xf32>, tensor<2x3xf32>) -> tensor<2x3xf32>
    return %0 : tensor<2x3xf32>
  }
}


// -----// IR Dump After TosaToTensor (tosa-to-tensor) //----- //
module {
  func.func @test_mul(%arg0: tensor<2x3xf32>, %arg1: tensor<2x3xf32>) -> tensor<2x3xf32> attributes {llvm.emit_c_interface} {
    %0 = tosa.mul %arg0, %arg1 {shift = 0 : i8} : (tensor<2x3xf32>, tensor<2x3xf32>) -> tensor<2x3xf32>
    return %0 : tensor<2x3xf32>
  }
}


// -----// IR Dump After TosaToLinalgNamed (tosa-to-linalg-named) //----- //
func.func @test_mul(%arg0: tensor<2x3xf32>, %arg1: tensor<2x3xf32>) -> tensor<2x3xf32> attributes {llvm.emit_c_interface} {
  %0 = tosa.mul %arg0, %arg1 {shift = 0 : i8} : (tensor<2x3xf32>, tensor<2x3xf32>) -> tensor<2x3xf32>
  return %0 : tensor<2x3xf32>
}

// -----// IR Dump After TosaToLinalg (tosa-to-linalg) //----- //
func.func @test_mul(%arg0: tensor<2x3xf32>, %arg1: tensor<2x3xf32>) -> tensor<2x3xf32> attributes {llvm.emit_c_interface} {
  %0 = tensor.empty() : tensor<2x3xf32>
  %1 = linalg.generic {indexing_maps = [affine_map<(d0, d1) -> (d0, d1)>, affine_map<(d0, d1) -> (d0, d1)>, affine_map<(d0, d1) -> (d0, d1)>], iterator_types = ["parallel", "parallel"]} ins(%arg0, %arg1 : tensor<2x3xf32>, tensor<2x3xf32>) outs(%0 : tensor<2x3xf32>) {
  ^bb0(%in: f32, %in_0: f32, %out: f32):
    %2 = arith.mulf %in, %in_0 : f32
    linalg.yield %2 : f32
  } -> tensor<2x3xf32>
  return %1 : tensor<2x3xf32>
}

// -----// IR Dump After OneShotBufferize (one-shot-bufferize) //----- //
#map = affine_map<(d0, d1) -> (d0, d1)>
module {
  func.func @test_mul(%arg0: tensor<2x3xf32>, %arg1: tensor<2x3xf32>) -> tensor<2x3xf32> attributes {llvm.emit_c_interface} {
    %0 = bufferization.to_memref %arg1 : memref<2x3xf32, strided<[?, ?], offset: ?>>
    %1 = bufferization.to_memref %arg0 : memref<2x3xf32, strided<[?, ?], offset: ?>>
    %alloc = memref.alloc() {alignment = 64 : i64} : memref<2x3xf32>
    linalg.generic {indexing_maps = [#map, #map, #map], iterator_types = ["parallel", "parallel"]} ins(%1, %0 : memref<2x3xf32, strided<[?, ?], offset: ?>>, memref<2x3xf32, strided<[?, ?], offset: ?>>) outs(%alloc : memref<2x3xf32>) {
    ^bb0(%in: f32, %in_0: f32, %out: f32):
      %3 = arith.mulf %in, %in_0 : f32
      linalg.yield %3 : f32
    }
    %2 = bufferization.to_tensor %alloc : memref<2x3xf32>
    return %2 : tensor<2x3xf32>
  }
}


// -----// IR Dump After FuncBufferize (func-bufferize) //----- //
#map = affine_map<(d0, d1) -> (d0, d1)>
module {
  func.func @test_mul(%arg0: memref<2x3xf32>, %arg1: memref<2x3xf32>) -> memref<2x3xf32> attributes {llvm.emit_c_interface} {
    %0 = bufferization.to_tensor %arg1 : memref<2x3xf32>
    %1 = bufferization.to_tensor %arg0 : memref<2x3xf32>
    %2 = bufferization.to_memref %0 : memref<2x3xf32, strided<[?, ?], offset: ?>>
    %3 = bufferization.to_memref %1 : memref<2x3xf32, strided<[?, ?], offset: ?>>
    %alloc = memref.alloc() {alignment = 64 : i64} : memref<2x3xf32>
    linalg.generic {indexing_maps = [#map, #map, #map], iterator_types = ["parallel", "parallel"]} ins(%3, %2 : memref<2x3xf32, strided<[?, ?], offset: ?>>, memref<2x3xf32, strided<[?, ?], offset: ?>>) outs(%alloc : memref<2x3xf32>) {
    ^bb0(%in: f32, %in_0: f32, %out: f32):
      %6 = arith.mulf %in, %in_0 : f32
      linalg.yield %6 : f32
    }
    %4 = bufferization.to_tensor %alloc : memref<2x3xf32>
    %5 = bufferization.to_memref %4 : memref<2x3xf32>
    return %5 : memref<2x3xf32>
  }
}


// -----// IR Dump After ConvertLinalgToAffineLoopsPass (convert-linalg-to-affine-loops) //----- //
func.func @test_mul(%arg0: memref<2x3xf32>, %arg1: memref<2x3xf32>) -> memref<2x3xf32> attributes {llvm.emit_c_interface} {
  %0 = bufferization.to_tensor %arg1 : memref<2x3xf32>
  %1 = bufferization.to_tensor %arg0 : memref<2x3xf32>
  %2 = bufferization.to_memref %0 : memref<2x3xf32, strided<[?, ?], offset: ?>>
  %3 = bufferization.to_memref %1 : memref<2x3xf32, strided<[?, ?], offset: ?>>
  %alloc = memref.alloc() {alignment = 64 : i64} : memref<2x3xf32>
  affine.for %arg2 = 0 to 2 {
    affine.for %arg3 = 0 to 3 {
      %4 = affine.load %3[%arg2, %arg3] : memref<2x3xf32, strided<[?, ?], offset: ?>>
      %5 = affine.load %2[%arg2, %arg3] : memref<2x3xf32, strided<[?, ?], offset: ?>>
      %6 = arith.mulf %4, %5 : f32
      affine.store %6, %alloc[%arg2, %arg3] : memref<2x3xf32>
    }
  }
  return %alloc : memref<2x3xf32>
}

// -----// IR Dump After ConvertAffineToStandard (lower-affine) //----- //
func.func @test_mul(%arg0: memref<2x3xf32>, %arg1: memref<2x3xf32>) -> memref<2x3xf32> attributes {llvm.emit_c_interface} {
  %0 = bufferization.to_tensor %arg1 : memref<2x3xf32>
  %1 = bufferization.to_tensor %arg0 : memref<2x3xf32>
  %2 = bufferization.to_memref %0 : memref<2x3xf32, strided<[?, ?], offset: ?>>
  %3 = bufferization.to_memref %1 : memref<2x3xf32, strided<[?, ?], offset: ?>>
  %alloc = memref.alloc() {alignment = 64 : i64} : memref<2x3xf32>
  %c0 = arith.constant 0 : index
  %c2 = arith.constant 2 : index
  %c1 = arith.constant 1 : index
  scf.for %arg2 = %c0 to %c2 step %c1 {
    %c0_0 = arith.constant 0 : index
    %c3 = arith.constant 3 : index
    %c1_1 = arith.constant 1 : index
    scf.for %arg3 = %c0_0 to %c3 step %c1_1 {
      %4 = memref.load %3[%arg2, %arg3] : memref<2x3xf32, strided<[?, ?], offset: ?>>
      %5 = memref.load %2[%arg2, %arg3] : memref<2x3xf32, strided<[?, ?], offset: ?>>
      %6 = arith.mulf %4, %5 : f32
      memref.store %6, %alloc[%arg2, %arg3] : memref<2x3xf32>
    }
  }
  return %alloc : memref<2x3xf32>
}

// -----// IR Dump After SCFToControlFlow (convert-scf-to-cf) //----- //
module {
  func.func @test_mul(%arg0: memref<2x3xf32>, %arg1: memref<2x3xf32>) -> memref<2x3xf32> attributes {llvm.emit_c_interface} {
    %0 = bufferization.to_tensor %arg1 : memref<2x3xf32>
    %1 = bufferization.to_tensor %arg0 : memref<2x3xf32>
    %2 = bufferization.to_memref %0 : memref<2x3xf32, strided<[?, ?], offset: ?>>
    %3 = bufferization.to_memref %1 : memref<2x3xf32, strided<[?, ?], offset: ?>>
    %alloc = memref.alloc() {alignment = 64 : i64} : memref<2x3xf32>
    %c0 = arith.constant 0 : index
    %c2 = arith.constant 2 : index
    %c1 = arith.constant 1 : index
    cf.br ^bb1(%c0 : index)
  ^bb1(%4: index):  // 2 preds: ^bb0, ^bb5
    %5 = arith.cmpi slt, %4, %c2 : index
    cf.cond_br %5, ^bb2, ^bb6
  ^bb2:  // pred: ^bb1
    %c0_0 = arith.constant 0 : index
    %c3 = arith.constant 3 : index
    %c1_1 = arith.constant 1 : index
    cf.br ^bb3(%c0_0 : index)
  ^bb3(%6: index):  // 2 preds: ^bb2, ^bb4
    %7 = arith.cmpi slt, %6, %c3 : index
    cf.cond_br %7, ^bb4, ^bb5
  ^bb4:  // pred: ^bb3
    %8 = memref.load %3[%4, %6] : memref<2x3xf32, strided<[?, ?], offset: ?>>
    %9 = memref.load %2[%4, %6] : memref<2x3xf32, strided<[?, ?], offset: ?>>
    %10 = arith.mulf %8, %9 : f32
    memref.store %10, %alloc[%4, %6] : memref<2x3xf32>
    %11 = arith.addi %6, %c1_1 : index
    cf.br ^bb3(%11 : index)
  ^bb5:  // pred: ^bb3
    %12 = arith.addi %4, %c1 : index
    cf.br ^bb1(%12 : index)
  ^bb6:  // pred: ^bb1
    return %alloc : memref<2x3xf32>
  }
}


// -----// IR Dump After Canonicalizer (canonicalize) //----- //
module {
  func.func @test_mul(%arg0: memref<2x3xf32>, %arg1: memref<2x3xf32>) -> memref<2x3xf32> attributes {llvm.emit_c_interface} {
    %c3 = arith.constant 3 : index
    %c1 = arith.constant 1 : index
    %c2 = arith.constant 2 : index
    %c0 = arith.constant 0 : index
    %alloc = memref.alloc() {alignment = 64 : i64} : memref<2x3xf32>
    cf.br ^bb1(%c0 : index)
  ^bb1(%0: index):  // 2 preds: ^bb0, ^bb4
    %1 = arith.cmpi slt, %0, %c2 : index
    cf.cond_br %1, ^bb2(%c0 : index), ^bb5
  ^bb2(%2: index):  // 2 preds: ^bb1, ^bb3
    %3 = arith.cmpi slt, %2, %c3 : index
    cf.cond_br %3, ^bb3, ^bb4
  ^bb3:  // pred: ^bb2
    %4 = memref.load %arg0[%0, %2] : memref<2x3xf32>
    %5 = memref.load %arg1[%0, %2] : memref<2x3xf32>
    %6 = arith.mulf %4, %5 : f32
    memref.store %6, %alloc[%0, %2] : memref<2x3xf32>
    %7 = arith.addi %2, %c1 : index
    cf.br ^bb2(%7 : index)
  ^bb4:  // pred: ^bb2
    %8 = arith.addi %0, %c1 : index
    cf.br ^bb1(%8 : index)
  ^bb5:  // pred: ^bb1
    return %alloc : memref<2x3xf32>
  }
}


// -----// IR Dump After ExpandStridedMetadata (expand-strided-metadata) //----- //
module {
  func.func @test_mul(%arg0: memref<2x3xf32>, %arg1: memref<2x3xf32>) -> memref<2x3xf32> attributes {llvm.emit_c_interface} {
    %c3 = arith.constant 3 : index
    %c1 = arith.constant 1 : index
    %c2 = arith.constant 2 : index
    %c0 = arith.constant 0 : index
    %alloc = memref.alloc() {alignment = 64 : i64} : memref<2x3xf32>
    cf.br ^bb1(%c0 : index)
  ^bb1(%0: index):  // 2 preds: ^bb0, ^bb4
    %1 = arith.cmpi slt, %0, %c2 : index
    cf.cond_br %1, ^bb2(%c0 : index), ^bb5
  ^bb2(%2: index):  // 2 preds: ^bb1, ^bb3
    %3 = arith.cmpi slt, %2, %c3 : index
    cf.cond_br %3, ^bb3, ^bb4
  ^bb3:  // pred: ^bb2
    %4 = memref.load %arg0[%0, %2] : memref<2x3xf32>
    %5 = memref.load %arg1[%0, %2] : memref<2x3xf32>
    %6 = arith.mulf %4, %5 : f32
    memref.store %6, %alloc[%0, %2] : memref<2x3xf32>
    %7 = arith.addi %2, %c1 : index
    cf.br ^bb2(%7 : index)
  ^bb4:  // pred: ^bb2
    %8 = arith.addi %0, %c1 : index
    cf.br ^bb1(%8 : index)
  ^bb5:  // pred: ^bb1
    return %alloc : memref<2x3xf32>
  }
}


// -----// IR Dump After ConvertMathToLLVMPass (convert-math-to-llvm) //----- //
module {
  func.func @test_mul(%arg0: memref<2x3xf32>, %arg1: memref<2x3xf32>) -> memref<2x3xf32> attributes {llvm.emit_c_interface} {
    %c3 = arith.constant 3 : index
    %c1 = arith.constant 1 : index
    %c2 = arith.constant 2 : index
    %c0 = arith.constant 0 : index
    %alloc = memref.alloc() {alignment = 64 : i64} : memref<2x3xf32>
    cf.br ^bb1(%c0 : index)
  ^bb1(%0: index):  // 2 preds: ^bb0, ^bb4
    %1 = arith.cmpi slt, %0, %c2 : index
    cf.cond_br %1, ^bb2(%c0 : index), ^bb5
  ^bb2(%2: index):  // 2 preds: ^bb1, ^bb3
    %3 = arith.cmpi slt, %2, %c3 : index
    cf.cond_br %3, ^bb3, ^bb4
  ^bb3:  // pred: ^bb2
    %4 = memref.load %arg0[%0, %2] : memref<2x3xf32>
    %5 = memref.load %arg1[%0, %2] : memref<2x3xf32>
    %6 = arith.mulf %4, %5 : f32
    memref.store %6, %alloc[%0, %2] : memref<2x3xf32>
    %7 = arith.addi %2, %c1 : index
    cf.br ^bb2(%7 : index)
  ^bb4:  // pred: ^bb2
    %8 = arith.addi %0, %c1 : index
    cf.br ^bb1(%8 : index)
  ^bb5:  // pred: ^bb1
    return %alloc : memref<2x3xf32>
  }
}


// -----// IR Dump After ConvertMathToLibm (convert-math-to-libm) //----- //
module {
  func.func @test_mul(%arg0: memref<2x3xf32>, %arg1: memref<2x3xf32>) -> memref<2x3xf32> attributes {llvm.emit_c_interface} {
    %c3 = arith.constant 3 : index
    %c1 = arith.constant 1 : index
    %c2 = arith.constant 2 : index
    %c0 = arith.constant 0 : index
    %alloc = memref.alloc() {alignment = 64 : i64} : memref<2x3xf32>
    cf.br ^bb1(%c0 : index)
  ^bb1(%0: index):  // 2 preds: ^bb0, ^bb4
    %1 = arith.cmpi slt, %0, %c2 : index
    cf.cond_br %1, ^bb2(%c0 : index), ^bb5
  ^bb2(%2: index):  // 2 preds: ^bb1, ^bb3
    %3 = arith.cmpi slt, %2, %c3 : index
    cf.cond_br %3, ^bb3, ^bb4
  ^bb3:  // pred: ^bb2
    %4 = memref.load %arg0[%0, %2] : memref<2x3xf32>
    %5 = memref.load %arg1[%0, %2] : memref<2x3xf32>
    %6 = arith.mulf %4, %5 : f32
    memref.store %6, %alloc[%0, %2] : memref<2x3xf32>
    %7 = arith.addi %2, %c1 : index
    cf.br ^bb2(%7 : index)
  ^bb4:  // pred: ^bb2
    %8 = arith.addi %0, %c1 : index
    cf.br ^bb1(%8 : index)
  ^bb5:  // pred: ^bb1
    return %alloc : memref<2x3xf32>
  }
}


// -----// IR Dump After ArithToLLVMConversionPass (convert-arith-to-llvm) //----- //
module {
  func.func @test_mul(%arg0: memref<2x3xf32>, %arg1: memref<2x3xf32>) -> memref<2x3xf32> attributes {llvm.emit_c_interface} {
    %0 = llvm.mlir.constant(3 : index) : i64
    %1 = llvm.mlir.constant(1 : index) : i64
    %2 = llvm.mlir.constant(2 : index) : i64
    %3 = llvm.mlir.constant(0 : index) : i64
    %4 = builtin.unrealized_conversion_cast %3 : i64 to index
    %alloc = memref.alloc() {alignment = 64 : i64} : memref<2x3xf32>
    cf.br ^bb1(%4 : index)
  ^bb1(%5: index):  // 2 preds: ^bb0, ^bb4
    %6 = builtin.unrealized_conversion_cast %5 : index to i64
    %7 = llvm.icmp "slt" %6, %2 : i64
    cf.cond_br %7, ^bb2(%4 : index), ^bb5
  ^bb2(%8: index):  // 2 preds: ^bb1, ^bb3
    %9 = builtin.unrealized_conversion_cast %8 : index to i64
    %10 = llvm.icmp "slt" %9, %0 : i64
    cf.cond_br %10, ^bb3, ^bb4
  ^bb3:  // pred: ^bb2
    %11 = memref.load %arg0[%5, %8] : memref<2x3xf32>
    %12 = memref.load %arg1[%5, %8] : memref<2x3xf32>
    %13 = llvm.fmul %11, %12  : f32
    memref.store %13, %alloc[%5, %8] : memref<2x3xf32>
    %14 = llvm.add %9, %1 : i64
    %15 = builtin.unrealized_conversion_cast %14 : i64 to index
    cf.br ^bb2(%15 : index)
  ^bb4:  // pred: ^bb2
    %16 = llvm.add %6, %1 : i64
    %17 = builtin.unrealized_conversion_cast %16 : i64 to index
    cf.br ^bb1(%17 : index)
  ^bb5:  // pred: ^bb1
    return %alloc : memref<2x3xf32>
  }
}


// -----// IR Dump After ConvertFuncToLLVMPass (convert-func-to-llvm) //----- //
module {
  llvm.func @test_mul(%arg0: !llvm.ptr, %arg1: !llvm.ptr, %arg2: i64, %arg3: i64, %arg4: i64, %arg5: i64, %arg6: i64, %arg7: !llvm.ptr, %arg8: !llvm.ptr, %arg9: i64, %arg10: i64, %arg11: i64, %arg12: i64, %arg13: i64) -> !llvm.struct<(ptr, ptr, i64, array<2 x i64>, array<2 x i64>)> attributes {llvm.emit_c_interface} {
    %0 = llvm.mlir.undef : !llvm.struct<(ptr, ptr, i64, array<2 x i64>, array<2 x i64>)>
    %1 = llvm.insertvalue %arg7, %0[0] : !llvm.struct<(ptr, ptr, i64, array<2 x i64>, array<2 x i64>)> 
    %2 = llvm.insertvalue %arg8, %1[1] : !llvm.struct<(ptr, ptr, i64, array<2 x i64>, array<2 x i64>)> 
    %3 = llvm.insertvalue %arg9, %2[2] : !llvm.struct<(ptr, ptr, i64, array<2 x i64>, array<2 x i64>)> 
    %4 = llvm.insertvalue %arg10, %3[3, 0] : !llvm.struct<(ptr, ptr, i64, array<2 x i64>, array<2 x i64>)> 
    %5 = llvm.insertvalue %arg12, %4[4, 0] : !llvm.struct<(ptr, ptr, i64, array<2 x i64>, array<2 x i64>)> 
    %6 = llvm.insertvalue %arg11, %5[3, 1] : !llvm.struct<(ptr, ptr, i64, array<2 x i64>, array<2 x i64>)> 
    %7 = llvm.insertvalue %arg13, %6[4, 1] : !llvm.struct<(ptr, ptr, i64, array<2 x i64>, array<2 x i64>)> 
    %8 = builtin.unrealized_conversion_cast %7 : !llvm.struct<(ptr, ptr, i64, array<2 x i64>, array<2 x i64>)> to memref<2x3xf32>
    %9 = llvm.mlir.undef : !llvm.struct<(ptr, ptr, i64, array<2 x i64>, array<2 x i64>)>
    %10 = llvm.insertvalue %arg0, %9[0] : !llvm.struct<(ptr, ptr, i64, array<2 x i64>, array<2 x i64>)> 
    %11 = llvm.insertvalue %arg1, %10[1] : !llvm.struct<(ptr, ptr, i64, array<2 x i64>, array<2 x i64>)> 
    %12 = llvm.insertvalue %arg2, %11[2] : !llvm.struct<(ptr, ptr, i64, array<2 x i64>, array<2 x i64>)> 
    %13 = llvm.insertvalue %arg3, %12[3, 0] : !llvm.struct<(ptr, ptr, i64, array<2 x i64>, array<2 x i64>)> 
    %14 = llvm.insertvalue %arg5, %13[4, 0] : !llvm.struct<(ptr, ptr, i64, array<2 x i64>, array<2 x i64>)> 
    %15 = llvm.insertvalue %arg4, %14[3, 1] : !llvm.struct<(ptr, ptr, i64, array<2 x i64>, array<2 x i64>)> 
    %16 = llvm.insertvalue %arg6, %15[4, 1] : !llvm.struct<(ptr, ptr, i64, array<2 x i64>, array<2 x i64>)> 
    %17 = builtin.unrealized_conversion_cast %16 : !llvm.struct<(ptr, ptr, i64, array<2 x i64>, array<2 x i64>)> to memref<2x3xf32>
    %18 = llvm.mlir.constant(3 : index) : i64
    %19 = llvm.mlir.constant(1 : index) : i64
    %20 = llvm.mlir.constant(2 : index) : i64
    %21 = llvm.mlir.constant(0 : index) : i64
    %22 = builtin.unrealized_conversion_cast %21 : i64 to index
    %alloc = memref.alloc() {alignment = 64 : i64} : memref<2x3xf32>
    %23 = builtin.unrealized_conversion_cast %alloc : memref<2x3xf32> to !llvm.struct<(ptr, ptr, i64, array<2 x i64>, array<2 x i64>)>
    llvm.br ^bb1(%21 : i64)
  ^bb1(%24: i64):  // 2 preds: ^bb0, ^bb4
    %25 = builtin.unrealized_conversion_cast %24 : i64 to index
    %26 = builtin.unrealized_conversion_cast %25 : index to i64
    %27 = llvm.icmp "slt" %26, %20 : i64
    llvm.cond_br %27, ^bb2(%21 : i64), ^bb5
  ^bb2(%28: i64):  // 2 preds: ^bb1, ^bb3
    %29 = builtin.unrealized_conversion_cast %28 : i64 to index
    %30 = builtin.unrealized_conversion_cast %29 : index to i64
    %31 = llvm.icmp "slt" %30, %18 : i64
    llvm.cond_br %31, ^bb3, ^bb4
  ^bb3:  // pred: ^bb2
    %32 = memref.load %17[%25, %29] : memref<2x3xf32>
    %33 = memref.load %8[%25, %29] : memref<2x3xf32>
    %34 = llvm.fmul %32, %33  : f32
    memref.store %34, %alloc[%25, %29] : memref<2x3xf32>
    %35 = llvm.add %30, %19 : i64
    %36 = builtin.unrealized_conversion_cast %35 : i64 to index
    llvm.br ^bb2(%35 : i64)
  ^bb4:  // pred: ^bb2
    %37 = llvm.add %26, %19 : i64
    %38 = builtin.unrealized_conversion_cast %37 : i64 to index
    llvm.br ^bb1(%37 : i64)
  ^bb5:  // pred: ^bb1
    llvm.return %23 : !llvm.struct<(ptr, ptr, i64, array<2 x i64>, array<2 x i64>)>
  }
  llvm.func @_mlir_ciface_test_mul(%arg0: !llvm.ptr, %arg1: !llvm.ptr, %arg2: !llvm.ptr) attributes {llvm.emit_c_interface} {
    %0 = llvm.load %arg1 : !llvm.ptr -> !llvm.struct<(ptr, ptr, i64, array<2 x i64>, array<2 x i64>)>
    %1 = llvm.extractvalue %0[0] : !llvm.struct<(ptr, ptr, i64, array<2 x i64>, array<2 x i64>)> 
    %2 = llvm.extractvalue %0[1] : !llvm.struct<(ptr, ptr, i64, array<2 x i64>, array<2 x i64>)> 
    %3 = llvm.extractvalue %0[2] : !llvm.struct<(ptr, ptr, i64, array<2 x i64>, array<2 x i64>)> 
    %4 = llvm.extractvalue %0[3, 0] : !llvm.struct<(ptr, ptr, i64, array<2 x i64>, array<2 x i64>)> 
    %5 = llvm.extractvalue %0[3, 1] : !llvm.struct<(ptr, ptr, i64, array<2 x i64>, array<2 x i64>)> 
    %6 = llvm.extractvalue %0[4, 0] : !llvm.struct<(ptr, ptr, i64, array<2 x i64>, array<2 x i64>)> 
    %7 = llvm.extractvalue %0[4, 1] : !llvm.struct<(ptr, ptr, i64, array<2 x i64>, array<2 x i64>)> 
    %8 = llvm.load %arg2 : !llvm.ptr -> !llvm.struct<(ptr, ptr, i64, array<2 x i64>, array<2 x i64>)>
    %9 = llvm.extractvalue %8[0] : !llvm.struct<(ptr, ptr, i64, array<2 x i64>, array<2 x i64>)> 
    %10 = llvm.extractvalue %8[1] : !llvm.struct<(ptr, ptr, i64, array<2 x i64>, array<2 x i64>)> 
    %11 = llvm.extractvalue %8[2] : !llvm.struct<(ptr, ptr, i64, array<2 x i64>, array<2 x i64>)> 
    %12 = llvm.extractvalue %8[3, 0] : !llvm.struct<(ptr, ptr, i64, array<2 x i64>, array<2 x i64>)> 
    %13 = llvm.extractvalue %8[3, 1] : !llvm.struct<(ptr, ptr, i64, array<2 x i64>, array<2 x i64>)> 
    %14 = llvm.extractvalue %8[4, 0] : !llvm.struct<(ptr, ptr, i64, array<2 x i64>, array<2 x i64>)> 
    %15 = llvm.extractvalue %8[4, 1] : !llvm.struct<(ptr, ptr, i64, array<2 x i64>, array<2 x i64>)> 
    %16 = llvm.call @test_mul(%1, %2, %3, %4, %5, %6, %7, %9, %10, %11, %12, %13, %14, %15) : (!llvm.ptr, !llvm.ptr, i64, i64, i64, i64, i64, !llvm.ptr, !llvm.ptr, i64, i64, i64, i64, i64) -> !llvm.struct<(ptr, ptr, i64, array<2 x i64>, array<2 x i64>)>
    llvm.store %16, %arg0 : !llvm.struct<(ptr, ptr, i64, array<2 x i64>, array<2 x i64>)>, !llvm.ptr
    llvm.return
  }
}


// -----// IR Dump After ConvertControlFlowToLLVMPass (convert-cf-to-llvm) //----- //
module {
  llvm.func @test_mul(%arg0: !llvm.ptr, %arg1: !llvm.ptr, %arg2: i64, %arg3: i64, %arg4: i64, %arg5: i64, %arg6: i64, %arg7: !llvm.ptr, %arg8: !llvm.ptr, %arg9: i64, %arg10: i64, %arg11: i64, %arg12: i64, %arg13: i64) -> !llvm.struct<(ptr, ptr, i64, array<2 x i64>, array<2 x i64>)> attributes {llvm.emit_c_interface} {
    %0 = llvm.mlir.undef : !llvm.struct<(ptr, ptr, i64, array<2 x i64>, array<2 x i64>)>
    %1 = llvm.insertvalue %arg7, %0[0] : !llvm.struct<(ptr, ptr, i64, array<2 x i64>, array<2 x i64>)> 
    %2 = llvm.insertvalue %arg8, %1[1] : !llvm.struct<(ptr, ptr, i64, array<2 x i64>, array<2 x i64>)> 
    %3 = llvm.insertvalue %arg9, %2[2] : !llvm.struct<(ptr, ptr, i64, array<2 x i64>, array<2 x i64>)> 
    %4 = llvm.insertvalue %arg10, %3[3, 0] : !llvm.struct<(ptr, ptr, i64, array<2 x i64>, array<2 x i64>)> 
    %5 = llvm.insertvalue %arg12, %4[4, 0] : !llvm.struct<(ptr, ptr, i64, array<2 x i64>, array<2 x i64>)> 
    %6 = llvm.insertvalue %arg11, %5[3, 1] : !llvm.struct<(ptr, ptr, i64, array<2 x i64>, array<2 x i64>)> 
    %7 = llvm.insertvalue %arg13, %6[4, 1] : !llvm.struct<(ptr, ptr, i64, array<2 x i64>, array<2 x i64>)> 
    %8 = builtin.unrealized_conversion_cast %7 : !llvm.struct<(ptr, ptr, i64, array<2 x i64>, array<2 x i64>)> to memref<2x3xf32>
    %9 = llvm.mlir.undef : !llvm.struct<(ptr, ptr, i64, array<2 x i64>, array<2 x i64>)>
    %10 = llvm.insertvalue %arg0, %9[0] : !llvm.struct<(ptr, ptr, i64, array<2 x i64>, array<2 x i64>)> 
    %11 = llvm.insertvalue %arg1, %10[1] : !llvm.struct<(ptr, ptr, i64, array<2 x i64>, array<2 x i64>)> 
    %12 = llvm.insertvalue %arg2, %11[2] : !llvm.struct<(ptr, ptr, i64, array<2 x i64>, array<2 x i64>)> 
    %13 = llvm.insertvalue %arg3, %12[3, 0] : !llvm.struct<(ptr, ptr, i64, array<2 x i64>, array<2 x i64>)> 
    %14 = llvm.insertvalue %arg5, %13[4, 0] : !llvm.struct<(ptr, ptr, i64, array<2 x i64>, array<2 x i64>)> 
    %15 = llvm.insertvalue %arg4, %14[3, 1] : !llvm.struct<(ptr, ptr, i64, array<2 x i64>, array<2 x i64>)> 
    %16 = llvm.insertvalue %arg6, %15[4, 1] : !llvm.struct<(ptr, ptr, i64, array<2 x i64>, array<2 x i64>)> 
    %17 = builtin.unrealized_conversion_cast %16 : !llvm.struct<(ptr, ptr, i64, array<2 x i64>, array<2 x i64>)> to memref<2x3xf32>
    %18 = llvm.mlir.constant(3 : index) : i64
    %19 = llvm.mlir.constant(1 : index) : i64
    %20 = llvm.mlir.constant(2 : index) : i64
    %21 = llvm.mlir.constant(0 : index) : i64
    %22 = builtin.unrealized_conversion_cast %21 : i64 to index
    %alloc = memref.alloc() {alignment = 64 : i64} : memref<2x3xf32>
    %23 = builtin.unrealized_conversion_cast %alloc : memref<2x3xf32> to !llvm.struct<(ptr, ptr, i64, array<2 x i64>, array<2 x i64>)>
    llvm.br ^bb1(%21 : i64)
  ^bb1(%24: i64):  // 2 preds: ^bb0, ^bb4
    %25 = builtin.unrealized_conversion_cast %24 : i64 to index
    %26 = builtin.unrealized_conversion_cast %25 : index to i64
    %27 = llvm.icmp "slt" %26, %20 : i64
    llvm.cond_br %27, ^bb2(%21 : i64), ^bb5
  ^bb2(%28: i64):  // 2 preds: ^bb1, ^bb3
    %29 = builtin.unrealized_conversion_cast %28 : i64 to index
    %30 = builtin.unrealized_conversion_cast %29 : index to i64
    %31 = llvm.icmp "slt" %30, %18 : i64
    llvm.cond_br %31, ^bb3, ^bb4
  ^bb3:  // pred: ^bb2
    %32 = memref.load %17[%25, %29] : memref<2x3xf32>
    %33 = memref.load %8[%25, %29] : memref<2x3xf32>
    %34 = llvm.fmul %32, %33  : f32
    memref.store %34, %alloc[%25, %29] : memref<2x3xf32>
    %35 = llvm.add %30, %19 : i64
    %36 = builtin.unrealized_conversion_cast %35 : i64 to index
    llvm.br ^bb2(%35 : i64)
  ^bb4:  // pred: ^bb2
    %37 = llvm.add %26, %19 : i64
    %38 = builtin.unrealized_conversion_cast %37 : i64 to index
    llvm.br ^bb1(%37 : i64)
  ^bb5:  // pred: ^bb1
    llvm.return %23 : !llvm.struct<(ptr, ptr, i64, array<2 x i64>, array<2 x i64>)>
  }
  llvm.func @_mlir_ciface_test_mul(%arg0: !llvm.ptr, %arg1: !llvm.ptr, %arg2: !llvm.ptr) attributes {llvm.emit_c_interface} {
    %0 = llvm.load %arg1 : !llvm.ptr -> !llvm.struct<(ptr, ptr, i64, array<2 x i64>, array<2 x i64>)>
    %1 = llvm.extractvalue %0[0] : !llvm.struct<(ptr, ptr, i64, array<2 x i64>, array<2 x i64>)> 
    %2 = llvm.extractvalue %0[1] : !llvm.struct<(ptr, ptr, i64, array<2 x i64>, array<2 x i64>)> 
    %3 = llvm.extractvalue %0[2] : !llvm.struct<(ptr, ptr, i64, array<2 x i64>, array<2 x i64>)> 
    %4 = llvm.extractvalue %0[3, 0] : !llvm.struct<(ptr, ptr, i64, array<2 x i64>, array<2 x i64>)> 
    %5 = llvm.extractvalue %0[3, 1] : !llvm.struct<(ptr, ptr, i64, array<2 x i64>, array<2 x i64>)> 
    %6 = llvm.extractvalue %0[4, 0] : !llvm.struct<(ptr, ptr, i64, array<2 x i64>, array<2 x i64>)> 
    %7 = llvm.extractvalue %0[4, 1] : !llvm.struct<(ptr, ptr, i64, array<2 x i64>, array<2 x i64>)> 
    %8 = llvm.load %arg2 : !llvm.ptr -> !llvm.struct<(ptr, ptr, i64, array<2 x i64>, array<2 x i64>)>
    %9 = llvm.extractvalue %8[0] : !llvm.struct<(ptr, ptr, i64, array<2 x i64>, array<2 x i64>)> 
    %10 = llvm.extractvalue %8[1] : !llvm.struct<(ptr, ptr, i64, array<2 x i64>, array<2 x i64>)> 
    %11 = llvm.extractvalue %8[2] : !llvm.struct<(ptr, ptr, i64, array<2 x i64>, array<2 x i64>)> 
    %12 = llvm.extractvalue %8[3, 0] : !llvm.struct<(ptr, ptr, i64, array<2 x i64>, array<2 x i64>)> 
    %13 = llvm.extractvalue %8[3, 1] : !llvm.struct<(ptr, ptr, i64, array<2 x i64>, array<2 x i64>)> 
    %14 = llvm.extractvalue %8[4, 0] : !llvm.struct<(ptr, ptr, i64, array<2 x i64>, array<2 x i64>)> 
    %15 = llvm.extractvalue %8[4, 1] : !llvm.struct<(ptr, ptr, i64, array<2 x i64>, array<2 x i64>)> 
    %16 = llvm.call @test_mul(%1, %2, %3, %4, %5, %6, %7, %9, %10, %11, %12, %13, %14, %15) : (!llvm.ptr, !llvm.ptr, i64, i64, i64, i64, i64, !llvm.ptr, !llvm.ptr, i64, i64, i64, i64, i64) -> !llvm.struct<(ptr, ptr, i64, array<2 x i64>, array<2 x i64>)>
    llvm.store %16, %arg0 : !llvm.struct<(ptr, ptr, i64, array<2 x i64>, array<2 x i64>)>, !llvm.ptr
    llvm.return
  }
}


// -----// IR Dump After FinalizeMemRefToLLVMConversionPass (finalize-memref-to-llvm) //----- //
module {
  llvm.func @malloc(i64) -> !llvm.ptr
  llvm.func @test_mul(%arg0: !llvm.ptr, %arg1: !llvm.ptr, %arg2: i64, %arg3: i64, %arg4: i64, %arg5: i64, %arg6: i64, %arg7: !llvm.ptr, %arg8: !llvm.ptr, %arg9: i64, %arg10: i64, %arg11: i64, %arg12: i64, %arg13: i64) -> !llvm.struct<(ptr, ptr, i64, array<2 x i64>, array<2 x i64>)> attributes {llvm.emit_c_interface} {
    %0 = llvm.mlir.undef : !llvm.struct<(ptr, ptr, i64, array<2 x i64>, array<2 x i64>)>
    %1 = llvm.insertvalue %arg7, %0[0] : !llvm.struct<(ptr, ptr, i64, array<2 x i64>, array<2 x i64>)> 
    %2 = llvm.insertvalue %arg8, %1[1] : !llvm.struct<(ptr, ptr, i64, array<2 x i64>, array<2 x i64>)> 
    %3 = llvm.insertvalue %arg9, %2[2] : !llvm.struct<(ptr, ptr, i64, array<2 x i64>, array<2 x i64>)> 
    %4 = llvm.insertvalue %arg10, %3[3, 0] : !llvm.struct<(ptr, ptr, i64, array<2 x i64>, array<2 x i64>)> 
    %5 = llvm.insertvalue %arg12, %4[4, 0] : !llvm.struct<(ptr, ptr, i64, array<2 x i64>, array<2 x i64>)> 
    %6 = llvm.insertvalue %arg11, %5[3, 1] : !llvm.struct<(ptr, ptr, i64, array<2 x i64>, array<2 x i64>)> 
    %7 = llvm.insertvalue %arg13, %6[4, 1] : !llvm.struct<(ptr, ptr, i64, array<2 x i64>, array<2 x i64>)> 
    %8 = builtin.unrealized_conversion_cast %7 : !llvm.struct<(ptr, ptr, i64, array<2 x i64>, array<2 x i64>)> to memref<2x3xf32>
    %9 = llvm.mlir.undef : !llvm.struct<(ptr, ptr, i64, array<2 x i64>, array<2 x i64>)>
    %10 = llvm.insertvalue %arg0, %9[0] : !llvm.struct<(ptr, ptr, i64, array<2 x i64>, array<2 x i64>)> 
    %11 = llvm.insertvalue %arg1, %10[1] : !llvm.struct<(ptr, ptr, i64, array<2 x i64>, array<2 x i64>)> 
    %12 = llvm.insertvalue %arg2, %11[2] : !llvm.struct<(ptr, ptr, i64, array<2 x i64>, array<2 x i64>)> 
    %13 = llvm.insertvalue %arg3, %12[3, 0] : !llvm.struct<(ptr, ptr, i64, array<2 x i64>, array<2 x i64>)> 
    %14 = llvm.insertvalue %arg5, %13[4, 0] : !llvm.struct<(ptr, ptr, i64, array<2 x i64>, array<2 x i64>)> 
    %15 = llvm.insertvalue %arg4, %14[3, 1] : !llvm.struct<(ptr, ptr, i64, array<2 x i64>, array<2 x i64>)> 
    %16 = llvm.insertvalue %arg6, %15[4, 1] : !llvm.struct<(ptr, ptr, i64, array<2 x i64>, array<2 x i64>)> 
    %17 = builtin.unrealized_conversion_cast %16 : !llvm.struct<(ptr, ptr, i64, array<2 x i64>, array<2 x i64>)> to memref<2x3xf32>
    %18 = llvm.mlir.constant(3 : index) : i64
    %19 = llvm.mlir.constant(1 : index) : i64
    %20 = llvm.mlir.constant(2 : index) : i64
    %21 = llvm.mlir.constant(0 : index) : i64
    %22 = builtin.unrealized_conversion_cast %21 : i64 to index
    %23 = llvm.mlir.constant(2 : index) : i64
    %24 = llvm.mlir.constant(3 : index) : i64
    %25 = llvm.mlir.constant(1 : index) : i64
    %26 = llvm.mlir.constant(6 : index) : i64
    %27 = llvm.mlir.zero : !llvm.ptr
    %28 = llvm.getelementptr %27[%26] : (!llvm.ptr, i64) -> !llvm.ptr, f32
    %29 = llvm.ptrtoint %28 : !llvm.ptr to i64
    %30 = llvm.mlir.constant(64 : index) : i64
    %31 = llvm.add %29, %30 : i64
    %32 = llvm.call @malloc(%31) : (i64) -> !llvm.ptr
    %33 = llvm.ptrtoint %32 : !llvm.ptr to i64
    %34 = llvm.mlir.constant(1 : index) : i64
    %35 = llvm.sub %30, %34 : i64
    %36 = llvm.add %33, %35 : i64
    %37 = llvm.urem %36, %30  : i64
    %38 = llvm.sub %36, %37 : i64
    %39 = llvm.inttoptr %38 : i64 to !llvm.ptr
    %40 = llvm.mlir.undef : !llvm.struct<(ptr, ptr, i64, array<2 x i64>, array<2 x i64>)>
    %41 = llvm.insertvalue %32, %40[0] : !llvm.struct<(ptr, ptr, i64, array<2 x i64>, array<2 x i64>)> 
    %42 = llvm.insertvalue %39, %41[1] : !llvm.struct<(ptr, ptr, i64, array<2 x i64>, array<2 x i64>)> 
    %43 = llvm.mlir.constant(0 : index) : i64
    %44 = llvm.insertvalue %43, %42[2] : !llvm.struct<(ptr, ptr, i64, array<2 x i64>, array<2 x i64>)> 
    %45 = llvm.insertvalue %23, %44[3, 0] : !llvm.struct<(ptr, ptr, i64, array<2 x i64>, array<2 x i64>)> 
    %46 = llvm.insertvalue %24, %45[3, 1] : !llvm.struct<(ptr, ptr, i64, array<2 x i64>, array<2 x i64>)> 
    %47 = llvm.insertvalue %24, %46[4, 0] : !llvm.struct<(ptr, ptr, i64, array<2 x i64>, array<2 x i64>)> 
    %48 = llvm.insertvalue %25, %47[4, 1] : !llvm.struct<(ptr, ptr, i64, array<2 x i64>, array<2 x i64>)> 
    %49 = builtin.unrealized_conversion_cast %48 : !llvm.struct<(ptr, ptr, i64, array<2 x i64>, array<2 x i64>)> to memref<2x3xf32>
    %50 = builtin.unrealized_conversion_cast %49 : memref<2x3xf32> to !llvm.struct<(ptr, ptr, i64, array<2 x i64>, array<2 x i64>)>
    llvm.br ^bb1(%21 : i64)
  ^bb1(%51: i64):  // 2 preds: ^bb0, ^bb4
    %52 = builtin.unrealized_conversion_cast %51 : i64 to index
    %53 = builtin.unrealized_conversion_cast %52 : index to i64
    %54 = llvm.icmp "slt" %53, %20 : i64
    llvm.cond_br %54, ^bb2(%21 : i64), ^bb5
  ^bb2(%55: i64):  // 2 preds: ^bb1, ^bb3
    %56 = builtin.unrealized_conversion_cast %55 : i64 to index
    %57 = builtin.unrealized_conversion_cast %56 : index to i64
    %58 = llvm.icmp "slt" %57, %18 : i64
    llvm.cond_br %58, ^bb3, ^bb4
  ^bb3:  // pred: ^bb2
    %59 = llvm.extractvalue %16[1] : !llvm.struct<(ptr, ptr, i64, array<2 x i64>, array<2 x i64>)> 
    %60 = llvm.mlir.constant(3 : index) : i64
    %61 = llvm.mul %51, %60 : i64
    %62 = llvm.add %61, %55 : i64
    %63 = llvm.getelementptr %59[%62] : (!llvm.ptr, i64) -> !llvm.ptr, f32
    %64 = llvm.load %63 : !llvm.ptr -> f32
    %65 = llvm.extractvalue %7[1] : !llvm.struct<(ptr, ptr, i64, array<2 x i64>, array<2 x i64>)> 
    %66 = llvm.mlir.constant(3 : index) : i64
    %67 = llvm.mul %51, %66 : i64
    %68 = llvm.add %67, %55 : i64
    %69 = llvm.getelementptr %65[%68] : (!llvm.ptr, i64) -> !llvm.ptr, f32
    %70 = llvm.load %69 : !llvm.ptr -> f32
    %71 = llvm.fmul %64, %70  : f32
    %72 = llvm.extractvalue %48[1] : !llvm.struct<(ptr, ptr, i64, array<2 x i64>, array<2 x i64>)> 
    %73 = llvm.mlir.constant(3 : index) : i64
    %74 = llvm.mul %51, %73 : i64
    %75 = llvm.add %74, %55 : i64
    %76 = llvm.getelementptr %72[%75] : (!llvm.ptr, i64) -> !llvm.ptr, f32
    llvm.store %71, %76 : f32, !llvm.ptr
    %77 = llvm.add %57, %19 : i64
    %78 = builtin.unrealized_conversion_cast %77 : i64 to index
    llvm.br ^bb2(%77 : i64)
  ^bb4:  // pred: ^bb2
    %79 = llvm.add %53, %19 : i64
    %80 = builtin.unrealized_conversion_cast %79 : i64 to index
    llvm.br ^bb1(%79 : i64)
  ^bb5:  // pred: ^bb1
    llvm.return %50 : !llvm.struct<(ptr, ptr, i64, array<2 x i64>, array<2 x i64>)>
  }
  llvm.func @_mlir_ciface_test_mul(%arg0: !llvm.ptr, %arg1: !llvm.ptr, %arg2: !llvm.ptr) attributes {llvm.emit_c_interface} {
    %0 = llvm.load %arg1 : !llvm.ptr -> !llvm.struct<(ptr, ptr, i64, array<2 x i64>, array<2 x i64>)>
    %1 = llvm.extractvalue %0[0] : !llvm.struct<(ptr, ptr, i64, array<2 x i64>, array<2 x i64>)> 
    %2 = llvm.extractvalue %0[1] : !llvm.struct<(ptr, ptr, i64, array<2 x i64>, array<2 x i64>)> 
    %3 = llvm.extractvalue %0[2] : !llvm.struct<(ptr, ptr, i64, array<2 x i64>, array<2 x i64>)> 
    %4 = llvm.extractvalue %0[3, 0] : !llvm.struct<(ptr, ptr, i64, array<2 x i64>, array<2 x i64>)> 
    %5 = llvm.extractvalue %0[3, 1] : !llvm.struct<(ptr, ptr, i64, array<2 x i64>, array<2 x i64>)> 
    %6 = llvm.extractvalue %0[4, 0] : !llvm.struct<(ptr, ptr, i64, array<2 x i64>, array<2 x i64>)> 
    %7 = llvm.extractvalue %0[4, 1] : !llvm.struct<(ptr, ptr, i64, array<2 x i64>, array<2 x i64>)> 
    %8 = llvm.load %arg2 : !llvm.ptr -> !llvm.struct<(ptr, ptr, i64, array<2 x i64>, array<2 x i64>)>
    %9 = llvm.extractvalue %8[0] : !llvm.struct<(ptr, ptr, i64, array<2 x i64>, array<2 x i64>)> 
    %10 = llvm.extractvalue %8[1] : !llvm.struct<(ptr, ptr, i64, array<2 x i64>, array<2 x i64>)> 
    %11 = llvm.extractvalue %8[2] : !llvm.struct<(ptr, ptr, i64, array<2 x i64>, array<2 x i64>)> 
    %12 = llvm.extractvalue %8[3, 0] : !llvm.struct<(ptr, ptr, i64, array<2 x i64>, array<2 x i64>)> 
    %13 = llvm.extractvalue %8[3, 1] : !llvm.struct<(ptr, ptr, i64, array<2 x i64>, array<2 x i64>)> 
    %14 = llvm.extractvalue %8[4, 0] : !llvm.struct<(ptr, ptr, i64, array<2 x i64>, array<2 x i64>)> 
    %15 = llvm.extractvalue %8[4, 1] : !llvm.struct<(ptr, ptr, i64, array<2 x i64>, array<2 x i64>)> 
    %16 = llvm.call @test_mul(%1, %2, %3, %4, %5, %6, %7, %9, %10, %11, %12, %13, %14, %15) : (!llvm.ptr, !llvm.ptr, i64, i64, i64, i64, i64, !llvm.ptr, !llvm.ptr, i64, i64, i64, i64, i64) -> !llvm.struct<(ptr, ptr, i64, array<2 x i64>, array<2 x i64>)>
    llvm.store %16, %arg0 : !llvm.struct<(ptr, ptr, i64, array<2 x i64>, array<2 x i64>)>, !llvm.ptr
    llvm.return
  }
}


// -----// IR Dump After ReconcileUnrealizedCasts (reconcile-unrealized-casts) //----- //
module {
  llvm.func @malloc(i64) -> !llvm.ptr
  llvm.func @test_mul(%arg0: !llvm.ptr, %arg1: !llvm.ptr, %arg2: i64, %arg3: i64, %arg4: i64, %arg5: i64, %arg6: i64, %arg7: !llvm.ptr, %arg8: !llvm.ptr, %arg9: i64, %arg10: i64, %arg11: i64, %arg12: i64, %arg13: i64) -> !llvm.struct<(ptr, ptr, i64, array<2 x i64>, array<2 x i64>)> attributes {llvm.emit_c_interface} {
    %0 = llvm.mlir.undef : !llvm.struct<(ptr, ptr, i64, array<2 x i64>, array<2 x i64>)>
    %1 = llvm.insertvalue %arg7, %0[0] : !llvm.struct<(ptr, ptr, i64, array<2 x i64>, array<2 x i64>)> 
    %2 = llvm.insertvalue %arg8, %1[1] : !llvm.struct<(ptr, ptr, i64, array<2 x i64>, array<2 x i64>)> 
    %3 = llvm.insertvalue %arg9, %2[2] : !llvm.struct<(ptr, ptr, i64, array<2 x i64>, array<2 x i64>)> 
    %4 = llvm.insertvalue %arg10, %3[3, 0] : !llvm.struct<(ptr, ptr, i64, array<2 x i64>, array<2 x i64>)> 
    %5 = llvm.insertvalue %arg12, %4[4, 0] : !llvm.struct<(ptr, ptr, i64, array<2 x i64>, array<2 x i64>)> 
    %6 = llvm.insertvalue %arg11, %5[3, 1] : !llvm.struct<(ptr, ptr, i64, array<2 x i64>, array<2 x i64>)> 
    %7 = llvm.insertvalue %arg13, %6[4, 1] : !llvm.struct<(ptr, ptr, i64, array<2 x i64>, array<2 x i64>)> 
    %8 = llvm.mlir.undef : !llvm.struct<(ptr, ptr, i64, array<2 x i64>, array<2 x i64>)>
    %9 = llvm.insertvalue %arg0, %8[0] : !llvm.struct<(ptr, ptr, i64, array<2 x i64>, array<2 x i64>)> 
    %10 = llvm.insertvalue %arg1, %9[1] : !llvm.struct<(ptr, ptr, i64, array<2 x i64>, array<2 x i64>)> 
    %11 = llvm.insertvalue %arg2, %10[2] : !llvm.struct<(ptr, ptr, i64, array<2 x i64>, array<2 x i64>)> 
    %12 = llvm.insertvalue %arg3, %11[3, 0] : !llvm.struct<(ptr, ptr, i64, array<2 x i64>, array<2 x i64>)> 
    %13 = llvm.insertvalue %arg5, %12[4, 0] : !llvm.struct<(ptr, ptr, i64, array<2 x i64>, array<2 x i64>)> 
    %14 = llvm.insertvalue %arg4, %13[3, 1] : !llvm.struct<(ptr, ptr, i64, array<2 x i64>, array<2 x i64>)> 
    %15 = llvm.insertvalue %arg6, %14[4, 1] : !llvm.struct<(ptr, ptr, i64, array<2 x i64>, array<2 x i64>)> 
    %16 = llvm.mlir.constant(3 : index) : i64
    %17 = llvm.mlir.constant(1 : index) : i64
    %18 = llvm.mlir.constant(2 : index) : i64
    %19 = llvm.mlir.constant(0 : index) : i64
    %20 = llvm.mlir.constant(2 : index) : i64
    %21 = llvm.mlir.constant(3 : index) : i64
    %22 = llvm.mlir.constant(1 : index) : i64
    %23 = llvm.mlir.constant(6 : index) : i64
    %24 = llvm.mlir.zero : !llvm.ptr
    %25 = llvm.getelementptr %24[%23] : (!llvm.ptr, i64) -> !llvm.ptr, f32
    %26 = llvm.ptrtoint %25 : !llvm.ptr to i64
    %27 = llvm.mlir.constant(64 : index) : i64
    %28 = llvm.add %26, %27 : i64
    %29 = llvm.call @malloc(%28) : (i64) -> !llvm.ptr
    %30 = llvm.ptrtoint %29 : !llvm.ptr to i64
    %31 = llvm.mlir.constant(1 : index) : i64
    %32 = llvm.sub %27, %31 : i64
    %33 = llvm.add %30, %32 : i64
    %34 = llvm.urem %33, %27  : i64
    %35 = llvm.sub %33, %34 : i64
    %36 = llvm.inttoptr %35 : i64 to !llvm.ptr
    %37 = llvm.mlir.undef : !llvm.struct<(ptr, ptr, i64, array<2 x i64>, array<2 x i64>)>
    %38 = llvm.insertvalue %29, %37[0] : !llvm.struct<(ptr, ptr, i64, array<2 x i64>, array<2 x i64>)> 
    %39 = llvm.insertvalue %36, %38[1] : !llvm.struct<(ptr, ptr, i64, array<2 x i64>, array<2 x i64>)> 
    %40 = llvm.mlir.constant(0 : index) : i64
    %41 = llvm.insertvalue %40, %39[2] : !llvm.struct<(ptr, ptr, i64, array<2 x i64>, array<2 x i64>)> 
    %42 = llvm.insertvalue %20, %41[3, 0] : !llvm.struct<(ptr, ptr, i64, array<2 x i64>, array<2 x i64>)> 
    %43 = llvm.insertvalue %21, %42[3, 1] : !llvm.struct<(ptr, ptr, i64, array<2 x i64>, array<2 x i64>)> 
    %44 = llvm.insertvalue %21, %43[4, 0] : !llvm.struct<(ptr, ptr, i64, array<2 x i64>, array<2 x i64>)> 
    %45 = llvm.insertvalue %22, %44[4, 1] : !llvm.struct<(ptr, ptr, i64, array<2 x i64>, array<2 x i64>)> 
    llvm.br ^bb1(%19 : i64)
  ^bb1(%46: i64):  // 2 preds: ^bb0, ^bb4
    %47 = llvm.icmp "slt" %46, %18 : i64
    llvm.cond_br %47, ^bb2(%19 : i64), ^bb5
  ^bb2(%48: i64):  // 2 preds: ^bb1, ^bb3
    %49 = llvm.icmp "slt" %48, %16 : i64
    llvm.cond_br %49, ^bb3, ^bb4
  ^bb3:  // pred: ^bb2
    %50 = llvm.extractvalue %15[1] : !llvm.struct<(ptr, ptr, i64, array<2 x i64>, array<2 x i64>)> 
    %51 = llvm.mlir.constant(3 : index) : i64
    %52 = llvm.mul %46, %51 : i64
    %53 = llvm.add %52, %48 : i64
    %54 = llvm.getelementptr %50[%53] : (!llvm.ptr, i64) -> !llvm.ptr, f32
    %55 = llvm.load %54 : !llvm.ptr -> f32
    %56 = llvm.extractvalue %7[1] : !llvm.struct<(ptr, ptr, i64, array<2 x i64>, array<2 x i64>)> 
    %57 = llvm.mlir.constant(3 : index) : i64
    %58 = llvm.mul %46, %57 : i64
    %59 = llvm.add %58, %48 : i64
    %60 = llvm.getelementptr %56[%59] : (!llvm.ptr, i64) -> !llvm.ptr, f32
    %61 = llvm.load %60 : !llvm.ptr -> f32
    %62 = llvm.fmul %55, %61  : f32
    %63 = llvm.extractvalue %45[1] : !llvm.struct<(ptr, ptr, i64, array<2 x i64>, array<2 x i64>)> 
    %64 = llvm.mlir.constant(3 : index) : i64
    %65 = llvm.mul %46, %64 : i64
    %66 = llvm.add %65, %48 : i64
    %67 = llvm.getelementptr %63[%66] : (!llvm.ptr, i64) -> !llvm.ptr, f32
    llvm.store %62, %67 : f32, !llvm.ptr
    %68 = llvm.add %48, %17 : i64
    llvm.br ^bb2(%68 : i64)
  ^bb4:  // pred: ^bb2
    %69 = llvm.add %46, %17 : i64
    llvm.br ^bb1(%69 : i64)
  ^bb5:  // pred: ^bb1
    llvm.return %45 : !llvm.struct<(ptr, ptr, i64, array<2 x i64>, array<2 x i64>)>
  }
  llvm.func @_mlir_ciface_test_mul(%arg0: !llvm.ptr, %arg1: !llvm.ptr, %arg2: !llvm.ptr) attributes {llvm.emit_c_interface} {
    %0 = llvm.load %arg1 : !llvm.ptr -> !llvm.struct<(ptr, ptr, i64, array<2 x i64>, array<2 x i64>)>
    %1 = llvm.extractvalue %0[0] : !llvm.struct<(ptr, ptr, i64, array<2 x i64>, array<2 x i64>)> 
    %2 = llvm.extractvalue %0[1] : !llvm.struct<(ptr, ptr, i64, array<2 x i64>, array<2 x i64>)> 
    %3 = llvm.extractvalue %0[2] : !llvm.struct<(ptr, ptr, i64, array<2 x i64>, array<2 x i64>)> 
    %4 = llvm.extractvalue %0[3, 0] : !llvm.struct<(ptr, ptr, i64, array<2 x i64>, array<2 x i64>)> 
    %5 = llvm.extractvalue %0[3, 1] : !llvm.struct<(ptr, ptr, i64, array<2 x i64>, array<2 x i64>)> 
    %6 = llvm.extractvalue %0[4, 0] : !llvm.struct<(ptr, ptr, i64, array<2 x i64>, array<2 x i64>)> 
    %7 = llvm.extractvalue %0[4, 1] : !llvm.struct<(ptr, ptr, i64, array<2 x i64>, array<2 x i64>)> 
    %8 = llvm.load %arg2 : !llvm.ptr -> !llvm.struct<(ptr, ptr, i64, array<2 x i64>, array<2 x i64>)>
    %9 = llvm.extractvalue %8[0] : !llvm.struct<(ptr, ptr, i64, array<2 x i64>, array<2 x i64>)> 
    %10 = llvm.extractvalue %8[1] : !llvm.struct<(ptr, ptr, i64, array<2 x i64>, array<2 x i64>)> 
    %11 = llvm.extractvalue %8[2] : !llvm.struct<(ptr, ptr, i64, array<2 x i64>, array<2 x i64>)> 
    %12 = llvm.extractvalue %8[3, 0] : !llvm.struct<(ptr, ptr, i64, array<2 x i64>, array<2 x i64>)> 
    %13 = llvm.extractvalue %8[3, 1] : !llvm.struct<(ptr, ptr, i64, array<2 x i64>, array<2 x i64>)> 
    %14 = llvm.extractvalue %8[4, 0] : !llvm.struct<(ptr, ptr, i64, array<2 x i64>, array<2 x i64>)> 
    %15 = llvm.extractvalue %8[4, 1] : !llvm.struct<(ptr, ptr, i64, array<2 x i64>, array<2 x i64>)> 
    %16 = llvm.call @test_mul(%1, %2, %3, %4, %5, %6, %7, %9, %10, %11, %12, %13, %14, %15) : (!llvm.ptr, !llvm.ptr, i64, i64, i64, i64, i64, !llvm.ptr, !llvm.ptr, i64, i64, i64, i64, i64) -> !llvm.struct<(ptr, ptr, i64, array<2 x i64>, array<2 x i64>)>
    llvm.store %16, %arg0 : !llvm.struct<(ptr, ptr, i64, array<2 x i64>, array<2 x i64>)>, !llvm.ptr
    llvm.return
  }
}


module {
  llvm.func @malloc(i64) -> !llvm.ptr
  llvm.func @test_mul(%arg0: !llvm.ptr, %arg1: !llvm.ptr, %arg2: i64, %arg3: i64, %arg4: i64, %arg5: i64, %arg6: i64, %arg7: !llvm.ptr, %arg8: !llvm.ptr, %arg9: i64, %arg10: i64, %arg11: i64, %arg12: i64, %arg13: i64) -> !llvm.struct<(ptr, ptr, i64, array<2 x i64>, array<2 x i64>)> attributes {llvm.emit_c_interface} {
    %0 = llvm.mlir.undef : !llvm.struct<(ptr, ptr, i64, array<2 x i64>, array<2 x i64>)>
    %1 = llvm.insertvalue %arg7, %0[0] : !llvm.struct<(ptr, ptr, i64, array<2 x i64>, array<2 x i64>)> 
    %2 = llvm.insertvalue %arg8, %1[1] : !llvm.struct<(ptr, ptr, i64, array<2 x i64>, array<2 x i64>)> 
    %3 = llvm.insertvalue %arg9, %2[2] : !llvm.struct<(ptr, ptr, i64, array<2 x i64>, array<2 x i64>)> 
    %4 = llvm.insertvalue %arg10, %3[3, 0] : !llvm.struct<(ptr, ptr, i64, array<2 x i64>, array<2 x i64>)> 
    %5 = llvm.insertvalue %arg12, %4[4, 0] : !llvm.struct<(ptr, ptr, i64, array<2 x i64>, array<2 x i64>)> 
    %6 = llvm.insertvalue %arg11, %5[3, 1] : !llvm.struct<(ptr, ptr, i64, array<2 x i64>, array<2 x i64>)> 
    %7 = llvm.insertvalue %arg13, %6[4, 1] : !llvm.struct<(ptr, ptr, i64, array<2 x i64>, array<2 x i64>)> 
    %8 = llvm.mlir.undef : !llvm.struct<(ptr, ptr, i64, array<2 x i64>, array<2 x i64>)>
    %9 = llvm.insertvalue %arg0, %8[0] : !llvm.struct<(ptr, ptr, i64, array<2 x i64>, array<2 x i64>)> 
    %10 = llvm.insertvalue %arg1, %9[1] : !llvm.struct<(ptr, ptr, i64, array<2 x i64>, array<2 x i64>)> 
    %11 = llvm.insertvalue %arg2, %10[2] : !llvm.struct<(ptr, ptr, i64, array<2 x i64>, array<2 x i64>)> 
    %12 = llvm.insertvalue %arg3, %11[3, 0] : !llvm.struct<(ptr, ptr, i64, array<2 x i64>, array<2 x i64>)> 
    %13 = llvm.insertvalue %arg5, %12[4, 0] : !llvm.struct<(ptr, ptr, i64, array<2 x i64>, array<2 x i64>)> 
    %14 = llvm.insertvalue %arg4, %13[3, 1] : !llvm.struct<(ptr, ptr, i64, array<2 x i64>, array<2 x i64>)> 
    %15 = llvm.insertvalue %arg6, %14[4, 1] : !llvm.struct<(ptr, ptr, i64, array<2 x i64>, array<2 x i64>)> 
    %16 = llvm.mlir.constant(3 : index) : i64
    %17 = llvm.mlir.constant(1 : index) : i64
    %18 = llvm.mlir.constant(2 : index) : i64
    %19 = llvm.mlir.constant(0 : index) : i64
    %20 = llvm.mlir.constant(2 : index) : i64
    %21 = llvm.mlir.constant(3 : index) : i64
    %22 = llvm.mlir.constant(1 : index) : i64
    %23 = llvm.mlir.constant(6 : index) : i64
    %24 = llvm.mlir.zero : !llvm.ptr
    %25 = llvm.getelementptr %24[%23] : (!llvm.ptr, i64) -> !llvm.ptr, f32
    %26 = llvm.ptrtoint %25 : !llvm.ptr to i64
    %27 = llvm.mlir.constant(64 : index) : i64
    %28 = llvm.add %26, %27 : i64
    %29 = llvm.call @malloc(%28) : (i64) -> !llvm.ptr
    %30 = llvm.ptrtoint %29 : !llvm.ptr to i64
    %31 = llvm.mlir.constant(1 : index) : i64
    %32 = llvm.sub %27, %31 : i64
    %33 = llvm.add %30, %32 : i64
    %34 = llvm.urem %33, %27  : i64
    %35 = llvm.sub %33, %34 : i64
    %36 = llvm.inttoptr %35 : i64 to !llvm.ptr
    %37 = llvm.mlir.undef : !llvm.struct<(ptr, ptr, i64, array<2 x i64>, array<2 x i64>)>
    %38 = llvm.insertvalue %29, %37[0] : !llvm.struct<(ptr, ptr, i64, array<2 x i64>, array<2 x i64>)> 
    %39 = llvm.insertvalue %36, %38[1] : !llvm.struct<(ptr, ptr, i64, array<2 x i64>, array<2 x i64>)> 
    %40 = llvm.mlir.constant(0 : index) : i64
    %41 = llvm.insertvalue %40, %39[2] : !llvm.struct<(ptr, ptr, i64, array<2 x i64>, array<2 x i64>)> 
    %42 = llvm.insertvalue %20, %41[3, 0] : !llvm.struct<(ptr, ptr, i64, array<2 x i64>, array<2 x i64>)> 
    %43 = llvm.insertvalue %21, %42[3, 1] : !llvm.struct<(ptr, ptr, i64, array<2 x i64>, array<2 x i64>)> 
    %44 = llvm.insertvalue %21, %43[4, 0] : !llvm.struct<(ptr, ptr, i64, array<2 x i64>, array<2 x i64>)> 
    %45 = llvm.insertvalue %22, %44[4, 1] : !llvm.struct<(ptr, ptr, i64, array<2 x i64>, array<2 x i64>)> 
    llvm.br ^bb1(%19 : i64)
  ^bb1(%46: i64):  // 2 preds: ^bb0, ^bb4
    %47 = llvm.icmp "slt" %46, %18 : i64
    llvm.cond_br %47, ^bb2(%19 : i64), ^bb5
  ^bb2(%48: i64):  // 2 preds: ^bb1, ^bb3
    %49 = llvm.icmp "slt" %48, %16 : i64
    llvm.cond_br %49, ^bb3, ^bb4
  ^bb3:  // pred: ^bb2
    %50 = llvm.extractvalue %15[1] : !llvm.struct<(ptr, ptr, i64, array<2 x i64>, array<2 x i64>)> 
    %51 = llvm.mlir.constant(3 : index) : i64
    %52 = llvm.mul %46, %51 : i64
    %53 = llvm.add %52, %48 : i64
    %54 = llvm.getelementptr %50[%53] : (!llvm.ptr, i64) -> !llvm.ptr, f32
    %55 = llvm.load %54 : !llvm.ptr -> f32
    %56 = llvm.extractvalue %7[1] : !llvm.struct<(ptr, ptr, i64, array<2 x i64>, array<2 x i64>)> 
    %57 = llvm.mlir.constant(3 : index) : i64
    %58 = llvm.mul %46, %57 : i64
    %59 = llvm.add %58, %48 : i64
    %60 = llvm.getelementptr %56[%59] : (!llvm.ptr, i64) -> !llvm.ptr, f32
    %61 = llvm.load %60 : !llvm.ptr -> f32
    %62 = llvm.fmul %55, %61  : f32
    %63 = llvm.extractvalue %45[1] : !llvm.struct<(ptr, ptr, i64, array<2 x i64>, array<2 x i64>)> 
    %64 = llvm.mlir.constant(3 : index) : i64
    %65 = llvm.mul %46, %64 : i64
    %66 = llvm.add %65, %48 : i64
    %67 = llvm.getelementptr %63[%66] : (!llvm.ptr, i64) -> !llvm.ptr, f32
    llvm.store %62, %67 : f32, !llvm.ptr
    %68 = llvm.add %48, %17 : i64
    llvm.br ^bb2(%68 : i64)
  ^bb4:  // pred: ^bb2
    %69 = llvm.add %46, %17 : i64
    llvm.br ^bb1(%69 : i64)
  ^bb5:  // pred: ^bb1
    llvm.return %45 : !llvm.struct<(ptr, ptr, i64, array<2 x i64>, array<2 x i64>)>
  }
  llvm.func @_mlir_ciface_test_mul(%arg0: !llvm.ptr, %arg1: !llvm.ptr, %arg2: !llvm.ptr) attributes {llvm.emit_c_interface} {
    %0 = llvm.load %arg1 : !llvm.ptr -> !llvm.struct<(ptr, ptr, i64, array<2 x i64>, array<2 x i64>)>
    %1 = llvm.extractvalue %0[0] : !llvm.struct<(ptr, ptr, i64, array<2 x i64>, array<2 x i64>)> 
    %2 = llvm.extractvalue %0[1] : !llvm.struct<(ptr, ptr, i64, array<2 x i64>, array<2 x i64>)> 
    %3 = llvm.extractvalue %0[2] : !llvm.struct<(ptr, ptr, i64, array<2 x i64>, array<2 x i64>)> 
    %4 = llvm.extractvalue %0[3, 0] : !llvm.struct<(ptr, ptr, i64, array<2 x i64>, array<2 x i64>)> 
    %5 = llvm.extractvalue %0[3, 1] : !llvm.struct<(ptr, ptr, i64, array<2 x i64>, array<2 x i64>)> 
    %6 = llvm.extractvalue %0[4, 0] : !llvm.struct<(ptr, ptr, i64, array<2 x i64>, array<2 x i64>)> 
    %7 = llvm.extractvalue %0[4, 1] : !llvm.struct<(ptr, ptr, i64, array<2 x i64>, array<2 x i64>)> 
    %8 = llvm.load %arg2 : !llvm.ptr -> !llvm.struct<(ptr, ptr, i64, array<2 x i64>, array<2 x i64>)>
    %9 = llvm.extractvalue %8[0] : !llvm.struct<(ptr, ptr, i64, array<2 x i64>, array<2 x i64>)> 
    %10 = llvm.extractvalue %8[1] : !llvm.struct<(ptr, ptr, i64, array<2 x i64>, array<2 x i64>)> 
    %11 = llvm.extractvalue %8[2] : !llvm.struct<(ptr, ptr, i64, array<2 x i64>, array<2 x i64>)> 
    %12 = llvm.extractvalue %8[3, 0] : !llvm.struct<(ptr, ptr, i64, array<2 x i64>, array<2 x i64>)> 
    %13 = llvm.extractvalue %8[3, 1] : !llvm.struct<(ptr, ptr, i64, array<2 x i64>, array<2 x i64>)> 
    %14 = llvm.extractvalue %8[4, 0] : !llvm.struct<(ptr, ptr, i64, array<2 x i64>, array<2 x i64>)> 
    %15 = llvm.extractvalue %8[4, 1] : !llvm.struct<(ptr, ptr, i64, array<2 x i64>, array<2 x i64>)> 
    %16 = llvm.call @test_mul(%1, %2, %3, %4, %5, %6, %7, %9, %10, %11, %12, %13, %14, %15) : (!llvm.ptr, !llvm.ptr, i64, i64, i64, i64, i64, !llvm.ptr, !llvm.ptr, i64, i64, i64, i64, i64) -> !llvm.struct<(ptr, ptr, i64, array<2 x i64>, array<2 x i64>)>
    llvm.store %16, %arg0 : !llvm.struct<(ptr, ptr, i64, array<2 x i64>, array<2 x i64>)>, !llvm.ptr
    llvm.return
  }
}
