./build/bin/mx-opt --mlir-print-ir-after-all ./test/Mx/transposetest.mlir 2> ./test/IR_Dump/transpose.txt

// -----// IR Dump After {anonymous}::MxToTosaLowerPass () //----- //
module {
  func.func @test_transpose(%arg0: tensor<2x3xf32>, %arg1: tensor<2xi32>) -> tensor<3x2xf32> attributes {llvm.emit_c_interface} {
    %cst = arith.constant dense<[1, 0]> : tensor<2xi32>
    %0 = tosa.transpose %arg0, %cst : (tensor<2x3xf32>, tensor<2xi32>) -> tensor<3x2xf32>
    return %0 : tensor<3x2xf32>
  }
}


// -----// IR Dump After TosaToTensor (tosa-to-tensor) //----- //
module {
  func.func @test_transpose(%arg0: tensor<2x3xf32>, %arg1: tensor<2xi32>) -> tensor<3x2xf32> attributes {llvm.emit_c_interface} {
    %cst = arith.constant dense<[1, 0]> : tensor<2xi32>
    %0 = tosa.transpose %arg0, %cst : (tensor<2x3xf32>, tensor<2xi32>) -> tensor<3x2xf32>
    return %0 : tensor<3x2xf32>
  }
}


// -----// IR Dump After TosaToLinalgNamed (tosa-to-linalg-named) //----- //
func.func @test_transpose(%arg0: tensor<2x3xf32>, %arg1: tensor<2xi32>) -> tensor<3x2xf32> attributes {llvm.emit_c_interface} {
  %cst = arith.constant dense<[1, 0]> : tensor<2xi32>
  %0 = tensor.empty() : tensor<3x2xf32>
  %transposed = linalg.transpose ins(%arg0 : tensor<2x3xf32>) outs(%0 : tensor<3x2xf32>) permutation = [1, 0] 
  return %transposed : tensor<3x2xf32>
}

// -----// IR Dump After TosaToLinalg (tosa-to-linalg) //----- //
func.func @test_transpose(%arg0: tensor<2x3xf32>, %arg1: tensor<2xi32>) -> tensor<3x2xf32> attributes {llvm.emit_c_interface} {
  %cst = arith.constant dense<[1, 0]> : tensor<2xi32>
  %0 = tensor.empty() : tensor<3x2xf32>
  %transposed = linalg.transpose ins(%arg0 : tensor<2x3xf32>) outs(%0 : tensor<3x2xf32>) permutation = [1, 0] 
  return %transposed : tensor<3x2xf32>
}

// -----// IR Dump After OneShotBufferize (one-shot-bufferize) //----- //
module {
  memref.global "private" constant @__constant_2xi32 : memref<2xi32> = dense<[1, 0]> {alignment = 64 : i64}
  func.func @test_transpose(%arg0: tensor<2x3xf32>, %arg1: tensor<2xi32>) -> tensor<3x2xf32> attributes {llvm.emit_c_interface} {
    %0 = bufferization.to_memref %arg0 : memref<2x3xf32, strided<[?, ?], offset: ?>>
    %1 = memref.get_global @__constant_2xi32 : memref<2xi32>
    %alloc = memref.alloc() {alignment = 64 : i64} : memref<3x2xf32>
    linalg.transpose ins(%0 : memref<2x3xf32, strided<[?, ?], offset: ?>>) outs(%alloc : memref<3x2xf32>) permutation = [1, 0] 
    %2 = bufferization.to_tensor %alloc : memref<3x2xf32>
    return %2 : tensor<3x2xf32>
  }
}


// -----// IR Dump After FuncBufferize (func-bufferize) //----- //
module {
  memref.global "private" constant @__constant_2xi32 : memref<2xi32> = dense<[1, 0]> {alignment = 64 : i64}
  func.func @test_transpose(%arg0: memref<2x3xf32>, %arg1: memref<2xi32>) -> memref<3x2xf32> attributes {llvm.emit_c_interface} {
    %0 = bufferization.to_tensor %arg0 : memref<2x3xf32>
    %1 = bufferization.to_memref %0 : memref<2x3xf32, strided<[?, ?], offset: ?>>
    %2 = memref.get_global @__constant_2xi32 : memref<2xi32>
    %alloc = memref.alloc() {alignment = 64 : i64} : memref<3x2xf32>
    linalg.transpose ins(%1 : memref<2x3xf32, strided<[?, ?], offset: ?>>) outs(%alloc : memref<3x2xf32>) permutation = [1, 0] 
    %3 = bufferization.to_tensor %alloc : memref<3x2xf32>
    %4 = bufferization.to_memref %3 : memref<3x2xf32>
    return %4 : memref<3x2xf32>
  }
}


// -----// IR Dump After ConvertLinalgToAffineLoopsPass (convert-linalg-to-affine-loops) //----- //
func.func @test_transpose(%arg0: memref<2x3xf32>, %arg1: memref<2xi32>) -> memref<3x2xf32> attributes {llvm.emit_c_interface} {
  %0 = bufferization.to_tensor %arg0 : memref<2x3xf32>
  %1 = bufferization.to_memref %0 : memref<2x3xf32, strided<[?, ?], offset: ?>>
  %alloc = memref.alloc() {alignment = 64 : i64} : memref<3x2xf32>
  affine.for %arg2 = 0 to 3 {
    affine.for %arg3 = 0 to 2 {
      %2 = affine.load %1[%arg3, %arg2] : memref<2x3xf32, strided<[?, ?], offset: ?>>
      affine.store %2, %alloc[%arg2, %arg3] : memref<3x2xf32>
    }
  }
  return %alloc : memref<3x2xf32>
}

// -----// IR Dump After ConvertAffineToStandard (lower-affine) //----- //
func.func @test_transpose(%arg0: memref<2x3xf32>, %arg1: memref<2xi32>) -> memref<3x2xf32> attributes {llvm.emit_c_interface} {
  %0 = bufferization.to_tensor %arg0 : memref<2x3xf32>
  %1 = bufferization.to_memref %0 : memref<2x3xf32, strided<[?, ?], offset: ?>>
  %alloc = memref.alloc() {alignment = 64 : i64} : memref<3x2xf32>
  %c0 = arith.constant 0 : index
  %c3 = arith.constant 3 : index
  %c1 = arith.constant 1 : index
  scf.for %arg2 = %c0 to %c3 step %c1 {
    %c0_0 = arith.constant 0 : index
    %c2 = arith.constant 2 : index
    %c1_1 = arith.constant 1 : index
    scf.for %arg3 = %c0_0 to %c2 step %c1_1 {
      %2 = memref.load %1[%arg3, %arg2] : memref<2x3xf32, strided<[?, ?], offset: ?>>
      memref.store %2, %alloc[%arg2, %arg3] : memref<3x2xf32>
    }
  }
  return %alloc : memref<3x2xf32>
}

// -----// IR Dump After SCFToControlFlow (convert-scf-to-cf) //----- //
module {
  memref.global "private" constant @__constant_2xi32 : memref<2xi32> = dense<[1, 0]> {alignment = 64 : i64}
  func.func @test_transpose(%arg0: memref<2x3xf32>, %arg1: memref<2xi32>) -> memref<3x2xf32> attributes {llvm.emit_c_interface} {
    %0 = bufferization.to_tensor %arg0 : memref<2x3xf32>
    %1 = bufferization.to_memref %0 : memref<2x3xf32, strided<[?, ?], offset: ?>>
    %alloc = memref.alloc() {alignment = 64 : i64} : memref<3x2xf32>
    %c0 = arith.constant 0 : index
    %c3 = arith.constant 3 : index
    %c1 = arith.constant 1 : index
    cf.br ^bb1(%c0 : index)
  ^bb1(%2: index):  // 2 preds: ^bb0, ^bb5
    %3 = arith.cmpi slt, %2, %c3 : index
    cf.cond_br %3, ^bb2, ^bb6
  ^bb2:  // pred: ^bb1
    %c0_0 = arith.constant 0 : index
    %c2 = arith.constant 2 : index
    %c1_1 = arith.constant 1 : index
    cf.br ^bb3(%c0_0 : index)
  ^bb3(%4: index):  // 2 preds: ^bb2, ^bb4
    %5 = arith.cmpi slt, %4, %c2 : index
    cf.cond_br %5, ^bb4, ^bb5
  ^bb4:  // pred: ^bb3
    %6 = memref.load %1[%4, %2] : memref<2x3xf32, strided<[?, ?], offset: ?>>
    memref.store %6, %alloc[%2, %4] : memref<3x2xf32>
    %7 = arith.addi %4, %c1_1 : index
    cf.br ^bb3(%7 : index)
  ^bb5:  // pred: ^bb3
    %8 = arith.addi %2, %c1 : index
    cf.br ^bb1(%8 : index)
  ^bb6:  // pred: ^bb1
    return %alloc : memref<3x2xf32>
  }
}


// -----// IR Dump After Canonicalizer (canonicalize) //----- //
module {
  memref.global "private" constant @__constant_2xi32 : memref<2xi32> = dense<[1, 0]> {alignment = 64 : i64}
  func.func @test_transpose(%arg0: memref<2x3xf32>, %arg1: memref<2xi32>) -> memref<3x2xf32> attributes {llvm.emit_c_interface} {
    %c2 = arith.constant 2 : index
    %c1 = arith.constant 1 : index
    %c3 = arith.constant 3 : index
    %c0 = arith.constant 0 : index
    %alloc = memref.alloc() {alignment = 64 : i64} : memref<3x2xf32>
    cf.br ^bb1(%c0 : index)
  ^bb1(%0: index):  // 2 preds: ^bb0, ^bb4
    %1 = arith.cmpi slt, %0, %c3 : index
    cf.cond_br %1, ^bb2(%c0 : index), ^bb5
  ^bb2(%2: index):  // 2 preds: ^bb1, ^bb3
    %3 = arith.cmpi slt, %2, %c2 : index
    cf.cond_br %3, ^bb3, ^bb4
  ^bb3:  // pred: ^bb2
    %4 = memref.load %arg0[%2, %0] : memref<2x3xf32>
    memref.store %4, %alloc[%0, %2] : memref<3x2xf32>
    %5 = arith.addi %2, %c1 : index
    cf.br ^bb2(%5 : index)
  ^bb4:  // pred: ^bb2
    %6 = arith.addi %0, %c1 : index
    cf.br ^bb1(%6 : index)
  ^bb5:  // pred: ^bb1
    return %alloc : memref<3x2xf32>
  }
}


// -----// IR Dump After ExpandStridedMetadata (expand-strided-metadata) //----- //
module {
  memref.global "private" constant @__constant_2xi32 : memref<2xi32> = dense<[1, 0]> {alignment = 64 : i64}
  func.func @test_transpose(%arg0: memref<2x3xf32>, %arg1: memref<2xi32>) -> memref<3x2xf32> attributes {llvm.emit_c_interface} {
    %c2 = arith.constant 2 : index
    %c1 = arith.constant 1 : index
    %c3 = arith.constant 3 : index
    %c0 = arith.constant 0 : index
    %alloc = memref.alloc() {alignment = 64 : i64} : memref<3x2xf32>
    cf.br ^bb1(%c0 : index)
  ^bb1(%0: index):  // 2 preds: ^bb0, ^bb4
    %1 = arith.cmpi slt, %0, %c3 : index
    cf.cond_br %1, ^bb2(%c0 : index), ^bb5
  ^bb2(%2: index):  // 2 preds: ^bb1, ^bb3
    %3 = arith.cmpi slt, %2, %c2 : index
    cf.cond_br %3, ^bb3, ^bb4
  ^bb3:  // pred: ^bb2
    %4 = memref.load %arg0[%2, %0] : memref<2x3xf32>
    memref.store %4, %alloc[%0, %2] : memref<3x2xf32>
    %5 = arith.addi %2, %c1 : index
    cf.br ^bb2(%5 : index)
  ^bb4:  // pred: ^bb2
    %6 = arith.addi %0, %c1 : index
    cf.br ^bb1(%6 : index)
  ^bb5:  // pred: ^bb1
    return %alloc : memref<3x2xf32>
  }
}


// -----// IR Dump After ConvertMathToLibm (convert-math-to-libm) //----- //
module {
  memref.global "private" constant @__constant_2xi32 : memref<2xi32> = dense<[1, 0]> {alignment = 64 : i64}
  func.func @test_transpose(%arg0: memref<2x3xf32>, %arg1: memref<2xi32>) -> memref<3x2xf32> attributes {llvm.emit_c_interface} {
    %c2 = arith.constant 2 : index
    %c1 = arith.constant 1 : index
    %c3 = arith.constant 3 : index
    %c0 = arith.constant 0 : index
    %alloc = memref.alloc() {alignment = 64 : i64} : memref<3x2xf32>
    cf.br ^bb1(%c0 : index)
  ^bb1(%0: index):  // 2 preds: ^bb0, ^bb4
    %1 = arith.cmpi slt, %0, %c3 : index
    cf.cond_br %1, ^bb2(%c0 : index), ^bb5
  ^bb2(%2: index):  // 2 preds: ^bb1, ^bb3
    %3 = arith.cmpi slt, %2, %c2 : index
    cf.cond_br %3, ^bb3, ^bb4
  ^bb3:  // pred: ^bb2
    %4 = memref.load %arg0[%2, %0] : memref<2x3xf32>
    memref.store %4, %alloc[%0, %2] : memref<3x2xf32>
    %5 = arith.addi %2, %c1 : index
    cf.br ^bb2(%5 : index)
  ^bb4:  // pred: ^bb2
    %6 = arith.addi %0, %c1 : index
    cf.br ^bb1(%6 : index)
  ^bb5:  // pred: ^bb1
    return %alloc : memref<3x2xf32>
  }
}


// -----// IR Dump After ConvertFuncToLLVMPass (convert-func-to-llvm) //----- //
module {
  memref.global "private" constant @__constant_2xi32 : memref<2xi32> = dense<[1, 0]> {alignment = 64 : i64}
  llvm.func @test_transpose(%arg0: !llvm.ptr, %arg1: !llvm.ptr, %arg2: i64, %arg3: i64, %arg4: i64, %arg5: i64, %arg6: i64, %arg7: !llvm.ptr, %arg8: !llvm.ptr, %arg9: i64, %arg10: i64, %arg11: i64) -> !llvm.struct<(ptr, ptr, i64, array<2 x i64>, array<2 x i64>)> attributes {llvm.emit_c_interface} {
    %0 = llvm.mlir.undef : !llvm.struct<(ptr, ptr, i64, array<2 x i64>, array<2 x i64>)>
    %1 = llvm.insertvalue %arg0, %0[0] : !llvm.struct<(ptr, ptr, i64, array<2 x i64>, array<2 x i64>)> 
    %2 = llvm.insertvalue %arg1, %1[1] : !llvm.struct<(ptr, ptr, i64, array<2 x i64>, array<2 x i64>)> 
    %3 = llvm.insertvalue %arg2, %2[2] : !llvm.struct<(ptr, ptr, i64, array<2 x i64>, array<2 x i64>)> 
    %4 = llvm.insertvalue %arg3, %3[3, 0] : !llvm.struct<(ptr, ptr, i64, array<2 x i64>, array<2 x i64>)> 
    %5 = llvm.insertvalue %arg5, %4[4, 0] : !llvm.struct<(ptr, ptr, i64, array<2 x i64>, array<2 x i64>)> 
    %6 = llvm.insertvalue %arg4, %5[3, 1] : !llvm.struct<(ptr, ptr, i64, array<2 x i64>, array<2 x i64>)> 
    %7 = llvm.insertvalue %arg6, %6[4, 1] : !llvm.struct<(ptr, ptr, i64, array<2 x i64>, array<2 x i64>)> 
    %8 = builtin.unrealized_conversion_cast %7 : !llvm.struct<(ptr, ptr, i64, array<2 x i64>, array<2 x i64>)> to memref<2x3xf32>
    %9 = llvm.mlir.constant(2 : index) : i64
    %10 = llvm.mlir.constant(1 : index) : i64
    %11 = llvm.mlir.constant(3 : index) : i64
    %12 = llvm.mlir.constant(0 : index) : i64
    %alloc = memref.alloc() {alignment = 64 : i64} : memref<3x2xf32>
    %13 = builtin.unrealized_conversion_cast %alloc : memref<3x2xf32> to !llvm.struct<(ptr, ptr, i64, array<2 x i64>, array<2 x i64>)>
    llvm.br ^bb1(%12 : i64)
  ^bb1(%14: i64):  // 2 preds: ^bb0, ^bb4
    %15 = builtin.unrealized_conversion_cast %14 : i64 to index
    %16 = llvm.icmp "slt" %14, %11 : i64
    llvm.cond_br %16, ^bb2(%12 : i64), ^bb5
  ^bb2(%17: i64):  // 2 preds: ^bb1, ^bb3
    %18 = builtin.unrealized_conversion_cast %17 : i64 to index
    %19 = llvm.icmp "slt" %17, %9 : i64
    llvm.cond_br %19, ^bb3, ^bb4
  ^bb3:  // pred: ^bb2
    %20 = memref.load %8[%18, %15] : memref<2x3xf32>
    memref.store %20, %alloc[%15, %18] : memref<3x2xf32>
    %21 = llvm.add %17, %10 : i64
    llvm.br ^bb2(%21 : i64)
  ^bb4:  // pred: ^bb2
    %22 = llvm.add %14, %10 : i64
    llvm.br ^bb1(%22 : i64)
  ^bb5:  // pred: ^bb1
    llvm.return %13 : !llvm.struct<(ptr, ptr, i64, array<2 x i64>, array<2 x i64>)>
  }
  llvm.func @_mlir_ciface_test_transpose(%arg0: !llvm.ptr, %arg1: !llvm.ptr, %arg2: !llvm.ptr) attributes {llvm.emit_c_interface} {
    %0 = llvm.load %arg1 : !llvm.ptr -> !llvm.struct<(ptr, ptr, i64, array<2 x i64>, array<2 x i64>)>
    %1 = llvm.extractvalue %0[0] : !llvm.struct<(ptr, ptr, i64, array<2 x i64>, array<2 x i64>)> 
    %2 = llvm.extractvalue %0[1] : !llvm.struct<(ptr, ptr, i64, array<2 x i64>, array<2 x i64>)> 
    %3 = llvm.extractvalue %0[2] : !llvm.struct<(ptr, ptr, i64, array<2 x i64>, array<2 x i64>)> 
    %4 = llvm.extractvalue %0[3, 0] : !llvm.struct<(ptr, ptr, i64, array<2 x i64>, array<2 x i64>)> 
    %5 = llvm.extractvalue %0[3, 1] : !llvm.struct<(ptr, ptr, i64, array<2 x i64>, array<2 x i64>)> 
    %6 = llvm.extractvalue %0[4, 0] : !llvm.struct<(ptr, ptr, i64, array<2 x i64>, array<2 x i64>)> 
    %7 = llvm.extractvalue %0[4, 1] : !llvm.struct<(ptr, ptr, i64, array<2 x i64>, array<2 x i64>)> 
    %8 = llvm.load %arg2 : !llvm.ptr -> !llvm.struct<(ptr, ptr, i64, array<1 x i64>, array<1 x i64>)>
    %9 = llvm.extractvalue %8[0] : !llvm.struct<(ptr, ptr, i64, array<1 x i64>, array<1 x i64>)> 
    %10 = llvm.extractvalue %8[1] : !llvm.struct<(ptr, ptr, i64, array<1 x i64>, array<1 x i64>)> 
    %11 = llvm.extractvalue %8[2] : !llvm.struct<(ptr, ptr, i64, array<1 x i64>, array<1 x i64>)> 
    %12 = llvm.extractvalue %8[3, 0] : !llvm.struct<(ptr, ptr, i64, array<1 x i64>, array<1 x i64>)> 
    %13 = llvm.extractvalue %8[4, 0] : !llvm.struct<(ptr, ptr, i64, array<1 x i64>, array<1 x i64>)> 
    %14 = llvm.call @test_transpose(%1, %2, %3, %4, %5, %6, %7, %9, %10, %11, %12, %13) : (!llvm.ptr, !llvm.ptr, i64, i64, i64, i64, i64, !llvm.ptr, !llvm.ptr, i64, i64, i64) -> !llvm.struct<(ptr, ptr, i64, array<2 x i64>, array<2 x i64>)>
    llvm.store %14, %arg0 : !llvm.struct<(ptr, ptr, i64, array<2 x i64>, array<2 x i64>)>, !llvm.ptr
    llvm.return
  }
}


// -----// IR Dump After FinalizeMemRefToLLVMConversionPass (finalize-memref-to-llvm) //----- //
module {
  llvm.func @malloc(i64) -> !llvm.ptr
  llvm.mlir.global private constant @__constant_2xi32(dense<[1, 0]> : tensor<2xi32>) {addr_space = 0 : i32, alignment = 64 : i64} : !llvm.array<2 x i32>
  llvm.func @test_transpose(%arg0: !llvm.ptr, %arg1: !llvm.ptr, %arg2: i64, %arg3: i64, %arg4: i64, %arg5: i64, %arg6: i64, %arg7: !llvm.ptr, %arg8: !llvm.ptr, %arg9: i64, %arg10: i64, %arg11: i64) -> !llvm.struct<(ptr, ptr, i64, array<2 x i64>, array<2 x i64>)> attributes {llvm.emit_c_interface} {
    %0 = llvm.mlir.undef : !llvm.struct<(ptr, ptr, i64, array<2 x i64>, array<2 x i64>)>
    %1 = llvm.insertvalue %arg0, %0[0] : !llvm.struct<(ptr, ptr, i64, array<2 x i64>, array<2 x i64>)> 
    %2 = llvm.insertvalue %arg1, %1[1] : !llvm.struct<(ptr, ptr, i64, array<2 x i64>, array<2 x i64>)> 
    %3 = llvm.insertvalue %arg2, %2[2] : !llvm.struct<(ptr, ptr, i64, array<2 x i64>, array<2 x i64>)> 
    %4 = llvm.insertvalue %arg3, %3[3, 0] : !llvm.struct<(ptr, ptr, i64, array<2 x i64>, array<2 x i64>)> 
    %5 = llvm.insertvalue %arg5, %4[4, 0] : !llvm.struct<(ptr, ptr, i64, array<2 x i64>, array<2 x i64>)> 
    %6 = llvm.insertvalue %arg4, %5[3, 1] : !llvm.struct<(ptr, ptr, i64, array<2 x i64>, array<2 x i64>)> 
    %7 = llvm.insertvalue %arg6, %6[4, 1] : !llvm.struct<(ptr, ptr, i64, array<2 x i64>, array<2 x i64>)> 
    %8 = builtin.unrealized_conversion_cast %7 : !llvm.struct<(ptr, ptr, i64, array<2 x i64>, array<2 x i64>)> to memref<2x3xf32>
    %9 = llvm.mlir.constant(2 : index) : i64
    %10 = llvm.mlir.constant(1 : index) : i64
    %11 = llvm.mlir.constant(3 : index) : i64
    %12 = llvm.mlir.constant(0 : index) : i64
    %13 = llvm.mlir.constant(3 : index) : i64
    %14 = llvm.mlir.constant(2 : index) : i64
    %15 = llvm.mlir.constant(1 : index) : i64
    %16 = llvm.mlir.constant(6 : index) : i64
    %17 = llvm.mlir.zero : !llvm.ptr
    %18 = llvm.getelementptr %17[%16] : (!llvm.ptr, i64) -> !llvm.ptr, f32
    %19 = llvm.ptrtoint %18 : !llvm.ptr to i64
    %20 = llvm.mlir.constant(64 : index) : i64
    %21 = llvm.add %19, %20 : i64
    %22 = llvm.call @malloc(%21) : (i64) -> !llvm.ptr
    %23 = llvm.ptrtoint %22 : !llvm.ptr to i64
    %24 = llvm.mlir.constant(1 : index) : i64
    %25 = llvm.sub %20, %24 : i64
    %26 = llvm.add %23, %25 : i64
    %27 = llvm.urem %26, %20  : i64
    %28 = llvm.sub %26, %27 : i64
    %29 = llvm.inttoptr %28 : i64 to !llvm.ptr
    %30 = llvm.mlir.undef : !llvm.struct<(ptr, ptr, i64, array<2 x i64>, array<2 x i64>)>
    %31 = llvm.insertvalue %22, %30[0] : !llvm.struct<(ptr, ptr, i64, array<2 x i64>, array<2 x i64>)> 
    %32 = llvm.insertvalue %29, %31[1] : !llvm.struct<(ptr, ptr, i64, array<2 x i64>, array<2 x i64>)> 
    %33 = llvm.mlir.constant(0 : index) : i64
    %34 = llvm.insertvalue %33, %32[2] : !llvm.struct<(ptr, ptr, i64, array<2 x i64>, array<2 x i64>)> 
    %35 = llvm.insertvalue %13, %34[3, 0] : !llvm.struct<(ptr, ptr, i64, array<2 x i64>, array<2 x i64>)> 
    %36 = llvm.insertvalue %14, %35[3, 1] : !llvm.struct<(ptr, ptr, i64, array<2 x i64>, array<2 x i64>)> 
    %37 = llvm.insertvalue %14, %36[4, 0] : !llvm.struct<(ptr, ptr, i64, array<2 x i64>, array<2 x i64>)> 
    %38 = llvm.insertvalue %15, %37[4, 1] : !llvm.struct<(ptr, ptr, i64, array<2 x i64>, array<2 x i64>)> 
    %39 = builtin.unrealized_conversion_cast %38 : !llvm.struct<(ptr, ptr, i64, array<2 x i64>, array<2 x i64>)> to memref<3x2xf32>
    %40 = builtin.unrealized_conversion_cast %39 : memref<3x2xf32> to !llvm.struct<(ptr, ptr, i64, array<2 x i64>, array<2 x i64>)>
    llvm.br ^bb1(%12 : i64)
  ^bb1(%41: i64):  // 2 preds: ^bb0, ^bb4
    %42 = builtin.unrealized_conversion_cast %41 : i64 to index
    %43 = llvm.icmp "slt" %41, %11 : i64
    llvm.cond_br %43, ^bb2(%12 : i64), ^bb5
  ^bb2(%44: i64):  // 2 preds: ^bb1, ^bb3
    %45 = builtin.unrealized_conversion_cast %44 : i64 to index
    %46 = llvm.icmp "slt" %44, %9 : i64
    llvm.cond_br %46, ^bb3, ^bb4
  ^bb3:  // pred: ^bb2
    %47 = llvm.extractvalue %7[1] : !llvm.struct<(ptr, ptr, i64, array<2 x i64>, array<2 x i64>)> 
    %48 = llvm.mlir.constant(3 : index) : i64
    %49 = llvm.mul %44, %48 : i64
    %50 = llvm.add %49, %41 : i64
    %51 = llvm.getelementptr %47[%50] : (!llvm.ptr, i64) -> !llvm.ptr, f32
    %52 = llvm.load %51 : !llvm.ptr -> f32
    %53 = llvm.extractvalue %38[1] : !llvm.struct<(ptr, ptr, i64, array<2 x i64>, array<2 x i64>)> 
    %54 = llvm.mlir.constant(2 : index) : i64
    %55 = llvm.mul %41, %54 : i64
    %56 = llvm.add %55, %44 : i64
    %57 = llvm.getelementptr %53[%56] : (!llvm.ptr, i64) -> !llvm.ptr, f32
    llvm.store %52, %57 : f32, !llvm.ptr
    %58 = llvm.add %44, %10 : i64
    llvm.br ^bb2(%58 : i64)
  ^bb4:  // pred: ^bb2
    %59 = llvm.add %41, %10 : i64
    llvm.br ^bb1(%59 : i64)
  ^bb5:  // pred: ^bb1
    llvm.return %40 : !llvm.struct<(ptr, ptr, i64, array<2 x i64>, array<2 x i64>)>
  }
  llvm.func @_mlir_ciface_test_transpose(%arg0: !llvm.ptr, %arg1: !llvm.ptr, %arg2: !llvm.ptr) attributes {llvm.emit_c_interface} {
    %0 = llvm.load %arg1 : !llvm.ptr -> !llvm.struct<(ptr, ptr, i64, array<2 x i64>, array<2 x i64>)>
    %1 = llvm.extractvalue %0[0] : !llvm.struct<(ptr, ptr, i64, array<2 x i64>, array<2 x i64>)> 
    %2 = llvm.extractvalue %0[1] : !llvm.struct<(ptr, ptr, i64, array<2 x i64>, array<2 x i64>)> 
    %3 = llvm.extractvalue %0[2] : !llvm.struct<(ptr, ptr, i64, array<2 x i64>, array<2 x i64>)> 
    %4 = llvm.extractvalue %0[3, 0] : !llvm.struct<(ptr, ptr, i64, array<2 x i64>, array<2 x i64>)> 
    %5 = llvm.extractvalue %0[3, 1] : !llvm.struct<(ptr, ptr, i64, array<2 x i64>, array<2 x i64>)> 
    %6 = llvm.extractvalue %0[4, 0] : !llvm.struct<(ptr, ptr, i64, array<2 x i64>, array<2 x i64>)> 
    %7 = llvm.extractvalue %0[4, 1] : !llvm.struct<(ptr, ptr, i64, array<2 x i64>, array<2 x i64>)> 
    %8 = llvm.load %arg2 : !llvm.ptr -> !llvm.struct<(ptr, ptr, i64, array<1 x i64>, array<1 x i64>)>
    %9 = llvm.extractvalue %8[0] : !llvm.struct<(ptr, ptr, i64, array<1 x i64>, array<1 x i64>)> 
    %10 = llvm.extractvalue %8[1] : !llvm.struct<(ptr, ptr, i64, array<1 x i64>, array<1 x i64>)> 
    %11 = llvm.extractvalue %8[2] : !llvm.struct<(ptr, ptr, i64, array<1 x i64>, array<1 x i64>)> 
    %12 = llvm.extractvalue %8[3, 0] : !llvm.struct<(ptr, ptr, i64, array<1 x i64>, array<1 x i64>)> 
    %13 = llvm.extractvalue %8[4, 0] : !llvm.struct<(ptr, ptr, i64, array<1 x i64>, array<1 x i64>)> 
    %14 = llvm.call @test_transpose(%1, %2, %3, %4, %5, %6, %7, %9, %10, %11, %12, %13) : (!llvm.ptr, !llvm.ptr, i64, i64, i64, i64, i64, !llvm.ptr, !llvm.ptr, i64, i64, i64) -> !llvm.struct<(ptr, ptr, i64, array<2 x i64>, array<2 x i64>)>
    llvm.store %14, %arg0 : !llvm.struct<(ptr, ptr, i64, array<2 x i64>, array<2 x i64>)>, !llvm.ptr
    llvm.return
  }
}


// -----// IR Dump After ReconcileUnrealizedCasts (reconcile-unrealized-casts) //----- //
module {
  llvm.func @malloc(i64) -> !llvm.ptr
  llvm.mlir.global private constant @__constant_2xi32(dense<[1, 0]> : tensor<2xi32>) {addr_space = 0 : i32, alignment = 64 : i64} : !llvm.array<2 x i32>
  llvm.func @test_transpose(%arg0: !llvm.ptr, %arg1: !llvm.ptr, %arg2: i64, %arg3: i64, %arg4: i64, %arg5: i64, %arg6: i64, %arg7: !llvm.ptr, %arg8: !llvm.ptr, %arg9: i64, %arg10: i64, %arg11: i64) -> !llvm.struct<(ptr, ptr, i64, array<2 x i64>, array<2 x i64>)> attributes {llvm.emit_c_interface} {
    %0 = llvm.mlir.undef : !llvm.struct<(ptr, ptr, i64, array<2 x i64>, array<2 x i64>)>
    %1 = llvm.insertvalue %arg0, %0[0] : !llvm.struct<(ptr, ptr, i64, array<2 x i64>, array<2 x i64>)> 
    %2 = llvm.insertvalue %arg1, %1[1] : !llvm.struct<(ptr, ptr, i64, array<2 x i64>, array<2 x i64>)> 
    %3 = llvm.insertvalue %arg2, %2[2] : !llvm.struct<(ptr, ptr, i64, array<2 x i64>, array<2 x i64>)> 
    %4 = llvm.insertvalue %arg3, %3[3, 0] : !llvm.struct<(ptr, ptr, i64, array<2 x i64>, array<2 x i64>)> 
    %5 = llvm.insertvalue %arg5, %4[4, 0] : !llvm.struct<(ptr, ptr, i64, array<2 x i64>, array<2 x i64>)> 
    %6 = llvm.insertvalue %arg4, %5[3, 1] : !llvm.struct<(ptr, ptr, i64, array<2 x i64>, array<2 x i64>)> 
    %7 = llvm.insertvalue %arg6, %6[4, 1] : !llvm.struct<(ptr, ptr, i64, array<2 x i64>, array<2 x i64>)> 
    %8 = llvm.mlir.constant(2 : index) : i64
    %9 = llvm.mlir.constant(1 : index) : i64
    %10 = llvm.mlir.constant(3 : index) : i64
    %11 = llvm.mlir.constant(0 : index) : i64
    %12 = llvm.mlir.constant(3 : index) : i64
    %13 = llvm.mlir.constant(2 : index) : i64
    %14 = llvm.mlir.constant(1 : index) : i64
    %15 = llvm.mlir.constant(6 : index) : i64
    %16 = llvm.mlir.zero : !llvm.ptr
    %17 = llvm.getelementptr %16[%15] : (!llvm.ptr, i64) -> !llvm.ptr, f32
    %18 = llvm.ptrtoint %17 : !llvm.ptr to i64
    %19 = llvm.mlir.constant(64 : index) : i64
    %20 = llvm.add %18, %19 : i64
    %21 = llvm.call @malloc(%20) : (i64) -> !llvm.ptr
    %22 = llvm.ptrtoint %21 : !llvm.ptr to i64
    %23 = llvm.mlir.constant(1 : index) : i64
    %24 = llvm.sub %19, %23 : i64
    %25 = llvm.add %22, %24 : i64
    %26 = llvm.urem %25, %19  : i64
    %27 = llvm.sub %25, %26 : i64
    %28 = llvm.inttoptr %27 : i64 to !llvm.ptr
    %29 = llvm.mlir.undef : !llvm.struct<(ptr, ptr, i64, array<2 x i64>, array<2 x i64>)>
    %30 = llvm.insertvalue %21, %29[0] : !llvm.struct<(ptr, ptr, i64, array<2 x i64>, array<2 x i64>)> 
    %31 = llvm.insertvalue %28, %30[1] : !llvm.struct<(ptr, ptr, i64, array<2 x i64>, array<2 x i64>)> 
    %32 = llvm.mlir.constant(0 : index) : i64
    %33 = llvm.insertvalue %32, %31[2] : !llvm.struct<(ptr, ptr, i64, array<2 x i64>, array<2 x i64>)> 
    %34 = llvm.insertvalue %12, %33[3, 0] : !llvm.struct<(ptr, ptr, i64, array<2 x i64>, array<2 x i64>)> 
    %35 = llvm.insertvalue %13, %34[3, 1] : !llvm.struct<(ptr, ptr, i64, array<2 x i64>, array<2 x i64>)> 
    %36 = llvm.insertvalue %13, %35[4, 0] : !llvm.struct<(ptr, ptr, i64, array<2 x i64>, array<2 x i64>)> 
    %37 = llvm.insertvalue %14, %36[4, 1] : !llvm.struct<(ptr, ptr, i64, array<2 x i64>, array<2 x i64>)> 
    llvm.br ^bb1(%11 : i64)
  ^bb1(%38: i64):  // 2 preds: ^bb0, ^bb4
    %39 = llvm.icmp "slt" %38, %10 : i64
    llvm.cond_br %39, ^bb2(%11 : i64), ^bb5
  ^bb2(%40: i64):  // 2 preds: ^bb1, ^bb3
    %41 = llvm.icmp "slt" %40, %8 : i64
    llvm.cond_br %41, ^bb3, ^bb4
  ^bb3:  // pred: ^bb2
    %42 = llvm.extractvalue %7[1] : !llvm.struct<(ptr, ptr, i64, array<2 x i64>, array<2 x i64>)> 
    %43 = llvm.mlir.constant(3 : index) : i64
    %44 = llvm.mul %40, %43 : i64
    %45 = llvm.add %44, %38 : i64
    %46 = llvm.getelementptr %42[%45] : (!llvm.ptr, i64) -> !llvm.ptr, f32
    %47 = llvm.load %46 : !llvm.ptr -> f32
    %48 = llvm.extractvalue %37[1] : !llvm.struct<(ptr, ptr, i64, array<2 x i64>, array<2 x i64>)> 
    %49 = llvm.mlir.constant(2 : index) : i64
    %50 = llvm.mul %38, %49 : i64
    %51 = llvm.add %50, %40 : i64
    %52 = llvm.getelementptr %48[%51] : (!llvm.ptr, i64) -> !llvm.ptr, f32
    llvm.store %47, %52 : f32, !llvm.ptr
    %53 = llvm.add %40, %9 : i64
    llvm.br ^bb2(%53 : i64)
  ^bb4:  // pred: ^bb2
    %54 = llvm.add %38, %9 : i64
    llvm.br ^bb1(%54 : i64)
  ^bb5:  // pred: ^bb1
    llvm.return %37 : !llvm.struct<(ptr, ptr, i64, array<2 x i64>, array<2 x i64>)>
  }
  llvm.func @_mlir_ciface_test_transpose(%arg0: !llvm.ptr, %arg1: !llvm.ptr, %arg2: !llvm.ptr) attributes {llvm.emit_c_interface} {
    %0 = llvm.load %arg1 : !llvm.ptr -> !llvm.struct<(ptr, ptr, i64, array<2 x i64>, array<2 x i64>)>
    %1 = llvm.extractvalue %0[0] : !llvm.struct<(ptr, ptr, i64, array<2 x i64>, array<2 x i64>)> 
    %2 = llvm.extractvalue %0[1] : !llvm.struct<(ptr, ptr, i64, array<2 x i64>, array<2 x i64>)> 
    %3 = llvm.extractvalue %0[2] : !llvm.struct<(ptr, ptr, i64, array<2 x i64>, array<2 x i64>)> 
    %4 = llvm.extractvalue %0[3, 0] : !llvm.struct<(ptr, ptr, i64, array<2 x i64>, array<2 x i64>)> 
    %5 = llvm.extractvalue %0[3, 1] : !llvm.struct<(ptr, ptr, i64, array<2 x i64>, array<2 x i64>)> 
    %6 = llvm.extractvalue %0[4, 0] : !llvm.struct<(ptr, ptr, i64, array<2 x i64>, array<2 x i64>)> 
    %7 = llvm.extractvalue %0[4, 1] : !llvm.struct<(ptr, ptr, i64, array<2 x i64>, array<2 x i64>)> 
    %8 = llvm.load %arg2 : !llvm.ptr -> !llvm.struct<(ptr, ptr, i64, array<1 x i64>, array<1 x i64>)>
    %9 = llvm.extractvalue %8[0] : !llvm.struct<(ptr, ptr, i64, array<1 x i64>, array<1 x i64>)> 
    %10 = llvm.extractvalue %8[1] : !llvm.struct<(ptr, ptr, i64, array<1 x i64>, array<1 x i64>)> 
    %11 = llvm.extractvalue %8[2] : !llvm.struct<(ptr, ptr, i64, array<1 x i64>, array<1 x i64>)> 
    %12 = llvm.extractvalue %8[3, 0] : !llvm.struct<(ptr, ptr, i64, array<1 x i64>, array<1 x i64>)> 
    %13 = llvm.extractvalue %8[4, 0] : !llvm.struct<(ptr, ptr, i64, array<1 x i64>, array<1 x i64>)> 
    %14 = llvm.call @test_transpose(%1, %2, %3, %4, %5, %6, %7, %9, %10, %11, %12, %13) : (!llvm.ptr, !llvm.ptr, i64, i64, i64, i64, i64, !llvm.ptr, !llvm.ptr, i64, i64, i64) -> !llvm.struct<(ptr, ptr, i64, array<2 x i64>, array<2 x i64>)>
    llvm.store %14, %arg0 : !llvm.struct<(ptr, ptr, i64, array<2 x i64>, array<2 x i64>)>, !llvm.ptr
    llvm.return
  }
}


module {
  llvm.func @malloc(i64) -> !llvm.ptr
  llvm.mlir.global private constant @__constant_2xi32(dense<[1, 0]> : tensor<2xi32>) {addr_space = 0 : i32, alignment = 64 : i64} : !llvm.array<2 x i32>
  llvm.func @test_transpose(%arg0: !llvm.ptr, %arg1: !llvm.ptr, %arg2: i64, %arg3: i64, %arg4: i64, %arg5: i64, %arg6: i64, %arg7: !llvm.ptr, %arg8: !llvm.ptr, %arg9: i64, %arg10: i64, %arg11: i64) -> !llvm.struct<(ptr, ptr, i64, array<2 x i64>, array<2 x i64>)> attributes {llvm.emit_c_interface} {
    %0 = llvm.mlir.undef : !llvm.struct<(ptr, ptr, i64, array<2 x i64>, array<2 x i64>)>
    %1 = llvm.insertvalue %arg0, %0[0] : !llvm.struct<(ptr, ptr, i64, array<2 x i64>, array<2 x i64>)> 
    %2 = llvm.insertvalue %arg1, %1[1] : !llvm.struct<(ptr, ptr, i64, array<2 x i64>, array<2 x i64>)> 
    %3 = llvm.insertvalue %arg2, %2[2] : !llvm.struct<(ptr, ptr, i64, array<2 x i64>, array<2 x i64>)> 
    %4 = llvm.insertvalue %arg3, %3[3, 0] : !llvm.struct<(ptr, ptr, i64, array<2 x i64>, array<2 x i64>)> 
    %5 = llvm.insertvalue %arg5, %4[4, 0] : !llvm.struct<(ptr, ptr, i64, array<2 x i64>, array<2 x i64>)> 
    %6 = llvm.insertvalue %arg4, %5[3, 1] : !llvm.struct<(ptr, ptr, i64, array<2 x i64>, array<2 x i64>)> 
    %7 = llvm.insertvalue %arg6, %6[4, 1] : !llvm.struct<(ptr, ptr, i64, array<2 x i64>, array<2 x i64>)> 
    %8 = llvm.mlir.constant(2 : index) : i64
    %9 = llvm.mlir.constant(1 : index) : i64
    %10 = llvm.mlir.constant(3 : index) : i64
    %11 = llvm.mlir.constant(0 : index) : i64
    %12 = llvm.mlir.constant(3 : index) : i64
    %13 = llvm.mlir.constant(2 : index) : i64
    %14 = llvm.mlir.constant(1 : index) : i64
    %15 = llvm.mlir.constant(6 : index) : i64
    %16 = llvm.mlir.zero : !llvm.ptr
    %17 = llvm.getelementptr %16[%15] : (!llvm.ptr, i64) -> !llvm.ptr, f32
    %18 = llvm.ptrtoint %17 : !llvm.ptr to i64
    %19 = llvm.mlir.constant(64 : index) : i64
    %20 = llvm.add %18, %19 : i64
    %21 = llvm.call @malloc(%20) : (i64) -> !llvm.ptr
    %22 = llvm.ptrtoint %21 : !llvm.ptr to i64
    %23 = llvm.mlir.constant(1 : index) : i64
    %24 = llvm.sub %19, %23 : i64
    %25 = llvm.add %22, %24 : i64
    %26 = llvm.urem %25, %19  : i64
    %27 = llvm.sub %25, %26 : i64
    %28 = llvm.inttoptr %27 : i64 to !llvm.ptr
    %29 = llvm.mlir.undef : !llvm.struct<(ptr, ptr, i64, array<2 x i64>, array<2 x i64>)>
    %30 = llvm.insertvalue %21, %29[0] : !llvm.struct<(ptr, ptr, i64, array<2 x i64>, array<2 x i64>)> 
    %31 = llvm.insertvalue %28, %30[1] : !llvm.struct<(ptr, ptr, i64, array<2 x i64>, array<2 x i64>)> 
    %32 = llvm.mlir.constant(0 : index) : i64
    %33 = llvm.insertvalue %32, %31[2] : !llvm.struct<(ptr, ptr, i64, array<2 x i64>, array<2 x i64>)> 
    %34 = llvm.insertvalue %12, %33[3, 0] : !llvm.struct<(ptr, ptr, i64, array<2 x i64>, array<2 x i64>)> 
    %35 = llvm.insertvalue %13, %34[3, 1] : !llvm.struct<(ptr, ptr, i64, array<2 x i64>, array<2 x i64>)> 
    %36 = llvm.insertvalue %13, %35[4, 0] : !llvm.struct<(ptr, ptr, i64, array<2 x i64>, array<2 x i64>)> 
    %37 = llvm.insertvalue %14, %36[4, 1] : !llvm.struct<(ptr, ptr, i64, array<2 x i64>, array<2 x i64>)> 
    llvm.br ^bb1(%11 : i64)
  ^bb1(%38: i64):  // 2 preds: ^bb0, ^bb4
    %39 = llvm.icmp "slt" %38, %10 : i64
    llvm.cond_br %39, ^bb2(%11 : i64), ^bb5
  ^bb2(%40: i64):  // 2 preds: ^bb1, ^bb3
    %41 = llvm.icmp "slt" %40, %8 : i64
    llvm.cond_br %41, ^bb3, ^bb4
  ^bb3:  // pred: ^bb2
    %42 = llvm.extractvalue %7[1] : !llvm.struct<(ptr, ptr, i64, array<2 x i64>, array<2 x i64>)> 
    %43 = llvm.mlir.constant(3 : index) : i64
    %44 = llvm.mul %40, %43 : i64
    %45 = llvm.add %44, %38 : i64
    %46 = llvm.getelementptr %42[%45] : (!llvm.ptr, i64) -> !llvm.ptr, f32
    %47 = llvm.load %46 : !llvm.ptr -> f32
    %48 = llvm.extractvalue %37[1] : !llvm.struct<(ptr, ptr, i64, array<2 x i64>, array<2 x i64>)> 
    %49 = llvm.mlir.constant(2 : index) : i64
    %50 = llvm.mul %38, %49 : i64
    %51 = llvm.add %50, %40 : i64
    %52 = llvm.getelementptr %48[%51] : (!llvm.ptr, i64) -> !llvm.ptr, f32
    llvm.store %47, %52 : f32, !llvm.ptr
    %53 = llvm.add %40, %9 : i64
    llvm.br ^bb2(%53 : i64)
  ^bb4:  // pred: ^bb2
    %54 = llvm.add %38, %9 : i64
    llvm.br ^bb1(%54 : i64)
  ^bb5:  // pred: ^bb1
    llvm.return %37 : !llvm.struct<(ptr, ptr, i64, array<2 x i64>, array<2 x i64>)>
  }
  llvm.func @_mlir_ciface_test_transpose(%arg0: !llvm.ptr, %arg1: !llvm.ptr, %arg2: !llvm.ptr) attributes {llvm.emit_c_interface} {
    %0 = llvm.load %arg1 : !llvm.ptr -> !llvm.struct<(ptr, ptr, i64, array<2 x i64>, array<2 x i64>)>
    %1 = llvm.extractvalue %0[0] : !llvm.struct<(ptr, ptr, i64, array<2 x i64>, array<2 x i64>)> 
    %2 = llvm.extractvalue %0[1] : !llvm.struct<(ptr, ptr, i64, array<2 x i64>, array<2 x i64>)> 
    %3 = llvm.extractvalue %0[2] : !llvm.struct<(ptr, ptr, i64, array<2 x i64>, array<2 x i64>)> 
    %4 = llvm.extractvalue %0[3, 0] : !llvm.struct<(ptr, ptr, i64, array<2 x i64>, array<2 x i64>)> 
    %5 = llvm.extractvalue %0[3, 1] : !llvm.struct<(ptr, ptr, i64, array<2 x i64>, array<2 x i64>)> 
    %6 = llvm.extractvalue %0[4, 0] : !llvm.struct<(ptr, ptr, i64, array<2 x i64>, array<2 x i64>)> 
    %7 = llvm.extractvalue %0[4, 1] : !llvm.struct<(ptr, ptr, i64, array<2 x i64>, array<2 x i64>)> 
    %8 = llvm.load %arg2 : !llvm.ptr -> !llvm.struct<(ptr, ptr, i64, array<1 x i64>, array<1 x i64>)>
    %9 = llvm.extractvalue %8[0] : !llvm.struct<(ptr, ptr, i64, array<1 x i64>, array<1 x i64>)> 
    %10 = llvm.extractvalue %8[1] : !llvm.struct<(ptr, ptr, i64, array<1 x i64>, array<1 x i64>)> 
    %11 = llvm.extractvalue %8[2] : !llvm.struct<(ptr, ptr, i64, array<1 x i64>, array<1 x i64>)> 
    %12 = llvm.extractvalue %8[3, 0] : !llvm.struct<(ptr, ptr, i64, array<1 x i64>, array<1 x i64>)> 
    %13 = llvm.extractvalue %8[4, 0] : !llvm.struct<(ptr, ptr, i64, array<1 x i64>, array<1 x i64>)> 
    %14 = llvm.call @test_transpose(%1, %2, %3, %4, %5, %6, %7, %9, %10, %11, %12, %13) : (!llvm.ptr, !llvm.ptr, i64, i64, i64, i64, i64, !llvm.ptr, !llvm.ptr, i64, i64, i64) -> !llvm.struct<(ptr, ptr, i64, array<2 x i64>, array<2 x i64>)>
    llvm.store %14, %arg0 : !llvm.struct<(ptr, ptr, i64, array<2 x i64>, array<2 x i64>)>, !llvm.ptr
    llvm.return
  }
}
